final_ckpt_critic_0.pth (torch_old, 185314 bytes, 5 tensors)

fcs1.weight f4 [256, 48]
000000 1a 07 c9 3a ff 13 c2 b9 69 76 68 b9 2d 76 82 b8
       0.00153372 -0.00037017462 -0.00022169355 -6.220895e-05
000010 f9 d8 9f 3a 7b e9 93 ba 69 76 68 b9 2d 76 82 b8
       0.00121954 -0.0011284793 -0.00022169355 -6.220895e-05
000020 33 46 c6 3a 14 1f 50 b9 17 ef b7 b9 72 43 5f 39
       0.0015127122 -0.00019848003 -0.00035082616 0.00021292063
000030 94 79 94 3a 3b 41 99 ba 17 ef b7 b9 72 43 5f 39
       0.0011327737 -0.0011692414 -0.00035082616 0.00021292063
000040 25 d1 b4 3a a4 83 06 38 2f be d5 b9 5e 3c fd 39
       0.001379524 3.207069e-05 -0.00040768224 0.00048300897
000050 f6 a2 8c 3a c3 3b a4 ba 2f be d5 b9 5e 3c fd 39
       0.0010729718 -0.0012530017 -0.00040768224 0.00048300897
000060 49 6a 19 3a 5b fd e7 39 79 11 34 ba 77 b8 65 39
       0.00058523245 0.00044248518 -0.00068690587 0.0002190786
000070 f9 d8 9f ba 7b e9 93 ba 79 11 34 ba 77 b8 65 39
       -0.00121954 -0.0011284793 -0.00068690587 0.0002190786
000080 99 4e 3b 3a a2 16 bf 39 6c ed 3e ba bb a4 9e b9
       0.0007145196 0.00036447222 -0.00072833034 -0.00030258842
000090 94 79 94 ba 3b 41 99 ba 6c ed 3e ba bb a4 9e b9
       -0.0011327737 -0.0011692414 -0.00072833034 -0.00030258842
0000a0 7d 3b 5d 3a 92 57 9a 39 26 09 14 ba f8 9d fb b9
       0.00084393454 0.00029438414 -0.0005647115 -0.00047992147
0000b0 f6 a2 8c ba c3 3b a4 ba 26 09 14 ba f8 9d fb b9
       -0.0010729718 -0.0012530017 -0.0005647115 -0.00047992147
0000c0 33 ba 05 3c a2 54 93 3b 4f e5 5c bb 80 62 4b ba
       0.008162069 0.004496173 -0.0033706015 -0.0007758513
0000d0 89 0f fb 3b a6 07 f8 bb 4f e5 5c bb 80 62 4b ba
       0.007661764 -0.007569271 -0.0033706015 -0.0007758513
0000e0 21 36 26 3c 3f 33 3b 3b 90 6d 50 3a c8 d8 fe bb
       0.010144741 0.002856448 0.00079508964 -0.007777307
0000f0 09 98 0a 3c 78 5a d9 bb 90 6d 50 3a c8 d8 fe bb
       0.0084591 -0.006633099 0.00079508964 -0.007777307
000100 51 cc 34 3c 35 e2 83 3a 3d 06 12 3b b2 a3 10 bc
       0.011035041 0.0010061922 0.002228155 -0.0088280905
000110 9f 81 1d 3c 39 9f ae bb 3d 06 12 3b b2 a3 10 bc
       0.009613424 -0.0053290394 0.002228155 -0.0088280905
000120 32 58 18 3c 93 04 ec 3a ad b0 82 bb 68 8e 81 3b
       0.009298371 0.0018006734 -0.0039883466 0.0039537437
000130 89 0f fb bb a6 07 f8 bb ad b0 82 bb 68 8e 81 3b
       -0.007661764 -0.007569271 -0.0039883466 0.0039537437
000140 6c 9b 23 3c 93 91 5a 3b ec 71 83 ba 5c b5 b7 3b
       0.009985786 0.003335093 -0.0010028458 0.0056063365
000150 09 98 0a bc 78 5a d9 bb ec 71 83 ba 5c b5 b7 3b
       -0.0084591 -0.006633099 -0.0010028458 0.0056063365
000160 b3 4b 3d 3c 91 b6 48 3b 3a 2f e3 3a f5 23 84 bb
       0.011553693 0.0030626396 0.00173328 -0.0040326067
000170 9f 81 1d bc 39 9f ae bb 3a 2f e3 3a f5 23 84 bb
       -0.009613424 -0.0053290394 0.00173328 -0.0040326067
000180 93 47 b4 39 4e dc 88 b7 bd 31 e9 b8 fe 22 c8 b8
       0.00034385602 -1.631505e-05 -0.0001111957 -9.543261e-05
000190 53 e3 52 39 17 38 77 b9 bd 31 e9 b8 fe 22 c8 b8
       0.00020111846 -0.0002357665 -0.0001111957 -9.543261e-05
0001a0 e5 b3 d2 39 7f 58 9e b7 91 b8 97 b7 4c 08 0c b9
       0.00040188353 -1.8876277e-05 -1.8086548e-05 -0.00013354531
0001b0 a3 27 65 39 4d 45 62 b9 91 b8 97 b7 4c 08 0c b9
       0.00021853908 -0.00021578856 -1.8086548e-05 -0.00013354531
0001c0 05 62 c8 39 a8 68 91 b7 0a d8 75 b9 cc 86 49 b9
       0.00038220003 -1.7334081e-05 -0.00023445502 -0.0001921907
0001d0 80 ef 80 39 77 f2 39 b9 0a d8 75 b9 cc 86 49 b9
       0.00024592504 -0.000177333 -0.00023445502 -0.0001921907
0001e0 1d f0 e1 39 b4 b2 f5 38 13 46 6c b7 4a c6 26 39
       0.00043094243 0.000117157964 -1.4083012e-05 0.00015904862
0001f0 53 e3 52 b9 17 38 77 b9 13 46 6c b7 4a c6 26 39
       -0.00020111846 -0.0002357665 -1.4083012e-05 0.00015904862
000200 e1 97 01 3a 47 26 29 39 6b a6 04 b9 0e b7 ec 39
       0.0004943591 0.00016131355 -0.00012650497 0.00045149814
000210 a3 27 65 b9 4d 45 62 b9 6b a6 04 b9 0e b7 ec 39
       -0.00021853908 -0.00021578856 -0.00012650497 0.00045149814
000220 99 26 10 3a d1 2b 32 39 cb 5b aa b7 ac b4 c6 b8
       0.00054989156 0.00016991726 -2.0308324e-05 -9.4750285e-05
000230 80 ef 80 b9 77 f2 39 b9 cb 5b aa b7 ac b4 c6 b8
       -0.00024592504 -0.000177333 -2.0308324e-05 -9.4750285e-05
000240 f1 06 20 3b 7f 12 5a ba 53 c5 0a 39 84 d0 ba b9
       0.00244182 -0.0008318796 0.00013234215 -0.0003563204
000250 b2 5d 20 3a 0b 1f 91 ba 53 c5 0a 39 84 d0 ba b9
       0.00061174773 -0.0011071874 0.00013234215 -0.0003563204
000260 2e 6a 34 3b e3 66 32 ba 8e ac a2 37 65 cd 59 39
       0.0027529108 -0.00068054924 1.9392257e-05 0.00020771248
000270 33 af 02 3a 1e 52 8e ba 8e ac a2 37 65 cd 59 39
       0.0004985213 -0.0010858213 1.9392257e-05 0.00020771248
000280 7c a7 5a 3b a0 07 0c ba 93 93 e0 ba 14 a9 a9 39
       0.0033363989 -0.00053417124 -0.0017133824 0.00032360165
000290 16 bc 09 3a 29 42 91 ba 93 93 e0 ba 14 a9 a9 39
       0.0005254162 -0.0011082339 -0.0017133824 0.00032360165
0002a0 5d fc f5 3a 85 c6 92 38 f4 fc 13 bb 51 29 d8 ba
       0.0018767227 6.9988e-05 -0.0022581192 -0.0016491805
0002b0 b2 5d 20 ba 0b 1f 91 ba f4 fc 13 bb 51 29 d8 ba
       -0.00061174773 -0.0011071874 -0.0022581192 -0.0016491805
0002c0 c4 61 1a 3b 79 c9 c2 b8 1d 6d b5 ba 15 d0 d7 ba
       0.0023556808 -9.288168e-05 -0.0013841722 -0.0016465212
0002d0 33 af 02 ba 1e 52 8e ba 1d 6d b5 ba 15 d0 d7 ba
       -0.0004985213 -0.0010858213 -0.0013841722 -0.0016465212
0002e0 24 30 52 3b 86 38 c3 b8 13 0e 02 b9 7f e0 ae ba
       0.003207215 -9.308853e-05 -0.00012403009 -0.0013342052
0002f0 16 bc 09 ba 29 42 91 ba 13 0e 02 b9 7f e0 ae ba
       -0.0005254162 -0.0011082339 -0.00012403009 -0.0013342052
000300 9a b1 a0 3b 77 f8 17 39 44 f1 ef ba 03 7c 31 bb
       0.0049039843 0.00014493043 -0.0018306156 -0.0027081973
000310 4f e9 09 3b ed 2c 85 bb 44 f1 ef ba 03 7c 31 bb
       0.0021043604 -0.0040641935 -0.0018306156 -0.0027081973
000320 80 71 b3 3b 85 fc 9a b9 74 96 d7 ba ff 0f 45 bb
       0.0054761767 -0.0002956131 -0.0016448037 -0.003006935
000330 d3 46 ca 3a 42 0c 83 bb 74 96 d7 ba ff 0f 45 bb
       0.0015432484 -0.003999264 -0.0016448037 -0.003006935
000340 c4 e4 c9 3b 17 2a 2b ba 77 c2 1d ba f8 89 da ba
       0.006161304 -0.0006529404 -0.0006018052 -0.0016673198
000350 fa 7f 6a 3a e9 2f 80 bb 77 c2 1d ba f8 89 da ba
       0.00089454616 -0.0039119613 -0.0006018052 -0.0016673198
000360 1b df 96 3b 6d 71 5a 3a 23 92 83 ba 76 d6 30 3b
       0.004604233 0.0008332942 -0.0010038059 0.0026983297
000370 4f e9 09 bb ed 2c 85 bb 23 92 83 ba 76 d6 30 3b
       -0.0021043604 -0.0040641935 -0.0010038059 0.0026983297
000380 71 cb b7 3b 31 e0 94 3a 4f 9f 86 b8 00 44 16 3b
       0.005608969 0.0011358318 -6.4192915e-05 0.0022928715
000390 d3 46 ca ba 42 0c 83 bb 4f 9f 86 b8 00 44 16 3b
       -0.0015432484 -0.003999264 -6.4192915e-05 0.0022928715
0003a0 ad 17 d0 3b 18 a0 a4 3a 36 95 8c b7 bf fb a9 3a
       0.0063504786 0.0012559919 -1.6758782e-05 0.0012968703
0003b0 fa 7f 6a ba e9 2f 80 bb 36 95 8c b7 bf fb a9 3a
       -0.00089454616 -0.0039119613 -1.6758782e-05 0.0012968703
0003c0 09 85 19 3a 3e 15 f4 38 b4 e1 9e b9 09 03 96 b8
       0.00058563106 0.00011638783 -0.0003030427 -7.153123e-05
0003d0 5c 1f 30 39 86 f4 06 ba b4 e1 9e b9 09 03 96 b8
       0.0001679635 -0.0005148131 -0.0003030427 -7.153123e-05
0003e0 29 c1 51 3a ab 5a ef 37 14 a7 02 39 c2 1e ee b9
       0.00080015004 2.853324e-05 0.00012460008 -0.00045417814
0003f0 23 09 ff 38 d0 3f 07 ba 14 a7 02 39 c2 1e ee b9
       0.000121610494 -0.000515935 0.00012460008 -0.00045417814

fcs1.bias f4 [256]
000000 30 96 03 ba 38 59 82 bb 47 f4 18 b9 91 7f f6 b8
       -0.0005019633 -0.003977921 -0.0001458685 -0.00011753955
000010 ef 94 a1 ba e7 8a 23 b9 8a 81 45 b9 2f 66 1e ba
       -0.0012327711 -0.00015596637 -0.00018835641 -0.0006042448
000020 6c 65 a5 ba 2a c2 40 38 e1 a2 07 3a 8d ca 06 ba
       -0.0012618727 4.5957197e-05 0.0005174112 -0.0005141877
000030 ea 0d 3c 39 38 fc 20 ba 55 74 82 ba 5f 46 93 b9
       0.0001793426 -0.0006141099 -0.0009952883 -0.00028090455
000040 2a ce 47 ba 3e bb e9 b9 37 97 92 b9 ee aa 9a ba
       -0.00076219684 -0.0004458073 -0.00027959954 -0.0011800209
000050 01 3f ae ba d3 9c 23 bb 52 61 41 bb 42 bd 29 bb
       -0.0013293923 -0.00249653 -0.002950747 -0.002590016
000060 37 ac 09 b9 db e4 03 bc 0e b4 5d bb fe 4c 24 ba
       -0.00013129493 -0.008050169 -0.0033829245 -0.0006267576
000070 8e 32 d8 b8 bd 5d 85 b8 f6 c7 b9 39 9d 7a 0b 39
       -0.00010309099 -6.359394e-05 0.00035434932 0.0001330175
000080 dc 3b 07 bb 7b 84 76 b6 69 ee c5 39 ae d7 e3 bb
       -0.0020635044 -3.673397e-06 0.00037752397 -0.0069532013
000090 b7 66 2d ba d5 de a8 b8 82 8b 4a b9 25 87 16 bb
       -0.0006614732 -8.05237e-05 -0.00019316192 -0.0022968736
0000a0 3a 61 ad bb c4 6b 39 3c fe b9 ee b9 1f 26 60 3b
       -0.0052911313 0.011317197 -0.00045533472 0.003420241
0000b0 96 b7 8f bb b1 1a 18 3a dc c1 55 36 23 c8 cf b9
       -0.004385899 0.0005802317 3.1852314e-06 -0.0003963123
0000c0 a4 52 d7 ba 52 b2 7e ba bf e0 bb bb b7 c7 ce b7
       -0.0016427827 -0.0009715903 -0.005733579 -2.4650113e-05
0000d0 ec 06 8c b9 a6 05 28 bb 9d 02 d6 b9 e0 ca 00 ba
       -0.00026708038 -0.0025638132 -0.00040819208 -0.0004913043
0000e0 7c 40 b1 ba ab bb d0 ba ff 3e 35 38 ea 37 4b 39
       -0.0013523246 -0.001592507 4.3212433e-05 0.00019380418
0000f0 ca 6e 52 b9 04 98 c1 b9 35 d0 bd b8 e8 2f fa ba
       -0.00020068433 -0.0003692509 -9.051004e-05 -0.0019087764
000100 ef 51 11 b9 72 ab 25 38 b8 8a 06 3b 67 a0 c8 ba
       -0.000138588 3.9498736e-05 0.002052946 -0.0015306593
000110 a2 d4 1a bb 21 96 4f ba b4 cc 08 bc 71 dc c9 b7
       -0.0023625274 -0.0007918794 -0.008349586 -2.4063718e-05
000120 d1 35 01 ba cf bd 08 ba ab 61 2d ba cd 00 54 b9
       -0.0004928979 -0.0005216272 -0.000661398 -0.00020218194
000130 32 f2 1f ba a8 eb cb 3b 8b d7 07 bc 2c e3 e6 ba
       -0.00061014586 0.006223161 -0.008291136 -0.001761531
000140 55 cb 14 ba 92 d4 6e ba 41 00 d6 b9 f6 4e 4c b7
       -0.0005676051 -0.0009110655 -0.0004081745 -1.2177732e-05
000150 43 26 2f 37 50 b4 a8 b8 90 70 94 ba 5e 40 f1 39
       1.0439721e-05 -8.04445e-05 -0.001132505 0.0004601506
000160 eb b3 d7 ba 24 a1 1a ba f1 ce ac b9 f6 a0 cb b7
       -0.0016456818 -0.00058986456 -0.0003296058 -2.4274439e-05
000170 4c 12 fc 39 d6 14 b5 ba a2 85 bc 3a af 50 64 ba
       0.00048078818 -0.0013815414 0.0014383087 -0.00087095326
000180 e8 c6 74 ba be e0 26 b7 70 fe 57 b8 b6 82 86 b9
       -0.00093375007 -9.946698e-06 -5.1496958e-05 -0.0002565586
000190 fe 6d 5d ba 7d 67 af b9 fc d2 60 b9 9e ef ba 3a
       -0.0008446871 -0.00033455706 -0.00021440902 0.0014262085
0001a0 e2 62 d7 b7 7a 22 c3 38 4e e6 68 3a fc 79 c7 ba
       -2.5676043e-05 9.304746e-05 0.0008884416 -0.0015218849
0001b0 5e 12 c5 b9 e1 b1 ed 36 e2 ea 4f ba bb 16 87 ba
       -0.00037588453 7.0838582e-06 -0.00079314236 -0.0010306457
0001c0 c2 ae 6e ba 0e 8a 4e 38 5d b9 ce 39 bc 0b 9b 38
       -0.00091050204 4.92428e-05 0.00039429488 7.393162e-05
0001d0 de f5 c2 bb e8 2d 43 ba b8 23 56 ba ed 1d 3f ba
       -0.00594972 -0.00074455 -0.00081687747 -0.0007290531
0001e0 d3 5c c2 b9 f7 fb 56 b8 6b 96 b6 ba e2 20 04 b8
       -0.00037071723 -5.1256236e-05 -0.0013930326 -3.1501877e-05
0001f0 3f 0e 82 3a e3 ba ef b8 cd 8e 8b b8 d6 b0 19 b8
       0.0009922459 -0.000114312184 -6.654635e-05 -3.6642734e-05
000200 42 6b 97 bb 10 7a 9c b9 8f 5b 2b b9 43 7b fd b9
       -0.0046209404 -0.00029845582 -0.00016341939 -0.00048347758
000210 de 42 fc 37 b0 21 54 ba 97 12 ed ba a7 bb 43 ba
       3.0071878e-05 -0.0008092178 -0.0018087205 -0.0007466622
000220 84 39 a1 b7 27 35 c0 b9 9c 10 88 ba b1 3f 03 b9
       -1.9219478e-05 -0.00036660695 -0.0010380927 -0.0001251686
000230 68 27 e2 b9 61 dd 0c b9 42 63 56 39 66 11 b2 b8
       -0.0004313544 -0.0001343391 0.00020445607 -8.490942e-05
000240 d2 e1 62 ba 38 04 54 37 ba 84 10 bb a7 aa 4a ba
       -0.00086548657 1.2637167e-05 -0.0022051767 -0.00077311177
000250 b0 2f 54 ba ad 18 f9 bb 8a f7 06 3b a6 18 29 ba
       -0.0008094264 -0.0076018185 0.0020594322 -0.0006450511
000260 ed f7 9e b9 9f e0 30 b9 91 9b ce ba fd ef d1 36
       -0.00030320827 -0.00016868346 -0.0015762915 6.2566237e-06
000270 70 13 32 b9 67 dd eb b9 4e 56 10 b8 6a 28 43 3d
       -0.00016982644 -0.0004498765 -3.4412653e-05 0.047645964
000280 36 8c 99 b6 1a e6 16 bb 0c 9c 21 ba 91 d7 46 37
       -4.576078e-06 -0.0023025335 -0.00061649154 1.185191e-05
000290 34 1a 2c ba 8c 50 b6 ba 0e f7 44 bb db ce d2 bb
       -0.0006565184 -0.0013909503 -0.0030054483 -0.0064333505
0002a0 6b 0d e7 b6 a6 66 82 b6 f1 98 bf b8 26 c3 b0 b9
       -6.8858985e-06 -3.8862518e-06 -9.136077e-05 -0.00033714733
0002b0 16 cb cb ba b8 0c 42 b9 66 46 ad ba fa 01 a4 b8
       -0.0015548195 -0.0001850602 -0.0013219833 -7.8204976e-05
0002c0 5f b7 81 b9 9a 90 21 bb eb 15 5b b9 bc 61 f5 bb
       -0.0002474142 -0.002465284 -0.00020893633 -0.0074884575
0002d0 fc 55 17 bb d5 b9 36 38 f9 d8 f4 36 17 e8 fb b9
       -0.0023092022 4.356525e-05 7.2970256e-06 -0.0004804737
0002e0 37 e6 71 b7 a8 a1 56 b9 39 7b a9 b9 43 2d ec ba
       -1.44183205e-05 -0.00020468852 -0.00032326 -0.001801886
0002f0 50 b6 5c bb d8 a6 8a b8 fa 03 cf b8 b5 c8 1c bb
       -0.0033678003 -6.61143e-05 -9.87127e-05 -0.0023923342
000300 b4 2d bb ba 1a 1a 1c ba 00 3f 10 b9 9d f2 6c b8
       -0.0014280588 -0.0005954817 -0.0001375638 -5.6492736e-05
000310 eb 75 6c ba 70 49 b3 b9 23 82 c2 ba cd a4 b4 3c
       -0.00090202567 -0.00034196256 -0.0014839809 0.02205124
000320 3f f3 6c ba 1c be 8c 3c 23 d1 d0 bb 93 7d 78 39
       -0.0009038932 0.017180495 -0.0063725873 0.00023697903
000330 49 75 18 bb ca 56 c5 ba 07 a7 3e b9 d7 dd 03 bb
       -0.0023263267 -0.0015055772 -0.00018182035 -0.002012124
000340 07 94 0d bc 99 41 3b b7 f3 5f 62 ba 61 1b bd b9
       -0.0086412495 -1.1161342e-05 -0.00086355134 -0.00036069288
000350 87 33 b5 ba bc 8e d6 ba b3 30 17 b9 58 32 77 bb
       -0.001382456 -0.0016369442 -0.00014418624 -0.0037719216
000360 1c f8 14 b9 82 b1 20 b9 51 53 2d ba bb 23 cc ba
       -0.00014206808 -0.00015324916 -0.00066118414 -0.0015574613
000370 92 3b 93 ba 1b e6 90 ba 13 ea 10 b9 ed 49 04 ba
       -0.0011232963 -0.0011054905 -0.0001382011 -0.0005046416
000380 83 26 44 bb 87 bb 2b bb 97 6e 76 bb 8a 52 e1 bb
       -0.0029930181 -0.0026204304 -0.0037602538 -0.0068762945
000390 0f 58 8c ba f7 35 e4 3b dd dc db b9 4d 21 3a b9
       -0.0010707396 0.006964441 -0.0004193549 -0.00017750748
0003a0 d6 85 64 b8 3c 5a 02 ba 1e 5e 89 ba 14 03 d9 b8
       -5.448408e-05 -0.00049725524 -0.001048032 -0.0001034794
0003b0 df 15 27 b9 ab 64 84 b9 13 30 08 39 99 bb 4f bb
       -0.00015934509 -0.00025252005 0.0001298788 -0.003169751
0003c0 21 53 01 b9 fd e1 af b9 d7 f8 25 ba f3 e2 b7 38
       -0.00012333367 -0.00033546975 -0.00063313305 8.7683926e-05
0003d0 1a 83 d4 ba 79 f3 1d ba 0f 1f b1 3a 04 71 89 38
       -0.0016213388 -0.0006025355 0.0013513285 6.55372e-05
0003e0 c8 b7 57 3a d0 c9 06 ba 7d 6a 81 ba 2b e5 55 bb
       0.00082289847 -0.0005141767 -0.0009873655 -0.0032637815
0003f0 d2 24 83 3b dd 03 cd b9 57 63 72 39 63 9f 8e 39
       0.004002192 -0.00039103525 0.00023115925 0.00027203103

fc2.weight f4 [128, 260]
000000 89 5c d6 32 ef 4d 70 33 6d e0 9e 30 fb 07 40 32
       2.4954959e-08 5.5950235e-08 1.1559799e-09 1.1177685e-08
000010 55 2b 05 34 99 2c 8a 32 98 08 aa 33 b1 ef 65 b2
       1.2402354e-07 1.6085595e-08 7.917805e-08 -1.3384054e-08
000020 61 83 12 33 fc 48 ae b3 e9 5b 1a 31 48 24 22 b4
       3.4112762e-08 -8.115782e-08 2.2462194e-09 -1.5100625e-07
000030 d2 df 87 b3 fc 85 92 b3 5f 44 47 30 05 b5 4e b2
       -6.32714e-08 -6.8230264e-08 7.249294e-10 -1.2031937e-08
000040 39 59 54 b4 a5 58 68 b0 4c cf bb 30 dc 3c 25 b4
       -1.9776498e-07 -8.452708e-10 1.3664958e-09 -1.5388963e-07
000050 b0 88 26 b2 cc f3 c1 32 7c 6c 8b b4 81 4c c0 b0
       -9.693551e-09 2.2579023e-08 -2.59697e-07 -1.3991582e-09
000060 99 22 ec 32 42 8c 11 34 15 3e e4 34 5f 2e 90 31
       2.748975e-08 1.3555203e-07 4.251348e-07 4.1962234e-09
000070 c2 f3 61 b1 f8 a4 8a 33 da f4 33 31 9c d2 85 b3
       -3.288037e-09 6.4561334e-08 2.618711e-09 -6.231605e-08
000080 55 64 31 b0 d6 78 0a 2f 7e 54 a7 b2 82 48 28 2f
       -6.4534805e-10 1.2593956e-10 -1.9479781e-08 1.5305271e-10
000090 c5 4d 32 b0 79 90 b7 30 a4 db 0a b2 4d be 0d b0
       -6.486654e-10 1.3356064e-09 -8.082598e-09 -5.1565935e-10
0000a0 2e f2 a9 34 67 47 0c 35 95 fb ad af 07 b5 27 32
       3.1654912e-07 5.225797e-07 -3.1647276e-10 9.76184e-09
0000b0 75 d4 7a b5 5c 50 d8 33 47 d8 26 af a3 f3 52 af
       -9.3441423e-07 1.0072901e-07 -1.5174449e-10 -1.9185946e-10
0000c0 fe bb 4d 2e 0e 44 86 33 1d 42 51 34 6e e1 03 31
       4.6778574e-11 6.25224e-08 1.9488694e-07 1.919115e-09
0000d0 c7 cb 94 b0 50 c5 b1 b3 9c e4 67 b0 6a 87 27 31
       -1.0826334e-09 -8.278096e-08 -8.4362184e-10 2.4378672e-09
0000e0 64 f4 b9 b0 0f 2b 0b 34 ac f7 83 b0 e4 42 67 b3
       -1.3529982e-09 1.2961048e-07 -9.601897e-10 -5.3844715e-08
0000f0 4a 0e 19 32 69 fd 29 b2 fa bd f9 ad e6 13 c6 34
       8.909021e-09 -9.8947135e-09 -2.839239e-11 3.6894852e-07
000100 b4 87 74 af 2d 52 4c b3 07 d2 cb b1 88 9c a8 34
       -2.2239882e-10 -4.757219e-08 -5.931955e-09 3.140633e-07
000110 e7 64 80 32 73 dc 70 33 04 2b 18 33 40 37 08 b0
       1.4947046e-08 5.6079852e-08 3.542938e-08 -4.9555027e-10
000120 41 26 81 31 52 11 47 32 7f f4 2d 31 c0 12 03 32
       3.758743e-09 1.1587263e-08 2.5313793e-09 7.629467e-09
000130 bd 64 0b b2 c5 a5 35 b5 2c d8 46 35 f8 39 c3 32
       -8.11377e-09 -6.766898e-07 7.407532e-07 2.2727349e-08
000140 bc ec 3e b1 03 63 fc 33 e1 96 f6 b1 7a a9 d1 31
       -2.7783207e-09 1.17526746e-07 -7.1766952e-09 6.101968e-09
000150 d4 15 3d 31 48 49 5c 32 e2 d2 e0 2f fd f1 bf 33
       2.7515528e-09 1.2822348e-08 4.0895204e-10 8.938148e-08
000160 47 78 61 af 25 7d b1 b1 d9 01 36 ae d5 41 47 2e
       -2.0506362e-10 -5.1656053e-09 -4.138365e-11 4.5305832e-11
000170 7b 15 c7 2f 6b 5f b8 30 66 39 04 33 a6 ca dd af
       3.6213152e-10 1.3414881e-09 3.078585e-08 -4.0343656e-10
000180 60 22 9a b2 e1 62 ee ad 14 3c 00 30 cb 7e c2 b2
       -1.7943592e-08 -2.7101378e-11 4.6651505e-10 -2.2642231e-08
000190 41 4f c1 31 c7 40 0e b3 05 39 7d b2 6f 44 b8 b0
       5.6260494e-09 -3.3120866e-08 -1.4739503e-08 -1.3407212e-09
0001a0 5c b7 06 ab b4 fd 00 30 16 b2 e3 b2 13 6b b8 30
       -4.7860826e-13 4.692666e-10 -2.6507262e-08 1.3418194e-09
0001b0 5a ce 3e 33 54 c9 f1 ae de eb fa 32 24 72 2e b4
       4.4425498e-08 -1.0995174e-10 2.921109e-08 -1.6246537e-07
0001c0 9b 17 10 34 6a f0 d4 b1 4b bc 44 32 5e a1 cb a9
       1.3419633e-07 -6.197344e-09 1.1451514e-08 -9.043004e-14
0001d0 6c 30 94 b2 50 08 72 b3 6e c6 33 ae 64 7a 41 b4
       -1.7251487e-08 -5.6352576e-08 -4.087613e-11 -1.8019051e-07
0001e0 99 2c 12 b1 83 00 28 2e f4 88 16 33 fb 6c b9 ad
       -2.1271147e-09 3.8199232e-11 3.5049155e-08 -2.1080462e-11
0001f0 6f 22 c5 32 6e 33 35 31 89 b8 63 b4 0f 0e 6d b1
       2.2949477e-08 2.63682e-09 -2.1208156e-07 -3.449603e-09
000200 13 85 d3 b3 d2 34 a0 31 00 b5 da 2f b5 65 e4 2f
       -9.849659e-08 4.662618e-09 3.9782577e-10 4.1545226e-10
000210 f8 e6 e8 af 76 52 c3 b4 08 bb a2 33 f6 21 77 33
       -4.2364667e-10 -3.638158e-07 7.5777336e-08 5.7540056e-08
000220 c2 03 15 31 5f 6b ee af f5 ae bf 30 a5 cf 50 b0
       2.168449e-09 -4.336824e-10 1.3946805e-09 -7.596504e-10
000230 b1 51 37 b4 d9 6e c0 b1 6e 1a 34 30 91 18 f6 ae
       -1.7072922e-07 -5.6005374e-09 6.552118e-10 -1.1191149e-10
000240 af 7c de af 7f 74 0c b4 bc c5 3a b2 9c c6 d2 32
       -4.0470158e-10 -1.3080897e-07 -1.08715845e-08 2.4537535e-08
000250 f4 46 31 34 c5 aa 95 34 52 31 22 ae 5b fd 57 34
       1.6510222e-07 2.7877664e-07 -3.687834e-11 2.0115606e-07
000260 21 c1 a9 32 ec 2a cf b2 d7 71 b1 b3 65 62 24 30
       1.9762014e-08 -2.411749e-08 -8.262912e-08 5.980268e-10
000270 f5 75 c7 b1 cd 27 02 34 40 27 1d b2 95 c4 52 b8
       -5.8050724e-09 1.2121673e-07 -9.147527e-09 -5.0250983e-05
000280 c0 44 be 2f 7e e8 27 b3 16 dc 16 32 1e fc df ae
       3.4609648e-10 -3.9094168e-08 8.781191e-09 -1.0185651e-10
000290 a9 11 a3 34 30 9c b7 34 e1 14 31 b4 fe 78 3d b4
       3.0373965e-07 3.4200048e-07 -1.6492005e-07 -1.7646013e-07
0002a0 3d 59 30 2b 63 e2 75 b0 a6 83 0a b1 ae ef 51 b3
       6.2651604e-13 -8.9452196e-10 -2.0156476e-09 -4.8879592e-08
0002b0 83 81 31 b3 3c 9c 47 32 12 58 d1 b3 85 ab 24 ad
       -4.1328814e-08 1.1618848e-08 -9.748341e-08 -9.360406e-12
0002c0 0e 15 d5 2e ac de b1 33 c4 0e 18 b2 fd 29 56 34
       9.6898586e-11 8.2827086e-08 -8.850922e-09 1.9945578e-07
0002d0 e4 c6 61 34 78 5e 9e b1 03 37 45 2e d8 28 01 b5
       2.1027114e-07 -4.609145e-09 4.4841474e-11 -4.811568e-07
0002e0 95 86 b0 b0 d6 d4 01 af 71 89 5c 2e cd 86 8f 32
       -1.2843936e-09 -1.1808096e-10 5.014428e-11 1.6708691e-08
0002f0 5f 31 87 b2 3b 0a 5d 30 bd b6 45 32 7b 9f 9f 30
       -1.573852e-08 8.041387e-10 1.1508459e-08 1.16141e-09
000300 d2 12 a1 30 8e 8c 84 30 df d0 23 31 08 0a a8 2d
       1.1719641e-09 9.644212e-10 2.3838351e-09 1.9103844e-11
000310 9a 5b d9 32 90 e3 ef b3 c6 83 9a af 63 08 99 b5
       2.530378e-08 -1.1170698e-07 -2.8106067e-10 -1.1401829e-06
000320 24 e1 4b b1 d6 6b 0d b4 10 1d f4 b4 82 da c6 b1
       -2.9668366e-09 -1.3170879e-07 -4.5469687e-07 -5.7874e-09
000330 dd ec 3e 35 59 55 b1 2f 42 83 06 b3 b7 7e 10 b4
       7.1125197e-07 3.2256756e-10 -3.1318685e-08 -1.3457144e-07
000340 ae ee fe 34 df 76 f1 2e 05 8d 80 b3 cd 68 ce 31
       4.748485e-07 1.0980527e-10 -5.986116e-08 6.0073035e-09
000350 ea fd b5 b0 2b 16 fd 34 4a 61 d7 b0 ca 1b d3 33
       -1.324165e-09 4.7141052e-07 -1.567096e-09 9.830508e-08
000360 cd 56 cf 31 c1 52 82 31 ae af c7 b3 1d 30 bb b3
       6.034361e-09 3.792906e-09 -9.2986156e-08 -8.716618e-08
000370 4a f9 dd b4 27 99 0b b4 8e bf 11 b2 57 80 18 32
       -4.134584e-07 -1.30011e-07 -8.483665e-09 8.876746e-09
000380 5a d8 8b 34 af b3 09 b4 d4 53 33 2f a1 e4 70 b5
       2.6048184e-07 -1.2824488e-07 1.6309737e-10 -8.9739666e-07
000390 ff 3a bf 32 b7 98 1e b5 a2 68 1e 33 f9 5e c7 33
       2.2262155e-08 -5.9081816e-07 3.6882405e-08 9.283935e-08
0003a0 65 d8 8c 2e ac c2 c4 31 36 f2 e1 34 6c d5 f5 32
       6.404902e-11 5.7264824e-09 4.2085748e-07 2.8618807e-08
0003b0 67 b6 79 b2 53 2d 78 b0 64 51 27 32 9b ad 8b b5
       -1.4535181e-08 -9.0286284e-10 9.7391855e-09 -1.0406833e-06
0003c0 da 0f c3 32 2f f9 ad 33 d5 ab 5b 33 dc b4 25 32
       2.2708196e-08 8.1012665e-08 5.114619e-08 9.645387e-09
0003d0 a6 b1 dc 30 34 1f 8e b2 54 31 08 35 30 e2 36 32
       1.6057597e-09 -1.6545165e-08 5.073573e-07 1.0645223e-08
0003e0 c6 ff e0 b4 bc da 57 b0 2d 7f 4a b2 f5 84 49 2f
       -4.190935e-07 -7.8527385e-10 -1.1786864e-08 1.832808e-10
0003f0 1e 8e dc b2 84 0e 3d 33 78 66 a0 b3 47 3b db b3
       -2.5675998e-08 4.4018194e-08 -7.4692196e-08 -1.0208765e-07

fc2.bias f4 [128]
000000 1f f9 87 b5 99 04 58 ad 63 39 81 af 47 73 c5 b8
       -1.0130788e-06 -1.2279199e-11 -2.350574e-10 -9.415164e-05
000010 e9 58 95 b0 9f f4 bc b7 5b 2a 14 b4 4d e4 79 bb
       -1.0866447e-09 -2.2525257e-05 -1.3798983e-07 -0.0038130463
000020 8a 32 de 3b d6 14 a7 2c 96 11 02 b1 76 51 b0 b7
       0.006780927 4.7487387e-12 -1.8927486e-09 -2.1018768e-05
000030 f0 2d df b3 95 d6 c4 a2 1b b8 63 b3 99 9a da b2
       -1.0392603e-07 -5.3353104e-18 -5.302e-08 -2.5448843e-08
000040 e7 8c 3c b1 5c a4 54 b8 1a ec 8d ba 7a 25 0f b0
       -2.7437694e-09 -5.069781e-05 -0.001082781 -5.2076354e-10
000050 50 0d d2 ab 5c 2d 44 ba 4f 44 e9 b8 7e c5 2a bb
       -1.4925092e-12 -0.0007483566 -0.00011123029 -0.0026057656
000060 2d 48 8c b3 63 70 b0 2f e6 1b a8 35 c6 da 9e ae
       -6.532387e-08 3.209407e-10 1.2525095e-06 -7.22387e-11
000070 95 2d 0d b7 7c e1 3b aa c7 7c 1d 3e 60 84 6b b4
       -8.414868e-06 -1.6687167e-13 0.1537963 -2.1934238e-07
000080 58 9b 09 b3 51 be ee b3 6b b6 14 b8 34 38 4d bb
       -3.2039082e-08 -1.1117357e-07 -3.545584e-05 -0.0031314017
000090 63 82 93 af 11 84 87 bd 75 87 e1 ab 50 02 2d b9
       -2.683179e-10 -0.066169865 -1.6024808e-12 -0.00016499427
0000a0 d1 62 38 bb fb a0 86 ae fc 25 ad b6 cc 7e 99 ad
       -0.002813507 -6.1222104e-11 -5.1602237e-06 -1.7450395e-11
0000b0 2e cd 03 ba 7a fa a1 3c 7f ef 18 b7 8c 9e 71 3c
       -0.00050278276 0.019772757 -9.115668e-06 0.014747273
0000c0 19 ce 24 b8 44 db 82 3d aa 06 fd a5 4a d1 bb b5
       -3.929259e-05 0.06389478 -4.389302e-16 -1.3993497e-06
0000d0 18 41 59 ad 96 b7 91 aa 00 2b 05 bb 41 15 a5 b9
       -1.2349476e-11 -2.5884563e-13 -0.002031982 -0.00031487088
0000e0 77 f4 1a bc 89 e8 38 9c 5b 18 20 b6 47 2d 92 bc
       -0.009457699 -6.118104e-22 -2.3856035e-06 -0.017843856
0000f0 30 49 b4 b8 ff 30 65 b4 44 7b 0c ae 6c 4c 05 b7
       -8.596701e-05 -2.1345112e-07 -3.1941796e-11 -7.945211e-06
000100 58 8c 07 ba a3 d8 03 b3 6b c3 04 b6 cb c1 7c b7
       -0.0005170754 -3.0697844e-08 -1.978328e-06 -1.5065491e-05
000110 f2 0a b7 b9 a7 67 98 ae be d1 f9 3b 01 3d 2d b6
       -0.00034912635 -6.930572e-11 0.00762388 -2.5814518e-06
000120 2c 88 44 b7 b6 64 2b b1 53 c3 0f b3 eb 9f d4 b3
       -1.1714215e-05 -2.4941023e-09 -3.347243e-08 -9.901108e-08
000130 d1 b3 27 b6 8f bb 70 b6 3e 29 0b ba 47 58 94 b0
       -2.4989606e-06 -3.587196e-06 -0.0005308575 -1.0793507e-09
000140 11 b8 4c ba e0 39 0d 3d 24 5f e0 b7 d2 74 58 b3
       -0.00078094105 0.034479022 -2.6747184e-05 -5.0397666e-08
000150 fd f0 0c b6 44 18 bb bb 34 cf 18 ae 8d 4a bf 3b
       -2.10019e-06 -0.00570968 -3.4744832e-11 0.0058377446
000160 4b 8f 98 b7 05 ad e5 33 7d d9 2c 3a ba 6a 99 38
       -1.8186538e-05 1.06951155e-07 0.00065936876 7.315488e-05
000170 7b 66 16 bb 6b 76 ae bd 7f b2 c9 ad f6 c4 3b bb
       -0.0022949267 -0.0851868 -2.2930323e-11 -0.0028651333
000180 6b c9 7f b3 6f 75 33 aa 4a df ba bc 9d ff 8a bb
       -5.9555003e-08 -1.5939137e-13 -0.02281155 -0.0042418973
000190 ea 2a e7 bb dc 50 08 ac 9c 65 e4 af 3f 1f ec b4
       -0.0070546763 -1.9371648e-12 -4.1545156e-10 -4.398116e-07
0001a0 e3 57 99 b4 93 8e bd b8 e0 b5 dd b4 f7 ad 8f b5
       -2.8562417e-07 -9.038779e-05 -4.129679e-07 -1.0704961e-06
0001b0 7d 82 d8 a9 1b dd 32 b8 c3 c5 37 b4 b1 73 98 ad
       -9.614963e-14 -4.2644428e-05 -1.7115148e-07 -1.7331777e-11
0001c0 2d 18 01 b2 60 51 1c b9 74 63 25 b7 f6 ea 85 b4
       -7.514285e-09 -0.00014907634 -9.857922e-06 -2.4944137e-07
0001d0 8d b6 34 a2 98 4b 2c b6 e1 0c 91 b2 56 43 71 b0
       -2.449119e-18 -2.5673999e-06 -1.6886078e-08 -8.777098e-10
0001e0 93 d3 76 ba 18 6b d1 b7 f2 0c 5a 21 d2 b7 fc b5
       -0.0009415682 -2.4964611e-05 7.3878406e-19 -1.8828962e-06
0001f0 f4 53 9b ba d9 03 0a b4 61 f0 0a b6 9d fe 33 b4
       -0.0011850582 -1.2853651e-07 -2.0703521e-06 -1.6763302e-07

fc3.weight f4 [1, 128]
000000 59 68 8f 36 d8 3d 79 2d 1e 27 f4 af eb 1e 1a b9
       4.2738798e-06 1.4167743e-11 -4.4411136e-10 -0.00014698102
000010 90 7e 7f 2f 61 02 e3 37 82 cf 04 b5 ca 2e c1 ba
       2.3237079e-10 2.7061616e-05 -4.9475796e-07 -0.0014738676
000020 41 70 7e 3d 1f 81 3f af 7b f1 ef b1 41 46 be 35
       0.062118772 -1.7417222e-10 -6.9832686e-09 1.417655e-06
000030 84 69 bc 33 36 f6 28 a2 28 87 d7 32 b8 46 16 33
       8.7736254e-08 -2.2898589e-18 2.5090756e-08 3.4988915e-08
000040 66 f6 f6 b0 7c 4f 29 38 a3 5d 9f 3b ee c0 d0 b7
       -1.7968886e-09 4.0366765e-05 0.0048634573 -2.4885372e-05
000050 b7 ea 11 ac 69 01 c6 b9 c4 7d a0 b7 fb 77 a3 bb
       -2.0736032e-12 -0.00037766554 -1.913205e-05 -0.004988668
000060 ab 39 e0 b3 6d ca a0 30 12 eb 23 37 07 86 55 ad
       -1.04413026e-07 1.1699065e-09 9.770289e-06 -1.2137408e-11
000070 b8 d3 79 38 6b f0 a0 2a c3 71 e9 3e 2b c8 8d 36
       5.9563405e-05 2.8588533e-13 0.45594606 4.22543e-06
000080 b6 52 85 ae 04 0e ae b3 f7 88 74 37 af 26 55 bb
       -6.062832e-11 -8.105056e-08 1.4575423e-05 -0.0032524278
000090 ec 0d ca af b5 a6 b8 bd 89 db 7a ac 6f 9b 78 b8
       -3.6753478e-10 -0.09016172 -3.5649003e-12 -5.9272566e-05
0000a0 a6 3c 62 3c 2a 97 32 af 60 35 94 37 94 63 57 ac
       0.013808405 -1.624271e-10 1.766783e-05 -3.0608615e-12
0000b0 b4 8b 6f 3a 8a 1a 10 3e fd d2 0d b8 da 6f 09 3e
       0.0009137944 0.14072624 -3.3813518e-05 0.13421574
0000c0 71 dc 6d b8 af e1 ee bd 06 b9 0c a5 bf 4d 1e b2
       -5.6710505e-05 -0.116641395 -1.2205753e-16 -9.214488e-09
0000d0 f1 9d 85 ad 1e cb 00 aa 5c 7a de b8 8f dd aa 3b
       -1.519049e-11 -1.1439154e-13 -0.00010608576 0.0052144
0000e0 d0 0a 4d 3b e5 27 ac 36 42 3a 33 38 59 49 44 3c
       0.0031286962 5.130644e-06 4.2731182e-05 0.011980378
0000f0 24 4a fb 38 e9 99 23 b6 a3 15 3b 2e 4b 71 a3 32
       0.000119824224 -2.437848e-06 4.2538095e-11 1.9027217e-08
000100 02 4d 9e b9 04 34 dd 32 17 51 04 36 00 d0 33 b8
       -0.00030193484 2.575144e-08 1.9716733e-06 -4.287064e-05
000110 7f 04 42 b9 06 36 5f af 05 a3 01 be a5 6a 1c 3a
       -0.00018502957 -2.0300925e-10 -0.12659843 0.0005966819
000120 0c 24 cb b7 fa 8a 8f ad 58 fc 21 33 23 9e 13 b2
       -2.4216271e-05 -1.6318936e-11 3.771524e-08 -8.592482e-09
000130 41 a8 ee 36 4b 5b 5d b6 97 7e 73 bb 46 e7 81 ae
       7.11254e-06 -3.2984706e-06 -0.003715431 -5.907323e-11
000140 fc ea 0d 3c 67 33 bf bd 4e 04 24 b9 22 a5 10 b4
       0.008661982 -0.09335976 -0.00015641862 -1.347112e-07
000150 b1 5a d9 b6 8f 5a 42 3d 29 00 04 ae e3 17 44 3e
       -6.477662e-06 0.047449645 -3.0013467e-11 0.19149737
000160 80 28 9d 37 ce 8c fd b6 12 3a 40 3d 4e 18 6d b9
       1.8734718e-05 -7.5563794e-06 0.04693038 -0.00022611136
000170 19 07 44 39 ff 4c d5 bd 05 a4 3a 30 f9 8c b4 3b
       0.0001869466 -0.104150765 6.789949e-10 0.0055099693
000180 c1 97 4d 38 8e f5 9c 2a 9c 8a d4 bb 44 f7 82 3d
       4.901714e-05 2.7881554e-13 -0.00648625 0.063948184
000190 74 5f 22 3c 26 17 a2 2c bc 66 1d b0 ea 27 5a b5
       0.009910453 4.606887e-12 -5.726226e-10 -8.126941e-07
0001a0 21 26 46 b2 8e 8f 5d b8 08 52 ca 36 0b 51 fc 35
       -1.1533786e-08 -5.28242e-05 6.029619e-06 1.879905e-06
0001b0 0d 8c d4 a9 6d 4b 6a 3b 3b 15 7b b4 d3 02 14 2d
       -9.438986e-14 0.0035750524 -2.338392e-07 8.413453e-12
0001c0 bf a0 0a b2 09 4f 70 ba 72 17 b0 b9 78 ed 87 34
       -8.069207e-09 -0.00091670506 -0.00033586804 2.531849e-07
0001d0 8d 10 a0 a2 0c 2c 08 b9 d1 a5 1a b3 2c b0 cb 30
       -4.338561e-18 -0.0001298638 -3.600673e-08 1.4820265e-09
0001e0 0c 36 80 bb 15 13 73 38 c9 f3 9a a1 b8 50 11 36
       -0.003912693 5.7953486e-05 -1.0499975e-18 2.1653668e-06
0001f0 b9 b5 dd 3b 86 c4 fa b3 19 9f 38 36 a9 76 32 38
       0.006766048 -1.16772796e-07 2.7510744e-06 4.2549018e-05
