final_ckpt_actor_1.pth (torch_old, 159228 bytes, 6 tensors)

fc1.weight f4 [256, 24]
0.23532486 -0.12727386 0.051787794 -0.14371778 0.14528291 -0.028294934 0.056332923 -0.06670892
0.16934508 -0.020170083 0.030896904 0.1519582 0.051902328 -0.07752937 0.092954084 0.20515612
0.11760357 -0.049648784 0.0076134223 0.13880852 -0.1299279 -0.041551962 0.073018104 0.093639225
-0.03375539 0.1176749 -0.026308574 -0.014396757 0.024363067 -0.086371884 -0.017790964 -0.107151404
-0.050716642 0.027735475 -0.024689231 -0.110068336 0.11307692 0.0244955 -0.0721093 -0.100007966
0.018189685 0.023245705 -0.08795241 -0.07864763 0.25723657 0.11046353 -0.04273863 -0.11696559
-0.03683741 0.042533483 0.11525598 0.117008366 0.10705954 0.039690148 0.03248915 0.063052
-0.0030628534 -0.014506513 -0.009545309 -0.04383762 0.025555944 0.091139115 0.009638601 -0.024002131
0.00045040203 -0.034358792 -0.14334811 0.07486683 0.018267583 0.15607484 -0.09697033 0.14999203
0.057104196 -0.03626261 -0.01352281 -0.12051362 0.03525669 -0.105603725 0.010296553 -0.12747428
-0.010086219 -0.10643134 -0.07022403 -0.060921155 -0.0065186797 -0.03688046 -0.031776883 0.01092386
0.08188485 -0.06532922 0.00022407666 0.15548743 -0.08967493 0.13871005 0.09670606 0.18504299
-0.0993547 0.12940274 0.06861695 0.07867314 -0.066584915 0.015520296 -0.037126113 0.006437387
-0.041395262 0.23638816 -0.034329087 0.01763899 0.16086721 -0.06908363 -0.012345821 0.0849501
0.019381363 0.18468231 -0.009159546 -0.07413003 0.08699543 -0.07889993 0.029483708 -0.0058761123
-0.01786501 -0.01569639 -0.10629056 -0.08105726 0.03278416 0.018318616 -0.02807694 -0.062828444
-0.020350533 -0.0034686262 0.00061462197 -0.12480494 -0.09810314 0.088888474 0.06820794 -0.09883035
0.024580548 -0.124355204 0.014801237 -0.07988186 -0.078480065 0.2684919 0.023043064 -0.10607762
-0.13319422 0.048273526 -0.038456265 -0.011098331 -0.04687898 -0.008039636 -0.01100934 0.07843918
-0.0063775866 0.06255995 -0.008618303 0.029354492 -0.008923806 -0.083897315 -0.029862978 0.03759056
-0.09774247 0.006501548 0.014539336 0.051618017 0.07346021 -0.2821917 0.012485952 0.08238294
-0.12780832 -0.1159295 -0.06231202 -0.011450798 -0.13136801 0.06085958 -0.034400977 -0.05726369
-0.034089852 0.030096343 -0.06481988 -0.04556089 0.09177552 -0.10259832 -0.051407013 -0.038053438
-0.018613972 0.03748962 -0.05570114 0.04856629 0.10223855 -0.17616269 0.020845668 0.029077869
0.0830456 0.02921253 -0.042904004 -0.035548314 0.172687 0.0045847944 -0.040449884 -0.060912106
0.21925047 0.019859457 0.010033795 -0.0071333605 0.1799514 0.016081193 0.030247048 0.017608372
0.09275543 -0.036022726 0.0028129462 0.04554341 0.091372944 0.068425424 -0.07486912 -0.020729324
-0.0496655 -0.0056702187 -0.057224322 0.073530026 -0.09042799 0.084382884 -0.065399975 0.09112036
-0.081819765 0.021252645 0.023493674 -0.015546606 0.024019085 -0.07706152 -0.021775091 -0.08584508
-0.016293745 -0.00040789368 -0.108161494 0.03461134 0.08169168 -0.3619267 -0.011208122 0.008489611
-0.15816012 -0.03607984 0.060769565 -0.017194364 -0.1314204 0.122594364 0.018391501 0.038576145
-0.038403317 0.016206942 0.06203905 0.025076484 0.13978235 -0.010105802 0.020675378 0.0465602
00000000: 00f9 703e 1454 02be 701f 543d c12a 13be
00000010: 0bc5 143e c7ca e7bc 5abd 663d b09e 88bd
00000020: cc68 2d3e bb3b a5bc 811b fd3c ee9a 1b3e
00000030: 8997 543d b8c7 9ebd b65e be3d 7214 523e
00000040: 24da f03d 865c 4bbd 047a f93b d223 0e3e
00000050: d20b 05be 6432 2abd 848a 953d ecc5 bf3d
00000060: 1843 0abd 8aff f03d 1485 d7bc 60e0 6bbc
00000070: 0e95 c73c bee3 b0bd 5bbe 91bc 3272 dbbd
00000080: 41bc 4fbd 8235 e33c 1241 cabc 826b e1bd
00000090: df94 e73d c9aa c83c 0aae 93bd fad0 ccbd
000000a0: 8902 953c c76d be3c 6520 b4bd 0212 a1bd
000000b0: 83b4 833e b43a e23d b40e 2fbd a88b efbd
000000c0: d3e2 16bd 9737 2e3d 540b ec3d 15a2 ef3d
000000d0: 0842 db3d 2392 223d 5813 053d 6821 813d
000000e0: 27ba 48bb baac 6dbc ed63 1cbc 148f 33bd
000000f0: b35a d13c 25a7 ba3d 39eb 1d3c 1ea0 c4bc
00000100: f023 ec39 cebb 0cbd d9c9 12be c853 993d
00000110: e6a5 953c 15d2 1f3e 6198 c6bd 8397 193e
00000120: 17e6 693d 1a88 14bd c78e 5dbc d8cf f6bd
00000130: 5269 103d c446 d8bd e0b2 283c 9e88 02be
00000140: ab40 25bc adf8 d9bd 9ed1 8fbd 7688 79bd
00000150: a69a d5bb f70f 17bd 7a28 02bd fdf9 323c
00000160: 3fb3 a73d 53cb 85bd 1ff6 6a39 1938 1f3e
00000170: 7da7 b7bd 020a 0e3e d40d c63d e97b 3d3e
00000180: 7a7a cbbd 2782 043e 0b87 8c3d 621f a13d
00000190: ac5d 88bd d748 7e3c 8d11 18bd b7f0 d23b
000001a0: 148e 29bd bd0f 723e a89c 0cbd a57f 903c
000001b0: 60ba 243e b87b 8dbd 2046 4abc 51fa ad3d
000001c0: aac5 9e3c 5c1d 3d3e ec11 16bc 7cd1 97bd
000001d0: a92a b23d 4996 a1bd d187 f13c 678c c0bb
000001e0: a459 92bc b795 80bc ddae d9bd 5901 a6bd
000001f0: af48 063d ec10 963c 9c01 e6bc 33ac 80bd
00000200: 29b6 a6bc e451 63bb 951e 213a bb99 ffbd
00000210: 4dea c8bd 290b b63d 9bb0 8b3d 9167 cabd
00000220: 255d c93c f1ad febd e380 723c 1a99 a3bd
00000230: 28ba a0bd c577 893e cfc4 bc3c 393f d9bd
00000240: 1164 08be 76ba 453d 5184 1dbd c6d5 35bc
00000250: 2c04 40bd adb8 03bc 8560 34bc b9a4 a03d
00000260: 13fb d0bb 6e1f 803d c833 0dbc d578 f03c
00000270: 2835 12bc 5bd2 abbd 34a3 f4bc 8ff8 193d
00000280: 342d c8bd f00a d53b 6536 6e3c 6a6d 533d
00000290: 4e72 963d 6e7b 90be e191 4c3c 63b8 a83d
000002a0: 2fe0 02be 726c edbd e43a 7fbd 219c 3bbc
000002b0: 5685 06be e547 793d 0ae8 0cbd 558d 6abd
000002c0: cda1 0bbd 9b8c f63c 49c0 84bd 0e9e 3abd
000002d0: cef4 bb3d 111f d2bd 2990 52bd ecdd 1bbd
000002e0: 547c 98bc b78e 193d e126 64bd 72ed 463d
000002f0: 7262 d13d fe63 34be 89c4 aa3c b634 ee3c
00000300: d013 aa3d 1e4f ef3c 1cbc 2fbd 1c9b 11bd
00000310: dcd4 303e 0b3c 963b c7ae 25bd f97e 79bd
00000320: 3283 603e 4db0 a23c c964 243c f7be e9bb
00000330: 2e45 383e b5bc 833c a8c8 f73c 6f3f 903c
00000340: 8ff6 bd3d 918c 13bd 6859 383b ba8b 3a3d
00000350: bd21 bb3d a122 8c3d fb54 99bd 8bd0 a9bc
00000360: 0d6e 4bbd 3ecd b9bb 0d64 6abd e996 963d
00000370: 4f32 b9bd efd0 ac3d 6cf0 85bd 509d ba3d
00000380: 1f91 a7bd 071a ae3c ce75 c03c 31b7 7ebc
00000390: acc3 c43c 6ed2 9dbd ad61 b2bc 8ccf afbd
000003a0: 767a 85bc 90da d5b9 c683 ddbd 9fc4 0d3d
000003b0: f84d a73d 754e b9be 45a2 37bc 0218 0b3c
000003c0: baf4 21be 74c8 13bd 82e9 783d 32db 8cbc
000003d0: 1293 06be c112 fb3d c6a9 963c 0502 1e3d
000003e0: cc4c 1dbd 6cc4 843c a91c 7e3d 336d cd3c
000003f0: 1b23 0f3e ce92 25bc 695f a93c e9b5 3e3d

fc1.bias f4 [256]
-0.068524286 0.027652081 0.10698275 0.09491915 -0.009555753 -0.2224146 -0.12160885 0.06214751
-0.19557278 -0.07859174 0.20385383 -0.04505368 0.05345026 -0.15205818 0.10779513 0.29891637
0.18568526 0.017856583 -0.14114293 -0.13679852 0.14309835 -0.060628984 -0.011991762 -0.16958782
0.0036744801 -0.018882113 0.16881263 -0.10130205 -0.21192725 -0.13197109 0.112627454 -0.111885585
-0.07472954 0.13620074 -0.14403509 -0.0349169 -0.08284906 0.26561615 -0.17634389 0.039977405
-0.023164015 -0.15463917 0.068532124 -0.13609041 -0.09960327 -0.026863221 -0.04128296 -0.11560925
0.34112734 0.2641115 0.065828905 0.12153231 0.021342305 0.059431143 -0.013237577 0.030783955
0.10628733 -0.09327978 -0.22626628 0.17694144 -0.005475139 0.03631861 -0.05490815 -0.26636365
0.009318345 0.05725634 -0.07613094 0.19295672 -0.2000129 -0.16905548 -0.11591402 -0.20640288
-0.087416515 0.009001449 -0.05963085 0.026841536 0.06705671 0.16443688 0.18486665 -0.034971006
-0.16206619 -0.20773238 -0.10881023 -0.11743824 0.24355672 -0.27701393 0.0051735668 0.01750434
-0.14188406 0.000621311 -0.033652082 0.050351534 -0.03506739 0.102527164 -0.27628675 -0.27182105
0.1314691 -0.10604218 0.28822097 0.024684977 0.1866288 0.04794237 0.0026865387 0.13131918
-0.10588011 0.12769572 0.098963246 -0.08737537 0.18410093 -0.07700978 -0.07878613 -0.11132731
0.01130267 -0.22156379 0.0704438 0.19259393 0.12224817 -0.10994187 0.009171155 0.13264413
-0.15654013 0.031589862 0.26420006 0.28620332 0.26386964 0.034136523 -0.053610135 -0.11491999
0.2065413 -0.07329801 -0.23704746 0.3090177 -0.15492037 0.16010404 0.16275434 0.118953116
0.033750758 -0.0061291186 0.16764379 0.07236834 -0.031954765 -0.1838253 0.109596185 0.13497037
0.10881006 -0.027062 6.6706554e-05 -0.19257939 0.102359585 0.23144072 0.15336412 0.099051654
0.23210606 -0.06782394 0.30981305 -0.09875548 0.0898537 0.12227303 0.009695904 0.13401383
-0.23580287 0.15389699 0.043857984 0.06880733 -0.09078231 0.057907775 0.099663965 0.16156127
0.05694831 0.21794203 0.16947633 -0.24064805 -0.23620664 -0.26964545 -0.1982678 -0.1965492
-0.10158618 0.14449652 -0.20296577 0.043380626 -0.17152804 0.25367597 0.10343083 0.053646896
0.13929692 0.013790353 -0.07923218 -0.040676184 0.12610285 0.08711501 0.07720625 0.027829522
-0.09754377 -0.17065047 0.15780723 -0.11168638 -0.16867389 0.25121823 0.22939952 0.14460243
-0.13737574 -0.062124863 -0.05408415 -0.1738955 0.27964684 0.08821605 0.045219865 0.14072685
-0.1061253 -0.14141314 0.08302506 0.07122156 0.30622876 -0.036386482 0.008947186 -0.07459569
0.018158903 0.04373537 0.08114352 0.019276204 -0.09771606 0.08700768 0.31018382 -0.061259177
0.005119745 -0.30630746 -0.04807493 -0.1281019 -0.1090214 -0.13530225 0.276389 0.1795411
-0.20179379 -0.09739288 0.15914136 0.1674733 -0.11131996 0.13689037 0.0613115 0.13733745
-0.06884586 -0.08595436 0.086966455 0.12294694 -0.02908246 0.3130074 0.01858715 -0.10696762
-0.054044496 -0.03171007 0.062528245 -0.08446986 0.2211551 0.16523279 -0.3003564 0.20648825
00000000: 7656 8cbd 9e86 e23c c619 db3d f964 c23d
00000010: bc8f 1cbc a7c0 63be 100e f9bd 638e 7e3d
00000020: 3b44 48be b5f4 a0bd 0fbf 503e 358a 38bd
00000030: a9ee 5a3d 24b5 1bbe b1c3 dc3d 910b 993e
00000040: 4724 3e3e f847 923c c687 10be e914 0cbe
00000050: 6088 123e 1956 78bd 1879 44bc 6ea8 2dbe
00000060: 8ccf 703b a9ae 9abc 38dd 2c3e 7377 cfbd
00000070: 7503 59be 6e23 07be 39a9 e63d 4524 e5bd
00000080: cd0b 99bd 3578 0b3e ef7d 13be 0605 0fbd
00000090: c5ac a9bd d7fe 873e 7e93 34be 59bf 233d
000000a0: 76c2 bdbc bb59 1ebe 925a 8c3d 495b 0bbe
000000b0: cdfc cbbd 4210 dcbc 5218 29bd 8bc4 ecbd
000000c0: 3ea8 ae3e 9f39 873e 4ed1 863d efe5 f83d
000000d0: 0fd6 ae3c 126e 733d 6ce2 58bc a22e fc3c
000000e0: 2cad d93d 7809 bfbd 59b2 67be 2330 353e
000000f0: cb68 b3bb d3c2 143d 5ee7 60bd d160 88be
00000100: f9ab 183c a085 6a3d 8aea 9bbd 7296 453e
00000110: 2fd0 4cbe e11c 2dbe 5464 edbd 475b 53be
00000120: 6e07 b3bd d07a 133c 7a3f 74bd c8e2 db3c
00000130: 0755 893d 2462 283e af4d 3d3e c23d 0fbd
00000140: aef4 25be ccb7 54be e6d7 debd 7683 f0bd
00000150: ef66 793e c5d4 8dbe 0687 a93b 4365 8f3c
00000160: 0e4a 11be 7adf 223a c4d6 09bd 693d 4e3d
00000170: d3a2 0fbd c3f9 d13d 7575 8dbe 212c 8bbe
00000180: d69f 063e a42c d9bd b391 933e 2638 ca3c
00000190: 9f1b 3f3e 385f 443d a410 303b 8978 063e
000001a0: acd7 d8bd abc2 023e 3ead ca3d dcf1 b2bd
000001b0: f484 3c3e 4eb7 9dbd 9f5a a1bd 93ff e3bd
000001c0: d62e 393c 9ee1 62be d744 903d 5837 453e
000001d0: 405d fa3d 3429 e1bd 9d42 163c ddd3 073e
000001e0: 0e4c 20be 5f64 013d 3b45 873e 3e89 923e
000001f0: ec19 873e bdd2 0b3d 4d96 5bbd 2c5b ebbd
00000200: 907f 533e 441d 96bd 92bc 72be 9137 9e3e
00000210: 72a3 1ebe 50f2 233e 13a9 263e b19d f33d
00000220: 3c3e 0a3d c6d6 c8bb d0aa 2b3e da35 943d
00000230: 00e3 02bd b33c 3cbe f773 e03d ac35 0a3e
00000240: cfd7 de3d 21b1 ddbc cfe4 8b38 8833 45be
00000250: e7a1 d13d ccfe 6c3e 7c0b 1d3e 98db ca3d
00000260: 36ad 6d3e 47e7 8abd d19f 9e3e 5040 cabd
00000270: 3705 b83d 486a fa3d 92db 1e3c ec3a 093e
00000280: 4f76 71be 2c97 1d3e 6ea4 333d dcea 8c3d
00000290: 13ec b9bd b430 6d3d 9f1c cc3d 5170 253e
000002a0: a242 693d 322c 5f3e 348b 2d3e 716c 76be
000002b0: 27e0 71be f80e 8abe b706 4bbe 3244 49be
000002c0: 6a0c d0bd e5f6 133e 42d6 4fbe e2af 313d
000002d0: 0ca5 2fbe d1e1 813e 8bd3 d33d d9bc 5b3d
000002e0: daa3 0e3e eff0 613c 7b44 a2bd 129c 26bd
000002f0: 1b21 013e 5b69 b23d 4f1e 9e3d bdfa e33c
00000300: 07c5 c7bd ffbe 2ebe 3898 213e d4bb e4bd
00000310: d9b8 2cbe ad9f 803e b5e7 6a3e a912 143e
00000320: 3aac 0cbe a476 7ebd 5787 5dbd a911 32be
00000330: df2d 8f3e 9eaa b43d 7738 393d b31a 103e
00000340: 3958 d9bd 9bce 10be 0b09 aa3d 9cdc 913d
00000350: 04ca 9c3e fe09 15bd 3897 123c a0c5 98bd
00000360: fbc1 943c dc23 333d 932e a63d 21e9 9d3c
00000370: 5c1f c8bd 1531 b23d 6ad0 9e3e e7ea 7abd
00000380: 89c3 a73b 55d4 9cbe 38ea 44bd 252d 03be
00000390: 9d46 dfbd ac8c 0abe dc82 8d3e 9fd9 373e
000003a0: 08a3 4ebe eb75 c7bd f4f5 223e 1f7e 2b3e
000003b0: b8fb e3bd fd2c 0c3e c421 7b3d 30a2 0c3e
000003c0: 0fff 8cbd d708 b0bd 781b b23d 9bcb fb3d
000003d0: 573e eebc 8242 a03e 1444 983c d711 dbbd
000003e0: c35d 5dbd 6be2 01bd cf0e 803d 89fe acbd
000003f0: 7c76 623e c932 293e 50c8 99be a871 533e

fc2.weight f4 [128, 256]
-0.09136837 -0.11210945 -0.043041695 -0.17717355 0.019348653 0.028218783 -0.07963143 0.04314985
0.00308944 0.07127771 -0.07803019 -0.1388894 -0.17796955 -0.102631986 0.00021959355 -0.0053361733
0.012352229 -0.055984173 -0.012746716 -0.031108072 -0.024701215 0.06478862 0.017721683 0.0029217391
0.00031090915 -0.5102644 -0.0798144 -0.08828893 -0.0744368 -0.08641622 0.113677196 0.19854432
-0.043249663 0.005317192 -0.03850934 0.002845702 0.011443203 -0.10638258 -0.0801063 0.06655558
-0.031024776 0.022677219 -0.02768396 -0.09786385 0.12227165 0.028945558 0.20629776 -0.017940776
-0.027928429 -0.065602966 -0.059820022 -0.12137449 -0.060499024 -0.1571303 -0.1882386 -0.04067136
0.046370745 -0.014888147 -0.07453993 -0.16931543 -0.09492096 0.030781433 0.0410685 -0.16871226
-0.0021886632 -0.01547369 0.01213744 0.028548708 -0.070482545 -0.22673066 -0.000101149104 0.03402214
-0.053709235 0.20681316 0.029766683 -0.09005562 0.2712503 -0.2072731 -0.016457414 -0.08891142
-0.06382412 -0.17017958 0.028851796 0.06259726 0.07469718 -0.07548425 -0.09076953 -0.01560965
-0.11738957 -0.00299946 0.01981991 -0.07371456 -0.063707896 -0.07240776 -0.11610761 -0.0057400092
0.05015336 -0.029469501 0.08990954 -0.06267102 -0.00032368914 0.03971344 -0.0372071 0.20886095
0.049579363 -0.07950951 -0.057160564 0.06018931 -0.047657076 0.050369125 -0.06807368 0.006507993
-0.058418468 0.11316792 -0.119749 -0.065838195 0.038652282 0.023403767 -0.116359174 -0.0055955504
0.06995187 0.077983536 -0.1460408 -0.030609755 -0.074801534 0.18222925 0.012808541 -0.1816818
-0.049688812 0.10355067 -0.016955648 0.040234216 -0.06449343 0.06257312 0.085149646 -0.0006648008
0.17350556 0.038702622 0.019931668 0.052544657 -0.07063027 0.016098693 0.04380097 -0.03497785
-0.032985568 0.05605918 -0.072565705 -0.113393985 -0.049092427 -0.016081333 0.04104914 -0.13914996
0.23669647 0.054384172 0.10546187 0.021514643 -0.04971896 0.056168657 -0.0020101205 0.0808165
-0.06597055 -0.05858505 0.099126235 -0.010671054 0.06580298 -0.24993485 -0.20166218 0.0076367036
-0.044681508 0.028253045 -0.024753017 -0.023086919 -0.09614016 -0.20338194 0.012304146 -0.1095613
0.014631969 -0.0627794 -0.04854349 0.18006709 0.06151368 -0.05476451 0.12242197 -0.19074066
0.041461952 -0.06482371 0.017755602 0.08442455 -0.047479164 0.12418007 -0.05796455 -0.11722261
-0.08629277 -0.16454765 -0.06698062 0.042420126 -0.11037022 0.0011147425 0.07803355 -0.040469825
-0.021021433 -0.07124235 -0.078515105 -0.027200807 0.09693856 -0.033659697 -0.07790971 0.09798368
0.048357945 0.098521 0.007120867 -8.404543e-05 -0.009613202 0.06903638 0.08298751 -0.060352866
0.02724977 0.040251642 -0.10201704 -0.009321641 0.028792646 0.0967871 0.05500957 -0.049484856
-0.009972466 -0.03333662 -0.13351688 -0.0032348337 -0.21257472 0.093538254 -0.055812035 -0.031681173
-0.16994156 -0.021194603 -0.14260167 0.18249066 -0.011678946 -0.013124433 -0.035997152 -0.13390103
0.01783438 -0.103086226 0.10985138 -0.07482249 0.011795672 0.03840133 -0.10698231 -0.19433309
0.07385419 -0.06096721 0.008814933 -0.05716288 -0.07256501 -0.1278803 -0.08448553 -0.07839343
00000000: 571f bbbd a499 e5bd 7d4c 30bd fc6c 35be
00000010: 1181 9e3c 142b e73c ce15 a3bd e6bd 303d
00000020: 3478 4a3b 0cfa 913d 4bce 9fbd 0639 0ebe
00000030: a63d 36be b830 d2bd b242 6639 11db aebb
00000040: 0161 4a3c a94f 65bd 9ad7 50bc 5bd6 febc
00000050: 345a cabc e5af 843d 102d 913c a67a 3f3b
00000060: 8501 a339 b0a0 02bf bb75 a3bd d4d0 b4bd
00000070: 5272 98bd fdfa b0bd 97cf e83d 344f 4b3e
00000080: 8f26 31bd d73b ae3b f8bb 1dbd f57e 3a3b
00000090: 467c 3b3c 1cdf d9bd c60e a4bd 4b4e 883d
000000a0: ac27 febc 93c5 b93c 79c9 e2bc d86c c8bd
000000b0: 8f69 fa3d 3c1f ed3c b83f 533e 89f8 92bc
000000c0: 29ca e4bc d95a 86bd d705 75bd 3093 f8bd
000000d0: d3cd 77bd c4e6 20be 9fc1 40be 0397 26bd
000000e0: 40ef 3d3d 6aed 73bc 64a8 98bd 0661 2dbe
000000f0: ec65 c2bd 5829 fc3c 7237 283d e8c2 2cbe
00000100: ad6f 0fbb 5c85 7dbc 1ddc 463c fbde e93c
00000110: 2759 90bd 152c 68be 0320 d4b8 cd5a 0b3d
00000120: 37fe 5bbd d4c6 533e 42d9 f33c 156f b8bd
00000130: 52e1 8a3e 663f 54be b3d1 86bc 3117 b6bd
00000140: 38b6 82bd 8e43 2ebe 9a5a ec3c fe32 803d
00000150: d6fa 983d 7d97 9abd 60e5 b9bd 9ebf 7fbc
00000160: f169 f0bd 9792 44bb 5d5d a23c a9f7 96bd
00000170: 4979 82bd 854a 94bd d4c9 edbd b016 bcbb
00000180: 9c6d 4d3d 066a f1bc 7e22 b83d aa59 80bd
00000190: d2b4 a9b9 8faa 223d 7966 18bd a5df 553e
000001a0: bb13 4b3d e2d5 a2bd 3221 6abd 1189 763d
000001b0: 1134 43bd db4f 4e3d 376a 8bbd 0141 d53b
000001c0: 3448 6fbd 95c4 e73d f73e f5bd 2dd6 86bd
000001d0: db51 1e3d 42b9 bf3c b84d eebd e15a b7bb
000001e0: ed42 8f3d d5b5 9f3d b88b 15be 4fc1 fabc
000001f0: 8c31 99bd 4e9a 3a3e eada 513c cb0a 3abe
00000200: 7f86 4bbd 6012 d43d 92e6 8abc a2cc 243d
00000210: 2215 84bd 5626 803d f062 ae3d 0746 2eba
00000220: 71ab 313e a486 1e3d bd47 a33c 1139 573d
00000230: 9aa6 90bd 68e1 833c a568 333d ef44 0fbd
00000240: e01b 07bd 509e 653d 549d 94bd 1b3b e8bd
00000250: 2415 49bd 00bd 83bc 2523 283d 547d 0ebe
00000260: 8f60 723e f0c1 5e3d 65fc d73d 7a3f b03c
00000270: 1ca6 4bbd 1b11 663d 3abc 03bb 1f83 a53d
00000280: 911b 87bd e1f6 6fbd b202 cb3d a5d5 2ebc
00000290: b6c3 863d ecee 7fbe 8880 4ebe 503d fa3b
000002a0: f503 37bd ee72 e73c d7c6 cabc c720 bdbc
000002b0: 22e5 c4bd 5b43 50be 5497 493c ad61 e0bd
000002c0: edba 6f3c 7c92 80bd 8ad5 46bd 8263 383e
000002d0: c5f5 7b3d c050 60bd 5fb8 fa3d 8551 43be
000002e0: 02d4 293d 4bc2 84bd 3274 913c c7e6 ac3d
000002f0: 8379 42bd 1f52 fe3d 3c6c 6dbd 6812 f0bd
00000300: 44ba b0bd 2e7f 28be 232d 89bd bac0 2d3d
00000310: c809 e2bd 8d1c 923a 0ed0 9f3d b0c3 25bd
00000320: 2435 acbc 82e7 91bd 87cc a0bd 3ad4 debc
00000330: b987 c63d c0de 09bd 208f 9fbd abab c83d
00000340: fb12 463d 61c5 c93d 2956 e93b 8c41 b0b8
00000350: b180 1dbc f262 8d3d 5bf5 a93d 9134 77bd
00000360: e93a df3c e8de 243d 4fee d0bd ccb9 18bc
00000370: 8ede eb3c 5138 c63d b751 613d a2b0 4abd
00000380: 8e63 23bc fb8b 08bd a6b8 08be 81ff 53bb
00000390: 30ad 59be fc90 bf3d 299b 64bd 1ec4 01bd
000003a0: 2905 2ebe 4ea0 adbc 2c06 12be d5de 3a3e
000003b0: 0d59 3fbc dd07 57bc c071 13bd 5a1d 09be
000003c0: 6819 923c df1e d3bd c3f9 e03d 893c 99bd
000003d0: a242 413c b74a 1d3d 8b19 dbbd 41ff 46be
000003e0: de40 973d c1b8 79bd 826c 103c a023 6abd
000003f0: f79c 94bd 0ef3 02be c006 adbd bc8c a0bd

fc2.bias f4 [128]
0.042842694 0.049984463 -0.08457572 -0.018825773 -0.06932757 0.050908223 0.02526448 -0.10472315
0.0743976 0.1243452 0.09306404 0.15184912 -0.06772086 -0.08406273 -0.074509636 0.09612001
0.0531559 0.1353048 -0.06863354 -0.09480135 0.06732439 -0.031810768 -0.00013365135 -0.07366722
0.028188357 -0.046013433 -0.14201824 0.08711219 0.12088721 -0.049344312 -0.02816967 0.08058908
-0.08514066 -0.089200266 0.04530667 -0.07403577 -0.002511463 0.16447239 -0.047827773 0.025660973
-0.01495086 0.11794117 0.0055455533 -0.053345542 0.08184859 0.10277589 0.012774419 0.16705011
0.029552896 -0.07923533 -0.14000107 0.108297415 0.048912693 -0.03737542 0.0694821 0.025107598
-0.07059651 0.010751528 -0.057455406 0.12756875 0.08460624 0.07760487 0.04494002 0.067407355
0.014382226 0.08688997 0.073941596 -0.04713712 0.045088585 -0.01340796 -0.023973864 0.004352491
-0.02514753 0.04190214 -0.038380586 -0.0119655 0.014470268 0.02562113 0.01394077 -0.067798354
0.07236165 -0.01757705 -0.03489799 -0.032423977 -0.026487397 -0.068093434 -0.035456944 -0.053811114
-0.00309433 -0.014142201 0.144492 0.0145238675 0.074479654 -0.011871741 -0.02825202 -0.045008242
0.014415626 -0.016292734 0.13495873 -0.005614414 -0.0054801824 -0.015944012 -0.064267054 0.13851981
-0.099953085 0.029915202 -0.043001782 0.045950588 0.05384033 0.029752444 -0.08764062 0.0192247
-0.09371565 0.0003323567 0.06635987 -0.03320752 -0.05408908 -0.0073594954 0.028258469 0.09328302
0.092501745 -0.010233515 0.0002972891 -0.05059359 -0.04017861 -0.011942292 0.113979585 0.08739021
00000000: d27b 2f3d 82bc 4c3d 0936 adbd 8238 9abc
00000010: 9dfb 8dbd 2485 503d 74f7 ce3c 1779 d6bd
00000020: c55d 983d b2a8 fe3d 5c98 be3d 567e 1b3e
00000030: 3cb1 8abd 1529 acbd 8298 98bd 91da c43d
00000040: 00ba 593d 578d 0a3e be8f 8cbd 3627 c2bd
00000050: 5fe1 893d 024c 02bd c324 0cb9 d7de 96bd
00000060: 45eb e63c 9578 3cbd 3b6d 11be e067 b23d
00000070: b793 f73d 431d 4abd 14c4 e6bc e30b a53d
00000080: 3a5e aebd a1ae b6bd 7d93 393d 11a0 97bd
00000090: 5b97 24bb 736b 283e 0ee7 43bd f636 d23c
000000a0: 74f4 74bc 248b f13d 79b7 b53b db80 5abd
000000b0: 3ca0 a73d 2a7c d23d cc4b 513c 2f0f 2b3e
000000c0: ea18 f23c 2246 a2bd 715c 0fbe 09cb dd3d
000000d0: ad58 483d f816 19bd a24c 8e3d 73ae cd3c
000000e0: e794 90bd 2d27 303c 5c56 6bbd 62a1 023e
000000f0: 0946 ad3d 4def 9e3d 0713 383d de0c 8a3d
00000100: 6ea3 6b3c 5ef3 b13d b16e 973d da12 41bd
00000110: cfae 383d 0fad 5bbc d664 c4bc 579f 8e3b
00000120: 3102 cebc 94a1 2b3d f634 1dbd f20a 44bc
00000130: b414 6d3c 67e3 d13c d467 643c ddd9 8abd
00000140: 5832 943d bffd 8fbc 32f1 0ebd 01cf 04bd
00000150: 19fc d8bc 9274 8bbd 4d3b 11bd 0b69 5cbd
00000160: 3eca 4abb b1b4 67bc b6f5 133e 84f5 6d3c
00000170: ca88 983d b181 42bc c870 e7bc 905a 38bd
00000180: 852f 6c3c 5778 85bc 9f32 0a3e 1ef9 b7bb
00000190: 1a93 b3bb 049d 82bc 729e 83bd 23d8 0d3e
000001a0: 34b4 ccbd ba10 f53c a322 30bd af36 3c3d
000001b0: ae87 5c3d 66bb f33c ed7c b3bd 1e7d 9d3c
000001c0: feed bfbd 2940 ae39 afe7 873d 9c04 08bd
000001d0: 838c 5dbd ec27 f1bb 4e7e e73c 2b0b bf3d
000001e0: 8e71 bd3d 79aa 27bc 78dd 9b39 393b 4fbd
000001f0: 5392 24bd 9aa9 43bc 216e e93d a3f9 b23d

fc3.weight f4 [2, 128]
0.21148816 -0.23676476 -0.26120937 -0.28962052 -0.1009518 0.0650769 0.37578842 -0.09145643
0.3883199 0.16511367 0.1530122 0.07709859 -0.23854576 -0.2799225 -0.21075307 0.20841731
0.14582069 0.23367028 -0.24726963 -0.22776332 0.10692839 -0.2771165 -0.06087206 -0.26701182
-0.19009228 -0.27444834 -0.25071225 0.12526746 0.18124829 -0.24700226 -0.23722944 0.18798766
-0.23957852 -0.019011121 0.117081314 -0.36598054 -0.22053483 0.1059668 -0.29167435 0.17958274
-0.2624929 0.15933833 -0.12655447 -0.24869564 0.10408767 0.0937575 -0.27409276 0.14183977
0.15404078 -0.26687655 -0.3225722 0.20287725 0.13882612 -0.123223126 0.18246375 -0.16168162
-0.38062727 -0.0044056303 -0.18188319 0.12131422 0.124116 0.21770068 0.15670668 0.12247938
-0.18340017 0.054676652 0.17334375 -0.28984213 0.19650926 -0.28146467 -0.1653656 0.32176283
-0.26746526 0.12508698 -0.1702133 -0.31511596 0.1173419 -0.2803913 0.17937484 -0.3628989
0.13516971 0.026943155 -0.258868 0.0090539465 -0.3181045 -0.20435679 -0.08374708 -0.18068211
-0.17438497 -0.03933407 0.12370427 -0.2727893 0.0408559 -0.0041755443 -0.28237355 -0.21240152
-0.17390434 -0.0066640056 0.14966267 -0.12632 -0.22889042 -0.040894475 -0.24541636 0.14029811
-0.24587367 0.13338685 -0.31725097 0.10197138 0.116997086 -0.13511528 -0.2227725 0.16161354
-0.032529198 -0.301522 -0.07860601 -0.29470628 -0.055248518 -0.02781954 -0.2580182 0.18259652
0.12474261 -0.18380001 -0.17965154 -0.17074074 -0.2581171 -0.3289968 0.1261985 0.081240855
-0.048819494 0.21478371 0.09680744 0.12579103 -0.13541612 -0.08472377 0.3357558 -0.053898018
0.45538226 -0.073133714 -0.11117241 0.13336857 0.066422276 -0.07041099 -0.09791554 -0.28996456
-0.056696683 -0.35212094 0.0059725577 -0.011145699 0.2816591 0.02712433 -0.28732467 -0.055836223
0.09825534 0.022268128 -0.18826707 -0.037361164 -0.07571782 0.07248425 0.13466144 -0.13236791
0.16051637 -0.2733859 -0.10913063 -0.026451115 0.018983481 0.068889715 -0.045756362 -0.15616259
0.10775898 -0.014746725 -0.19750354 0.087404594 -0.04815377 0.08938997 0.4302603 0.078351125
0.057240438 0.09473105 0.14102575 -0.33657503 -0.077764876 0.28034598 -0.11664944 0.08396853
0.04115506 -0.19996418 -0.007400451 -0.13135321 -0.04648531 -0.34677652 -0.060635466 0.03525143
0.12439006 -0.09332728 -0.06377001 0.024358781 -0.10867807 -0.039927725 -0.063085325 0.4332251
0.05114117 -0.033297293 0.00817283 0.08250698 -0.08094585 0.10736558 -0.173957 -0.019749835
0.06904281 0.2703855 0.041778926 0.23732445 0.16136901 0.05101925 0.27580678 -0.19338048
0.00083791633 -0.34878486 0.08824711 -0.01869408 0.34628505 0.031622387 0.048947345 0.075399324
0.10221731 -0.022121275 -0.034229733 0.25241172 -0.17969392 -0.23076777 0.13446599 0.06374784
0.09030836 -0.025045145 -0.1340279 -0.15535207 -0.048518136 0.05019791 -0.0731717 -0.05977614
-0.38470447 -0.022643778 0.25284675 0.06946885 -0.0017758044 -0.34051803 -0.01876391 -0.17506008
-0.06733729 0.16188335 -0.3848206 0.06013766 0.059019063 0.08916184 -0.026950583 0.16792701
00000000: 5a90 583e 7672 72be 3cbd 85be 2449 94be
00000010: d1bf cebd 0a47 853d 5767 c03e 824d bbbd
00000020: ded1 c63e 8f13 293e 3baf 1c3e dee5 9d3d
00000030: 5745 74be 0052 8fbe a7cf 57be 596b 553e
00000040: 0552 153e 4347 6f3e 4034 7dbe ca3a 69be
00000050: 46fd da3d 37e2 8dbe fb54 79bd c6b5 88be
00000060: 8da7 42be 7e84 8cbe 5b5d 80be 1d46 003e
00000070: 2799 393e 29ee 7cbe 46ec 72be d67f 403e
00000080: 1254 75be 36bd 9bbc 54c8 ef3d cd61 bbbe
00000090: e2d3 61be 1f05 d93d 5756 95be 8ae4 373e
000000a0: 7865 86be 9629 233e 7f97 01be 12aa 7ebe
000000b0: eb2b d53d ef03 c03d e355 8cbe 723e 113e
000000c0: debc 1d3e 0ba4 88be 2f28 a5be 0ebf 4f3e
000000d0: 6f28 0e3e 685c fcbd c7d7 3a3e de8f 25be
000000e0: 94e1 c2be 1b5d 90bb 963f 3abe 9773 f83d
000000f0: 8830 fe3d edec 5e3e b777 203e 78d6 fa3d
00000100: 41cd 3bbe a0f4 5f3d 0681 313e 3066 94be
00000110: b939 493e 231c 90be 9a55 29be 19be a43e
00000120: 35f1 88be cd16 003e 654c 2ebe e156 a1be
00000130: f350 f03d 738f 8fbe 0aae 373e e2cd b9be
00000140: ee69 0a3e e4b7 dc3c 598a 84be 0157 143c
00000150: 98de a2be e842 51be 9783 abbd bb04 39be
00000160: f991 32be c31c 21bd aa58 fd3d 0aab 8bbe
00000170: 8458 273d 01d3 88bb 4493 90be c97f 59be
00000180: fb13 32be bb5d dabb 2c41 193e 085a 01be
00000190: 4062 6abe f780 27bd 6d4e 7bbe 4faa 0f3e
000001a0: 4fc6 7bbe 9096 083e b86e a2be 5fd6 d03d
000001b0: 2b9c ef3d a95b 0abe 791e 64be 057e 253e
000001c0: 563d 05bd 1761 9abe 30fc a0bd bee3 96be
000001d0: 454c 62bd cee5 e3bc f61a 84be 95fa 3a3e
000001e0: 0e79 ff3d 1236 3cbe 93f6 37be a9d6 2ebe
000001f0: ed27 84be 4572 a8be 2e3a 013e 9b61 a63d
00000200: f3f6 47bd 43f0 5b3e fb42 c63d 5dcf 003e
00000210: 86aa 0abe a883 adbd 2fe8 ab3e 2bc4 5cbd
00000220: dd27 e93e 21c7 95bd 5cae e3bd c591 083e
00000230: 6708 883d a333 90bd f187 c8bd 3c76 94be
00000240: c83a 68bd 3249 b4be 72b5 c33b 739c 36bc
00000250: 9f35 903e d833 de3c 381c 93be 86b4 64bd
00000260: 183a c93d a66b b63c 15c9 40be 0508 19bd
00000270: f211 9bbd 9f72 943d b0e4 093e 748b 07be
00000280: 675e 243e 3df9 8bbe e17f dfbd 02b0 d8bc
00000290: 3f83 9b3c 0d16 8d3d 066b 3bbd 16e9 1fbe
000002a0: bdb0 dc3d 3f9c 71bc 5e3e 4abe 2e01 b33d
000002b0: e33c 45bd 1712 b73d 144b dc3e 8e76 a03d
000002c0: f374 6a3d 5a02 c23d 0e69 103e 9053 acbe
000002d0: 3143 9fbd 8289 8f3e e7e5 eebd b1f7 ab3d
000002e0: 3592 283d 69c3 4cbe 7c7f f2bb 7581 06be
000002f0: 6167 3ebd b18c b1be e55c 78bd ce63 103d
00000300: 37c0 fe3d 5f22 bfbd da99 82bd 118c c73c
00000310: 9c92 debd 418b 23bd e132 81bd aecf dd3e
00000320: 6779 513d be62 08bd 55e7 053c 6bf9 a83d
00000330: f0c6 a5bd 7ce2 db3d c921 32be 68ca a1bc
00000340: 5166 8d3d f86f 8a3e 6120 2b3d 2e05 733e
00000350: eb3d 253e 90f9 503d 8c36 8d3e 8805 46be
00000360: 9da7 5b3a ee93 b2be e7ba b43d 5424 99bc
00000370: 464c b13e 7a86 013d 037d 483d f66a 9a3d
00000380: 4f57 d13d ad37 b5bc 7a34 0cbd 1c3c 813e
00000390: af01 38be 634e 6cbe 74b1 093e 3a8e 823d
000003a0: 97f3 b83d 7a2b cdbc 9c3e 09be 9d14 1fbe
000003b0: f4ba 46bd 539c 4d3d 0bdb 95bd d3d7 74bd
000003c0: fcf7 c4be 727f b9bc 2175 813e af45 8e3d
000003d0: 1cc2 e8ba 6158 aebe c5b6 99bc f342 33be
000003e0: 22e8 89bd c0c4 253e 3507 c5be e852 763d
000003f0: f9bd 713d 7c9a b63d 78c7 dcbc 0ff5 2b3e

fc3.bias f4 [2]
0.07823967 0.05520354
00000000: 1f3c a03d 1b1d 623d
