final_ckpt_target_actor_1.pth (torch_old, 159228 bytes, 6 tensors)

fc1.weight f4 [256, 24]
0	0x3e70bfd6	0.2351068
1	0xbe032e56	-0.12810645
2	0x3d5158dc	0.051110134
3	0xbe13c787	-0.14431582
4	0x3e15bc63	0.14622645
5	0xbce80afd	-0.028325552
6	0x3d63f6c8	0.05565527
7	0xbd89d838	-0.067306936
8	0x3e2d6dd9	0.16936435
9	0xbcabd23b	-0.02097427
10	0x3cf934ca	0.03042068
11	0x3e1c1a57	0.15244423
12	0x3d58b952	0.05291111
13	0xbd9e4c9d	-0.077294566
14	0x3dbd650f	0.09247791
15	0x3e5293dd	0.20564218
16	0x3df07ac8	0.11742169
17	0xbd4d570a	-0.050131835
18	0x3bd728a7	0.0065661254
19	0x3e0f9fc7	0.14025794
20	0xbe03f5d4	-0.12886745
21	0xbd27e5aa	-0.04099051
22	0x3d936570	0.07197082
23	0x3dc2bdcc	0.09508857
24	0xbd082ad6	-0.033243977
25	0x3df282ab	0.11841329
26	0xbcd7c3e4	-0.026338525
27	0xbc611cbf	-0.013739764
28	0x3ccbd606	0.024882328
29	0xbdb31bb0	-0.08745515
30	0xbc91fd27	-0.017820908
31	0xbdda19ca	-0.1064945
32	0xbd4d47d3	-0.050117325
33	0x3cec2732	0.028827284
34	0xbcc59438	-0.024118528
35	0xbddfa556	-0.10920207
36	0x3de8609c	0.11346552
37	0x3cbf42fd	0.023347372
38	0xbd9282d7	-0.07153862
39	0xbdcb0ad5	-0.099141754
40	0x3c9aab56	0.018880527
41	0x3cc7960a	0.024363536
42	0xbdb25f31	-0.087095626
43	0xbda0a3d0	-0.07843745
44	0x3e83d677	0.2574956
45	0x3ddfdbe2	0.10930611
46	0xbd2b8c3e	-0.041881792
47	0xbdef1d7a	-0.11675544
48	0xbd162c4b	-0.036663335
49	0x3d314635	0.043279845
50	0x3ded0cab	0.11574682
51	0x3def4610	0.11683285
52	0x3ddbb520	0.10727906
53	0x3d220e93	0.03956468
54	0x3d0715eb	0.032979887
55	0x3d80c55b	0.062876426
56	0xbb3da210	-0.0028935708
57	0xbc63a188	-0.0138934925
58	0xbc1c926e	-0.009556396
59	0xbd35edbf	-0.044416185
60	0x3cd3776c	0.02581378
61	0x3dba76e6	0.09104709
62	0x3c1dbcc7	0.009627528
63	0xbcc95d69	-0.024580674
64	0x3a159802	0.000570655
65	0xbd0a855e	-0.033818595
66	0xbe1368fd	-0.14395519
67	0x3d98f32c	0.07468256
68	0x3c980207	0.018555654
69	0x3e1fc654	0.15603
70	0xbdc7d69e	-0.09757732
71	0x3e19673b	0.14980786
72	0x3d6bb825	0.05754866
73	0xbd13f6c6	-0.036124013
74	0xbc63b0c9	-0.013897129
75	0xbdf6543e	-0.12027787
76	0x3d121366	0.03566303
77	0xbdd8f800	-0.10594177
78	0x3c2290f5	0.009922256
79	0xbe024ad1	-0.12723853
80	0xbc1ef67d	-0.009702322
81	0xbdd9fa89	-0.10643489
82	0xbd8fc651	-0.07020248
83	0xbd7a8ce1	-0.06116951
84	0xbbc689da	-0.0060589137
85	0xbd17eb47	-0.037089612
86	0xbd0211db	-0.03175531
87	0x3c2ee895	0.010675569
88	0x3da8520a	0.08218773
89	0xbd859834	-0.06523171
90	0xb963d667	-0.00021728278
91	0x3e1f9071	0.15582444
92	0xbdb6a1f8	-0.08917612
93	0x3e0deaf7	0.13859163
94	0x3dc52677	0.09626477
95	0x3e3dd442	0.18538001
96	0xbdca2c77	-0.09871762
97	0x3e03dd8b	0.1287748
98	0x3d8ddb7c	0.06926629
99	0x3da0002a	0.07812531
100	0xbd87f93d	-0.06639335
101	0x3c730219	0.014832043
102	0xbd1568ce	-0.036476903
103	0x3bc0fcc1	0.0058895056
104	0xbd2735ae	-0.040822677
105	0x3e7106ed	0.23537798
106	0xbd0f2459	-0.034946773
107	0x3c8c157e	0.017100092
108	0x3e24ec21	0.16105701
109	0xbd8efc4d	-0.06981716
110	0xbc5464c6	-0.012963479
111	0x3dacdfcc	0.08441123
112	0x3ca2f005	0.01988984
113	0x3e3c0350	0.18360639
114	0xbc1f9e7f	-0.009742378
115	0xbd971bec	-0.073783726
116	0x3db27f4c	0.08715686
117	0xbda33f8d	-0.07971106
118	0x3cecc19f	0.02890092
119	0xbbb532b8	-0.005529728
120	0xbc96c36b	-0.01840373
121	0xbc8414ce	-0.016123202
122	0xbdd98e80	-0.10622883
123	0xbda4819c	-0.080325335
124	0x3d05113e	0.032487147
125	0x3c9aaa13	0.018879926
126	0xbce58005	-0.028015146
127	0xbd7e58e5	-0.062096495
128	0xbcab00f5	-0.02087448
129	0xbb6ac8e6	-0.0035825311
130	0x3a854a73	0.0010169282
131	0xbdfde187	-0.123965316
132	0xbdc94fbf	-0.098296635
133	0x3db75caf	0.08953225
134	0x3d8c838f	0.0686103
135	0xbdc8af5a	-0.09799071
136	0x3cc5917d	0.024117226
137	0xbdfe956b	-0.12430843
138	0x3c7ed658	0.015554033
139	0xbda3e981	-0.08003522
140	0xbda0ece2	-0.07857682
141	0x3e89d521	0.26920417
142	0x3cc2ef90	0.023795873
143	0xbdd98fa0	-0.106230974
144	0xbe0866d5	-0.13320477
145	0x3d443390	0.047900736
146	0xbd1e07d0	-0.03858167
147	0xbc35602b	-0.0110702915
148	0xbd3f66d8	-0.04672894
149	0xbbff4758	-0.0077904873
150	0xbc366e4c	-0.011134695
151	0x3da0b37a	0.078467324
152	0xbbd313f1	-0.006441586
153	0x3d7ecda8	0.062207848
154	0xbc17bc18	-0.009261154
155	0x3cf00142	0.029297475
156	0xbc0f26a1	-0.008737237
157	0xbdab24f9	-0.08356661
158	0xbcf9e762	-0.03050584
159	0x3d19bccc	0.037533566
160	0xbdc87218	-0.09787387
161	0x3bcbe2f9	0.0062221256
162	0x3c674c34	0.014117289
163	0x3d568da1	0.05238116
164	0x3d96dc65	0.07366256
165	0xbe904b76	-0.28182572
166	0x3c45a7af	0.012063905
167	0x3daa4883	0.08314612
168	0xbe02ef83	-0.12786679
169	0xbdedc691	-0.11610139
170	0xbd7dda46	-0.06197574
171	0xbc3c2231	-0.011482761
172	0xbe06cfae	-0.13165161
173	0x3d79516b	0.06086866
174	0xbd0b8769	-0.034064684
175	0xbd6aaedd	-0.05729567
176	0xbd0be4a8	-0.03415361
177	0x3cf61453	0.030038988
178	0xbd8502a9	-0.06494648
179	0xbd39d252	-0.045366593
180	0x3dbb3796	0.091414616
181	0xbdd23ffb	-0.102661096
182	0xbd5314e2	-0.051533587
183	0xbd1b1233	-0.037859153
184	0xbc98ab75	-0.018636445
185	0x3d192aa3	0.037394177
186	0xbd6247b8	-0.055244178
187	0x3d467f23	0.04846109
188	0x3dd0881e	0.10182212
189	0xbe34806e	-0.17627117
190	0x3cae830a	0.021302719
191	0x3ced5814	0.028972663
192	0x3da9ce05	0.08291248
193	0x3cece09a	0.028915692
194	0xbd302f5a	-0.043013908
195	0xbd109225	-0.035295624
196	0x3e30c4ea	0.17262617
197	0x3ba1f8e1	0.0049429988
198	0xbd262205	-0.040559787
199	0xbd78760b	-0.06065945
200	0x3e60697a	0.21915236
201	0x3ca07408	0.019586578
202	0x3c280435	0.010254909
203	0xbbe3c4ce	-0.006950951
204	0x3e384081	0.17993356
205	0x3c87154e	0.016489651
206	0x3cf9986b	0.030468186
207	0x3c91be07	0.017790807
208	0x3dbda7df	0.092605345
209	0xbd149d8b	-0.036283057
210	0x3b2af0eb	0.002608354
211	0x3d3afee1	0.045653228
212	0x3dbb2cd5	0.091394104
213	0x3d8d0eae	0.068875656
214	0xbd99c043	-0.07507374
215	0xbca8ea5e	-0.020619567
216	0xbd4af022	-0.049545415
217	0xbbb1827e	-0.005417167
218	0xbd6b5be6	-0.057460688
219	0x3d96c620	0.07362008
220	0xbdb8efad	-0.090300895
221	0x3daca58f	0.08430015
222	0xbd866c59	-0.065636344
223	0x3dbacc8c	0.091210455
224	0xbda74d93	-0.08169093
225	0x3cafa072	0.021438811
226	0x3cc09703	0.023509508
227	0xbc81ed63	-0.015860265
228	0x3cc5681c	0.024097495
229	0xbd9dfe18	-0.0771448
230	0xbcb2408d	-0.021759296
231	0xbdb0740a	-0.08615883
232	0xbc842f6d	-0.016135896
233	0xb9a8296c	-0.0003207432
234	0xbddcd40c	-0.10782632
235	0x3d0d0141	0.034425024
236	0x3da763f3	0.08173361
237	0xbeb95786	-0.36199588
238	0xbc322414	-0.0108728595
239	0x3c080a60	0.008303255
240	0xbe21bad4	-0.15793926
241	0xbd14c649	-0.036321912
242	0x3d798272	0.060915418
243	0xbc8fca1e	-0.017552432
244	0xbe066a35	-0.13126452
245	0x3dfaa2e4	0.122381
246	0x3c97db8c	0.018537305
247	0x3d1c8a96	0.038218103
248	0xbd1c9604	-0.038229004
249	0x3c82f26e	0.01598474
250	0x3d7b2573	0.06131501
251	0x3ccf498f	0.02530363
252	0x3e0f420b	0.13990037
253	0xbc2949f0	-0.0103325695
254	0x3ca370e0	0.019951284
255	0x3d3fa41d	0.04678737

fc1.bias f4 [256]
0	0xbd8dc748	-0.069227755
1	0x3cdba9b6	0.026814323
2	0x3ddad37c	0.10684869
3	0x3dc1d4a4	0.09464386
4	0xbc254aed	-0.0100886645
5	0xbe632541	-0.2218218
6	0xbdf8f6a3	-0.12156417
7	0x3d7ebb8f	0.06219059
8	0xbe481638	-0.19539726
9	0xbda1572e	-0.07877956
10	0x3e507cc3	0.20360093
11	0xbd3c0bb1	-0.045909587
12	0x3d5c9b8d	0.053859282
13	0xbe1bd1ea	-0.15216795
14	0x3ddc721e	0.107639536
15	0x3e98e912	0.2986532
16	0x3e3de0f2	0.18542841
17	0x3c98f8f6	0.018673401
18	0xbe10583f	-0.14096163
19	0xbe0d25ba	-0.13783923
20	0x3e1278ad	0.14303847
21	0xbd778d21	-0.060437325
22	0xbc49ce86	-0.012317305
23	0xbe2db61e	-0.16964003
24	0x3b83f817	0.0040273773
25	0xbc970e12	-0.018439326
26	0x3e2cc6cd	0.16872711
27	0xbdce29fb	-0.10066601
28	0xbe58c64c	-0.21169394
29	0xbe0761f6	-0.13220963
30	0x3de62f3c	0.11239478
31	0xbde4f128	-0.111788094
32	0xbd97cab1	-0.07411707
33	0x3e0b2e77	0.13591944
34	0xbe13da10	-0.14438653
35	0xbd0e29c3	-0.034707796
36	0xbda91944	-0.08256772
37	0x3e87e09e	0.26538557
38	0xbe345056	-0.1760877
39	0x3d210f12	0.039321013
40	0xbcbca998	-0.023030087
41	0xbe1e6150	-0.1546681
42	0x3d8ae435	0.06781808
43	0xbe0ab890	-0.13546968
44	0xbdcb6604	-0.09931567
45	0xbcdac0f3	-0.026703333
46	0xbd2aae0f	-0.0416699
47	0xbded2b2d	-0.11580501
48	0x3eaec5e5	0.34135357
49	0x3e872d53	0.26401767
50	0x3d864080	0.06555271
51	0x3df9ad72	0.12191285
52	0x3caca135	0.021072963
53	0x3d72d150	0.059281647
54	0xbc5b313b	-0.013378437
55	0x3cfd7625	0.030940125
56	0x3dd8ce3d	0.10586212
57	0xbdbe5a6c	-0.0929459
58	0xbe674a2f	-0.22586893
59	0x3e3569e2	0.17716172
60	0xbbae0fd5	-0.005311946
61	0x3d15fccf	0.03661805
62	0xbd5f9a26	-0.054590367
63	0xbe884cdc	-0.2662114
64	0x3c1a12ef	0.009403928
65	0x3d698d9c	0.057019815
66	0xbd9afc49	-0.07567651
67	0x3e45b2bf	0.19306467
68	0xbe4e0dfc	-0.20122522
69	0xbe2c7db5	-0.16844828
70	0xbdecd2ee	-0.11563669
71	0xbe52e9f0	-0.20597053
72	0xbdb3f9ad	-0.08787856
73	0x3c132c23	0.008982691
74	0xbd735bc4	-0.059413686
75	0x3cdb7f2d	0.02679404
76	0x3d8b4989	0.06801135
77	0x3e28cfde	0.16485545
78	0x3e3cf490	0.18452668
79	0xbd0dc886	-0.034615062
80	0xbe2565d2	-0.16152123
81	0xbe554a96	-0.20829234
82	0xbdddfca7	-0.10839205
83	0xbdf11bac	-0.11772856
84	0x3e791c09	0.24327101
85	0xbe8d82e3	-0.2763892
86	0x3bae251d	0.005314483
87	0x3c993075	0.018699864
88	0xbe112eeb	-0.14178054
89	0x3a874197	0.001031923
90	0xbd0c1db1	-0.034208003
91	0x3d4e14b6	0.05031272
92	0xbd1102c1	-0.035403017
93	0x3dd27c1e	0.1027758
94	0xbe8d8119	-0.27637556
95	0xbe8b2b1c	-0.27181327
96	0x3e06ea43	0.13175301
97	0xbdd8e10e	-0.10589801
98	0x3e9355bc	0.28776348
99	0x3cccb84c	0.024990223
100	0x3e3ed276	0.18634972
101	0x3d439bfc	0.04775618
102	0x3b28a7bc	0.0025734743
103	0x3e0630ae	0.13104507
104	0xbdd93d16	-0.10607354
105	0x3e036d5d	0.12834688
106	0x3dcb4470	0.09925163
107	0xbdb387da	-0.08766146
108	0x3e3c39ba	0.18381396
109	0xbd9d00f9	-0.07666201
110	0xbda0b1cd	-0.07846413
111	0xbde47a1d	-0.11156104
112	0x3c3462c0	0.011009872
113	0xbe62d6bc	-0.22152227
114	0x3d8f92a3	0.070103906
115	0x3e452a6b	0.19254462
116	0x3dfac13b	0.12243887
117	0xbde0fb18	-0.10985392
118	0x3c12105d	0.008915034
119	0x3e079c35	0.13243182
120	0xbe2027e0	-0.15640211
121	0x3d01b533	0.031666946
122	0x3e874fe1	0.2642813
123	0x3e927b55	0.2860972
124	0x3e873202	0.2640534
125	0x3d08d103	0.033402454
126	0xbd5a8f3a	-0.053359248
127	0xbdeafcd3	-0.11474004
128	0x3e532c4d	0.20622368
129	0xbd9658fe	-0.07341193
130	0xbe73537e	-0.23762318
131	0x3e9e32ef	0.30898234
132	0xbe1f5823	-0.15560965
133	0x3e239d9a	0.15978089
134	0x3e26d56e	0.16292354
135	0x3df4c43f	0.119514935
136	0x3d097963	0.03356303
137	0xbbe18299	-0.0068820235
138	0x3e2ad3ad	0.1668231
139	0x3d9338e8	0.071885884
140	0xbd01db6c	-0.031703398
141	0xbe3bf7f2	-0.18356302
142	0x3de087af	0.109633796
143	0x3e09b8e2	0.13449433
144	0x3ddfae07	0.10921865
145	0xbcde3cf3	-0.027128672
146	0x3752e139	1.2569414e-05
147	0xbe44ffbe	-0.19238183
148	0x3dd12f87	0.10214143
149	0x3e6ca9ae	0.23111603
150	0x3e1cb08a	0.1530172
151	0x3dcb1b56	0.09917323
152	0x3e6da42f	0.23207162
153	0xbd8ba8b0	-0.06819284
154	0x3e9e7f2a	0.30956393
155	0xbdcb9771	-0.099409945
156	0x3db8156c	0.08988461
157	0x3dfa7ee3	0.12231233
158	0x3c1efe71	0.009704218
159	0x3e0892a5	0.1333719
160	0xbe713993	-0.23557119
161	0x3e1d8ea4	0.15386444
162	0x3d349e1e	0.044096105
163	0x3d8d53c0	0.0690074
164	0xbdb95a27	-0.09050398
165	0x3d6e923c	0.05824493
166	0x3dcb6fa3	0.099334024
167	0x3e249cf0	0.16075492
168	0x3d68b20b	0.05681042
169	0x3e5ebe26	0.21752223
170	0x3e2d5c99	0.16929854
171	0xbe760ec3	-0.24029069
172	0xbe71ab90	-0.23600602
173	0xbe89f62e	-0.26945633
174	0xbe4ae205	-0.19812782
175	0xbe48e63c	-0.19619077
176	0xbdcfc0e6	-0.10144214
177	0x3e13eaa9	0.14444984
178	0xbe4f053a	-0.20216838
179	0x3d320a81	0.04346705
180	0xbe2f5074	-0.17120534
181	0x3e81d6d4	0.25359213
182	0x3dd407f5	0.1035308
183	0x3d5d47ce	0.054023556
184	0x3e0ec993	0.13944082
185	0x3c62fc34	0.013854075
186	0xbda239e1	-0.07921196
187	0xbd2593b1	-0.040424053
188	0x3e00ff50	0.12597394
189	0x3db2ffe2	0.08740212
190	0x3d9e6b90	0.0773536
191	0x3ce5b464	0.028040119
192	0xbdc78083	-0.097413085
193	0xbe2e836e	-0.17042324
194	0x3e2177e0	0.15768385
195	0xbde5d600	-0.11222458
196	0xbe2c298e	-0.16812727
197	0x3e80ea57	0.25178787
198	0x3e6aecb5	0.22941859
199	0x3e13dd2e	0.14439842
200	0xbe0bfe26	-0.13671169
201	0xbd7eef32	-0.062239833
202	0xbd5d5ba9	-0.054042492
203	0xbe31fd3a	-0.17381755
204	0x3e8f0189	0.2793086
205	0x3db4b0af	0.08822762
206	0x3d37f781	0.044913772
207	0x3e0fba51	0.14035918
208	0xbdd81b6c	-0.10552105
209	0xbe1057f2	-0.14096048
210	0x3da9f2bb	0.0829825
211	0x3d90dca7	0.07073336
212	0x3e9cb907	0.30609915
213	0xbd1495b8	-0.036275595
214	0x3c111781	0.008855701
215	0xbd988e51	-0.0744902
216	0x3c946cd5	0.018118301
217	0x3d316eb2	0.043318458
218	0x3da3926a	0.07986911
219	0x3c9ea3e7	0.019365264
220	0xbdc80a21	-0.09767557
221	0x3db3625c	0.08758995
222	0x3e9eb3fe	0.30996698
223	0xbd7a9726	-0.061179303
224	0x3ba3f8f7	0.005004044
225	0xbe9ca7da	-0.3059681
226	0xbd444861	-0.04792059
227	0xbe02ed13	-0.12785749
228	0xbddebc3a	-0.10875745
229	0xbe0ac929	-0.13553299
230	0x3e8d83ab	0.27639517
231	0x3e37ee02	0.17961887
232	0xbe4e7d80	-0.20165062
233	0xbdc7830a	-0.097417906
234	0x3e22dc66	0.15904388
235	0x3e2b5699	0.16732253
236	0xbde4950a	-0.111612394
237	0x3e0bdfa5	0.13659532
238	0x3d79cd3d	0.060986746
239	0x3e0cd17d	0.13751788
240	0xbd8de610	-0.069286466
241	0xbdb0b28d	-0.08627806
242	0x3db1c169	0.08679468
243	0x3dfb5590	0.12272179
244	0xbcf73b9a	-0.030179787
245	0x3ea06147	0.31324217
246	0x3c9af4b1	0.018915506
247	0xbddb27fc	-0.10700986
248	0xbd5b6d2e	-0.05357092
249	0xbd032384	-0.032016292
250	0x3d7dd60b	0.061971705
251	0xbdad7de8	-0.0847128
252	0x3e623364	0.22089916
253	0x3e29234b	0.1651737
254	0xbe99da2b	-0.3004926
255	0x3e536d2c	0.20647115

fc2.weight f4 [128, 256]
0	0xbdb8e936	-0.090288565
1	0xbde5e70e	-0.11225711
2	0xbd3100ba	-0.043213584
3	0xbe356dd9	-0.17717685
4	0x3c9741d4	0.018464006
5	0x3ceb47d4	0.028720774
6	0xbda3be39	-0.079952665
7	0x3d30aa50	0.043131173
8	0x3b41d967	0.0029579045
9	0x3d91b4da	0.07114573
10	0xbd9ff8d7	-0.07811134
11	0xbe0c8913	-0.13724165
12	0xbe3605df	-0.17775677
13	0xbdd230f0	-0.1026324
14	0x3990db6e	0.00027629308
15	0xbbc2e338	-0.0059474967
16	0x3c4ed72b	0.012624542
17	0xbd654b99	-0.0559803
18	0xbc518b3a	-0.012789542
19	0xbd0008ae	-0.031258278
20	0xbcc305b0	-0.023806423
21	0x3d84b563	0.06479909
22	0x3ca0aa4d	0.019612456
23	0x3b389016	0.0028162054
24	0x3a7abda2	0.00095650007
25	0xbf02b058	-0.5105033
26	0xbda20596	-0.07911222
27	0xbdb50b63	-0.088400625
28	0xbd97d533	-0.074137114
29	0xbdad2254	-0.08453813
30	0x3de8d0ed	0.113679744
31	0x3e4b0bac	0.19828671
32	0xbd3123ed	-0.043247152
33	0x3b8f41fb	0.004371879
34	0xbd1d504a	-0.038406648
35	0x3b5f3ea9	0.0034064448
36	0x3c55233e	0.013008891
37	0xbdda21c9	-0.10650975
38	0xbda352de	-0.0797479
39	0x3d896632	0.06708945
40	0xbcfe12b6	-0.031014781
41	0x3cb99f09	0.022658842
42	0xbce2c962	-0.027683917
43	0xbdc78ff8	-0.09744257
44	0x3dfa74cd	0.12229309
45	0x3cec6586	0.028857004
46	0x3e533f51	0.20629622
47	0xbc938876	-0.018009406
48	0xbcddaf70	-0.027061194
49	0xbd8660fd	-0.06561468
50	0xbd74c2e6	-0.059756182
51	0xbdf5f117	-0.12008875
52	0xbd76b97e	-0.060235493
53	0xbe20f95b	-0.15720122
54	0xbe3f97c4	-0.18710238
55	0xbd268b88	-0.04066041
56	0x3d402684	0.04691173
57	0xbc65abb0	-0.014017984
58	0xbd985867	-0.074387364
59	0xbe2e8d68	-0.1704613
60	0xbdc2ff45	-0.09521345
61	0x3cf620c8	0.030044928
62	0x3d275239	0.040849898
63	0xbe2bb678	-0.16768825
64	0xbb145938	-0.0022636186
65	0xbc8027e9	-0.01564403
66	0x3c45571d	0.012044695
67	0x3ce873f6	0.028375607
68	0xbd9087bc	-0.07057139
69	0xbe683539	-0.22676553
70	0x393c256c	0.00017943018
71	0x3d0ce333	0.03439636
72	0xbd5a3ff5	-0.05328365
73	0x3e53ca96	0.20682749
74	0x3cf3888a	0.029728193
75	0xbdb599d0	-0.08867228
76	0x3e8ba613	0.27275142
77	0xbe5465d5	-0.20741971
78	0xbc8866e5	-0.016650626
79	0xbdb64327	-0.08899527
80	0xbd82b14a	-0.063814715
81	0xbe2e3eaf	-0.170161
82	0x3cec9973	0.028881764
83	0x3d7fdbb7	0.062465396
84	0x3d9b17ed	0.07572923
85	0xbd9a58f0	-0.07536495
86	0xbdb79354	-0.089636475
87	0xbc7befd2	-0.015377002
88	0xbdf0d190	-0.11758721
89	0xbb2635ee	-0.0025361734
90	0x3ca186c9	0.01971759
91	0xbd96f799	-0.07371444
92	0xbd823588	-0.063578665
93	0xbd92af2b	-0.07162317
94	0xbdf06794	-0.11738506
95	0xbbbba871	-0.005726867
96	0x3d4ee953	0.050515484
97	0xbcf574ad	-0.029962862
98	0x3db9698c	0.090533346
99	0xbd8039a5	-0.06260995
100	0xb9836790	-0.00025063427
101	0x3d221212	0.039568014
102	0xbd16ae7d	-0.0367875
103	0x3e559f69	0.20861591
104	0x3d4b0e70	0.049574316
105	0xbda36c1b	-0.07979604
106	0xbd66ed7e	-0.056378834
107	0x3d767359	0.060168598
108	0xbd42346d	-0.04741328
109	0x3d501e67	0.050810244
110	0xbd8b3af6	-0.06798355
111	0x3bd15544	0.0063883383
112	0xbd6f5ce0	-0.058438182
113	0x3de86122	0.113466516
114	0xbdf49a01	-0.119434364
115	0xbd86d8f3	-0.065843485
116	0x3d1ea743	0.038733732
117	0x3cc58b60	0.02411431
118	0xbdebd95b	-0.11516067
119	0xbbb9e722	-0.005673305
120	0x3d8e0fb5	0.0693659
121	0x3d9f3f9e	0.07775806
122	0xbe154b60	-0.14579535
123	0xbcf871df	-0.030327735
124	0xbd97c888	-0.07411295
125	0x3e3aa723	0.1822782
126	0x3c56ad42	0.013102831
127	0xbe39ef5d	-0.18157716
128	0xbd481f1d	-0.048857797
129	0x3dd56dac	0.10421309
130	0xbc8caa01	-0.017170908
131	0x3d245efb	0.040129643
132	0xbd841506	-0.064493224
133	0x3d7fcd61	0.062451724
134	0x3dae47e8	0.08509809
135	0xba3cba20	-0.00071993656
136	0x3e339cb6	0.17540249
137	0x3d1d7aeb	0.0384473
138	0x3ca658de	0.020306047
139	0x3d5ed056	0.054397903
140	0xbd8f8d6a	-0.070093945
141	0x3c86f0ff	0.016472338
142	0x3d32ae3b	0.04362319
143	0xbd0b5524	-0.034016743
144	0xbd0774d1	-0.03307039
145	0x3d6509f1	0.055917684
146	0xbd940a93	-0.07228579
147	0xbde69096	-0.11258046
148	0xbd49cd2e	-0.04926794
149	0xbc78c85b	-0.015184487
150	0x3d22aeba	0.039717413
151	0xbe0e69e7	-0.13907586
152	0x3e724561	0.23659278
153	0x3d5e57b4	0.05428286
154	0x3dd94bce	0.10610162
155	0x3cb03f7b	0.021514645
156	0xbd4b89ff	-0.04969215
157	0x3d6ab028	0.057296902
158	0xbb03bc59	-0.0020101278
159	0x3da52074	0.080628306
160	0xbd87bb45	-0.06627516
161	0xbd6ef492	-0.05833871
162	0x3dcb0423	0.099128984
163	0xbc2f9367	-0.010716296
164	0x3d863e92	0.06554903
165	0xbe7e7f0a	-0.24853149
166	0xbe504733	-0.2033966
167	0x3bf9f4e8	0.007628072
168	0xbd33b276	-0.043871365
169	0x3ce86a95	0.028371135
170	0xbccc74c4	-0.024958022
171	0xbcbe90dc	-0.023262434
172	0xbdc3d04e	-0.09561215
173	0xbe4f0dc3	-0.20220093
174	0x3c4a9a1a	0.012365842
175	0xbde0a3e8	-0.10968763
176	0x3c65f528	0.014035501
177	0xbd810bda	-0.06301089
178	0xbd46ea60	-0.04856336
179	0x3e3891b4	0.18024331
180	0x3d77e20a	0.060518302
181	0xbd605f2a	-0.054778256
182	0x3dfabf9f	0.1224358
183	0xbe4451b2	-0.1917179
184	0x3d29b233	0.04142971
185	0xbd83ed89	-0.064417906
186	0x3c9487eb	0.018131217
187	0x3dacfd90	0.08446801
188	0xbd429e3f	-0.047514196
189	0x3e003126	0.12518749
190	0xbd6ce7a0	-0.057838082
191	0xbdf10eb8	-0.117703855
192	0xbdaf6f94	-0.08566204
193	0xbe281ff2	-0.16418436
194	0xbd892bfa	-0.06697841
195	0x3d2c8c00	0.042125702
196	0xbde2f468	-0.11081773
197	0x3a8e768e	0.0010869072
198	0x3da218cc	0.07914886
199	0xbd230bb9	-0.0398061
200	0xbca209ed	-0.019780124
201	0xbd9107ed	-0.0708159
202	0xbda0cde3	-0.0785177
203	0xbcdedeb6	-0.027205806
204	0x3dc71a68	0.097218335
205	0xbd095f86	-0.033538364
206	0xbd9d66d2	-0.07685627
207	0x3dc8b0e3	0.097993635
208	0x3d472547	0.048619535
209	0x3dc99f0d	0.0984479
210	0x3be46d05	0.006971004
211	0x3a690ec5	0.00088904455
212	0xbc1dd95a	-0.00963434
213	0x3d8df5f5	0.06931678
214	0x3da9f583	0.08298781
215	0xbd76aef1	-0.06022543
216	0x3ce23d11	0.02761701
217	0x3d2410ad	0.040054966
218	0xbdd0e424	-0.10199764
219	0xbc18b93d	-0.009321508
220	0x3ceb2f8a	0.028709192
221	0x3dc5c617	0.09656923
222	0x3d649c99	0.055813406
223	0xbd4b19f6	-0.049585305
224	0xbc234ed8	-0.009967528
225	0xbd095519	-0.03352842
226	0xbe08b8b7	-0.13351713
227	0xbb6aa499	-0.0035803674
228	0xbe595cf8	-0.21226871
229	0x3dbfe730	0.093702674
230	0xbd64cd12	-0.055859633
231	0xbd01f3fc	-0.031726822
232	0xbe2dc0e7	-0.16968118
233	0xbcaff411	-0.021478685
234	0xbe124e19	-0.14287604
235	0x3e3aa40b	0.1822664
236	0xbc4456dc	-0.0119835995
237	0xbc4e031f	-0.012573986
238	0xbd12404c	-0.03570585
239	0xbe080a2a	-0.13285127
240	0x3c90ba61	0.017666997
241	0xbdd16451	-0.10224212
242	0x3de0f15f	0.10983538
243	0xbd971211	-0.07376493
244	0x3c3d51c4	0.011555139
245	0x3d1d20d6	0.038361393
246	0xbddb625f	-0.10712122
247	0xbe46e6a1	-0.19423915
248	0x3d97449d	0.07386134
249	0xbd79ab8f	-0.060954627
250	0x3c1e46a5	0.009660398
251	0xbd69cf72	-0.0570826
252	0xbd949d0e	-0.07256518
253	0xbe030f18	-0.12798727
254	0xbdad4311	-0.084600575
255	0xbd9f1359	-0.07767362

fc2.bias f4 [128]
0	0x3d3096c1	0.04311252
1	0x3d4e4cf0	0.050366342
2	0xbdac608a	-0.08416851
3	0xbc975c5b	-0.018476656
4	0xbd8eab40	-0.06966257
5	0x3d4f65ab	0.050634068
6	0x3cd7c808	0.0263405
7	0xbdd67413	-0.10471358
8	0x3d981544	0.07425931
9	0x3dfe617f	0.1242094
10	0x3dbe1b7e	0.092825875
11	0x3e1b9fc3	0.15197663
12	0xbd8a0ca5	-0.06740693
13	0xbdabcecb	-0.08389052
14	0xbd984b75	-0.07436267
15	0x3dc4daf0	0.096120715
16	0x3d58c43c	0.05292152
17	0x3e0a9880	0.13534737
18	0xbd8c2639	-0.06843228
19	0xbdc1d231	-0.09463919
20	0x3d8a5fb1	0.06756533
21	0xbd01e2d5	-0.031710465
22	0xba10502e	-0.0005505112
23	0xbd974579	-0.07386298
24	0x3ce95111	0.028481038
25	0xbd3c2ebc	-0.045943007
26	0xbe10f967	-0.1415764
27	0x3db1e014	0.08685318
28	0x3df6cef0	0.12051189
29	0xbd485ee6	-0.048918627
30	0xbce439b0	-0.027859539
31	0x3da4a8fa	0.08040042
32	0xbdad9541	-0.084757335
33	0xbdb5ea1a	-0.08882542
34	0x3d37e41e	0.044895284
35	0xbd979efc	-0.07403371
36	0xbb0fe96d	-0.00219592
37	0x3e285196	0.16437373
38	0xbd422d15	-0.047406275
39	0x3cd23ce3	0.025663799
40	0xbc6f440e	-0.014603628
41	0x3df0ebd3	0.1176373
42	0x3babb1ba	0.0052396925
43	0xbd5a6efc	-0.0533285
44	0x3da6f50e	0.08152209
45	0x3dd2351e	0.102640375
46	0x3c5f583f	0.013631879
47	0x3e2ad183	0.16681485
48	0x3cf0fbf4	0.029417016
49	0xbda1a583	-0.07892897
50	0xbe0edf37	-0.13952337
51	0x3ddda094	0.108216435
52	0x3d471d53	0.04861195
53	0xbd151128	-0.036393315
54	0x3d8db009	0.06918342
55	0x3cd0a80d	0.025470758
56	0xbd904d0c	-0.070459455
57	0x3c2ad3fb	0.010426517
58	0xbd6aae98	-0.05729541
59	0x3e02666f	0.12734388
60	0x3dacb5a0	0.0843308
61	0x3d9ed63d	0.077557065
62	0x3d37726d	0.04478686
63	0x3d899d34	0.06719437
64	0x3c6eb617	0.014569781
65	0x3db180ae	0.08667122
66	0x3d96db06	0.07365994
67	0xbd40b526	-0.047047757
68	0x3d380514	0.044926718
69	0xbc5bbb73	-0.013411391
70	0xbcc2ab96	-0.02376346
71	0x3b954c58	0.00455622
72	0xbccbdc47	-0.02488531
73	0x3d2aca91	0.04169709
74	0xbd1d0861	-0.03833807
75	0xbc3fa11f	-0.011696129
76	0x3c68e538	0.014214806
77	0x3cd418bf	0.025890706
78	0x3c63d964	0.01390681
79	0xbd8b49bd	-0.06801174
80	0x3d93b77b	0.072127305
81	0xbc8c3c92	-0.017118726
82	0xbd0d45d8	-0.034490436
83	0xbd034679	-0.03204963
84	0xbcd61b9f	-0.026136218
85	0xbd8ad29b	-0.06778451
86	0xbd0ee877	-0.034889665
87	0xbd5c00b6	-0.053711616
88	0xbb2ce21e	-0.0026379894
89	0xbc715c37	-0.014731458
90	0x3e13c996	0.14432368
91	0x3c730ad6	0.014834126
92	0x3d99824b	0.074955545
93	0xbc42818e	-0.011871709
94	0xbce540e6	-0.027985048
95	0xbd37354d	-0.044728566
96	0x3c6f5081	0.014606596
97	0xbc85784c	-0.016292714
98	0x3e09eae1	0.13468505
99	0xbbacf9f5	-0.0052788206
100	0xbbb51ed8	-0.0055273585
101	0xbc8679c4	-0.016415484
102	0xbd835d4a	-0.06414278
103	0x3e0da068	0.13830721
104	0xbdcc1d22	-0.09966494
105	0x3cf63692	0.030055318
106	0xbd2f9f24	-0.042876378
107	0x3d3b3703	0.04570676
108	0x3d5b91d6	0.053605877
109	0x3cf43497	0.029810233
110	0xbdb3ab8e	-0.08772956
111	0x3c9b7692	0.018977437
112	0xbdbe2628	-0.092846215
113	0x3a39f7dd	0.00070941244
114	0x3d8a126f	0.06741797
115	0xbd06b0ff	-0.03288364
116	0xbd5d8c8f	-0.054089125
117	0xbc029467	-0.007969952
118	0x3ce76164	0.028244682
119	0x3dbeb407	0.09311681
120	0x3dbd1aac	0.09233603
121	0xbc23093f	-0.009950935
122	0x3a0e2caf	0.00054235285
123	0xbd4e2ead	-0.050337482
124	0xbd23c5b9	-0.039983485
125	0xbc41d62a	-0.011830846
126	0x3de8ec5c	0.11373207
127	0x3db31b74	0.08745471

fc3.weight f4 [2, 128]
0	0x3e586d2b	0.21135394
1	0xbe72a07e	-0.23694035
2	0xbe85aca0	-0.26108265
3	0xbe9476aa	-0.28996783
4	0xbdcf3f5f	-0.10119509
5	0x3d84e806	0.064895675
6	0x3ec10537	0.3769929
7	0xbdbb854e	-0.09156285
8	0x3ec64dec	0.38731325
9	0x3e28f49e	0.16499564
10	0x3e1c6554	0.15273029
11	0x3d9cfc28	0.076652825
12	0xbe7471ba	-0.23871508
13	0xbe8f631f	-0.2800531
14	0xbe5797d4	-0.21054012
15	0x3e551bdd	0.2081141
16	0x3e152ab8	0.14567077
17	0x3e6ee750	0.23330426
18	0xbe7d7e01	-0.24755098
19	0xbe696e03	-0.22795872
20	0x3dd9e755	0.10639826
21	0xbe8dd741	-0.27703288
22	0xbd7a72e7	-0.061144736
23	0xbe887f1b	-0.26659474
24	0xbe42845f	-0.18995808
25	0xbe8c859f	-0.27445695
26	0xbe8082e3	-0.2509986
27	0x3e001ee9	0.12511791
28	0x3e3945e3	0.18093066
29	0xbe7d1e44	-0.24718577
30	0xbe732bbd	-0.23747154
31	0x3e404aa0	0.18778467
32	0xbe754eb0	-0.23955798
33	0xbc9dbfb0	-0.019256443
34	0x3def3133	0.11679306
35	0xbebb63f7	-0.36599705
36	0xbe623ba7	-0.22093068
37	0x3dd85915	0.10563866
38	0xbe956d22	-0.29184824
39	0x3e3775aa	0.17915979
40	0xbe867ba4	-0.26266205
41	0x3e22cd23	0.15898566
42	0xbe01d3cc	-0.1267845
43	0xbe7e9e88	-0.24865162
44	0x3dd4d591	0.10392297
45	0x3dbf37ea	0.09336837
46	0xbe8c8245	-0.27443138
47	0x3e10e2f9	0.14149083
48	0x3e1d3d92	0.15355518
49	0xbe88b8da	-0.2670353
50	0xbea554e9	-0.32291344
51	0x3e4f4bff	0.20243834
52	0x3e0dfb95	0.13865502
53	0xbdfde31e	-0.12396835
54	0x3e3ab31a	0.18232384
55	0xbe258451	-0.16163756
56	0xbec2d7cc	-0.38055265
57	0xbb944c13	-0.0045256703
58	0xbe3a7cdf	-0.18211697
59	0x3df80e7e	0.12112139
60	0x3dfd7fe2	0.12377907
61	0x3e5e7ba6	0.21726856
62	0x3e203a08	0.15647137
63	0x3dfa7007	0.12228399
64	0xbe3c164b	-0.18367879
65	0x3d5edca6	0.054409645
66	0x3e3117e7	0.17294274
67	0xbe948f4e	-0.29015583
68	0x3e48c540	0.19606495
69	0xbe8fd2eb	-0.28090605
70	0xbe29a599	-0.16567077
71	0x3ea459ad	0.32099667
72	0xbe88f8af	-0.2675223
73	0x3dfffc98	0.1249935
74	0xbe2e74e3	-0.17036776
75	0xbea16aee	-0.31526893
76	0x3defc824	0.11708096
77	0xbe8f7a82	-0.28023154
78	0x3e378c91	0.17924716
79	0xbeb98068	-0.3623078
80	0x3e09ca57	0.13456093
81	0x3cd72f3b	0.026267638
82	0xbe84a511	-0.25907186
83	0x3c08772d	0.008329195
84	0xbea30980	-0.31843185
85	0xbe514b2f	-0.20438837
86	0xbdad6910	-0.08467305
87	0xbe39190e	-0.18075964
88	0xbe32de85	-0.17467697
89	0xbd22b760	-0.03972566
90	0x3dfc9571	0.12333191
91	0xbe8ba7dd	-0.27276507
92	0x3d24a91b	0.040200334
93	0xbb88d2e4	-0.0041755307
94	0xbe909635	-0.282396
95	0xbe59ab28	-0.21256697
96	0xbe32325c	-0.17402023
97	0xbbda5de8	-0.0066640265
98	0x3e18f655	0.14937718
99	0xbe01526a	-0.12629095
100	0xbe6a9cea	-0.2291142
101	0xbd284e47	-0.041090276
102	0xbe7b182f	-0.24520944
103	0x3e0f4d41	0.13994314
104	0xbe7c1012	-0.24615505
105	0x3e0897b4	0.1333912
106	0xbea2740c	-0.31729162
107	0x3dd0ab2a	0.10188897
108	0x3defa3be	0.11701153
109	0xbe09f2ae	-0.13471481
110	0xbe6421ce	-0.2227852
111	0x3e2562da	0.1615099
112	0xbd0573d1	-0.032581154
113	0xbe9a8070	-0.30176115
114	0xbda0b6cd	-0.078473665
115	0xbe971213	-0.29505977
116	0xbd624c61	-0.05524862
117	0xbce6f5f7	-0.028193457
118	0xbe843245	-0.25819603
119	0x3e3a7134	0.18207246
120	0x3dff3227	0.12460738
121	0xbe3c9733	-0.18417053
122	0xbe386257	-0.18006264
123	0xbe2f1e63	-0.17101435
124	0xbe843b4d	-0.25826493
125	0xbea87f6f	-0.32909724
126	0x3e00eb1f	0.12589692
127	0x3da537af	0.080672614
128	0xbd48d7ac	-0.049033806
129	0x3e5c3f05	0.21508415
130	0x3dc6fc92	0.09716143
131	0x3e01d294	0.12677985
132	0xbe091ffa	-0.13391104
133	0xbdad4ffb	-0.08462521
134	0x3eabe3f1	0.33572343
135	0xbd596545	-0.053075094
136	0x3ee97d9d	0.45603648
137	0xbd94adc3	-0.07259705
138	0xbde46289	-0.111516066
139	0x3e0909ce	0.13382646
140	0x3d891bd8	0.06694764
141	0xbd8eb03d	-0.069672085
142	0xbdc681ce	-0.09692727
143	0xbe949bd8	-0.2902515
144	0xbd682c40	-0.056682825
145	0xbeb4515a	-0.35218316
146	0x3beb927a	0.007189092
147	0xbc333e71	-0.01094018
148	0x3e908f2a	0.28234226
149	0x3ce9e9db	0.028553894
150	0xbe928d6b	-0.28623518
151	0xbd67351b	-0.05644713
152	0x3dc98e3c	0.09841582
153	0x3cba117b	0.022713413
154	0xbe3fcb30	-0.18729854
155	0xbd18305f	-0.037155505
156	0xbd9b3eb8	-0.07580322
157	0x3d97248d	0.073800184
158	0x3e0a2300	0.13489914
159	0xbe058c3d	-0.13041778
160	0x3e246634	0.16054612
161	0xbe8bf1aa	-0.27332813
162	0xbddf8bdc	-0.10915348
163	0xbcd64def	-0.026160209
164	0x3ca36a80	0.019948244
165	0x3d8e7216	0.06955354
166	0xbd3b70da	-0.04576192
167	0xbe1f7daa	-0.15575281
168	0x3dde4a82	0.10854055
169	0xbc6cc07c	-0.014450189
170	0xbe49117e	-0.19635579
171	0x3db5cc22	0.08876826
172	0xbd457e75	-0.048216302
173	0x3db807d1	0.08985866
174	0x3edce303	0.43141946
175	0x3da09fa6	0.078429505
176	0x3d6bddc9	0.057584558
177	0x3dc21be2	0.094779745
178	0x3e11b8ca	0.14230648
179	0xbeac11e6	-0.33607405
180	0xbd9f5b78	-0.07781118
181	0x3e8fc038	0.2807634
182	0xbdefbed8	-0.117063224
183	0x3dac68ad	0.08418403
184	0x3d291427	0.041278984
185	0xbe4bddd5	-0.19908841
186	0xbbc76d03	-0.0060859933
187	0xbe06dfcf	-0.13171314
188	0xbd3da8bd	-0.0463035
189	0xbeb1a663	-0.34697255
190	0xbd7832f5	-0.06059547
191	0x3d12af7d	0.03581189
192	0x3dff0390	0.12451851
193	0xbdbf32f4	-0.093358904
194	0xbd828f63	-0.06375005
195	0x3cc9c3d9	0.02462952
196	0xbddd1417	-0.107948475
197	0xbd229a64	-0.03969802
198	0xbd7e7228	-0.062120587
199	0x3ede438d	0.43410912
200	0x3d521279	0.05128715
201	0xbd088365	-0.033328433
202	0x3c183be8	0.0092916265
203	0x3daa2815	0.08308426
204	0xbda608b4	-0.08107129
205	0x3ddc0682	0.10743429
206	0xbe31889d	-0.1733727
207	0xbc974d19	-0.01846938
208	0x3d8bf4ec	0.068338245
209	0x3e8ab6ec	0.27092683
210	0x3d2ddb57	0.042445507
211	0x3e737218	0.23773992
212	0x3e2591cd	0.161689
213	0x3d528cbe	0.051403753
214	0x3e8d8fc8	0.2764876
215	0xbe44cc44	-0.19218546
216	0x3b1c3b48	0.0023839045
217	0xbeb210f1	-0.3477855
218	0x3db55f31	0.08856047
219	0xbc95c9a3	-0.018284624
220	0x3eb1a1a9	0.3469365
221	0x3d0186a9	0.031622563
222	0x3d49d593	0.049275946
223	0x3d9ab8cb	0.07554778
224	0x3dd43a3c	0.1036267
225	0xbcb537be	-0.022121307
226	0xbd0a70ae	-0.033798866
227	0x3e81869d	0.25298014
228	0xbe369892	-0.17831638
229	0xbe6b6a99	-0.22989883
230	0x3e09bf37	0.13451849
231	0x3d829a67	0.06377106
232	0x3dba0cbc	0.0908446
233	0xbccd4838	-0.02505885
234	0xbe07ae38	-0.13250053
235	0xbe1ef8c1	-0.1552458
236	0xbd4531e3	-0.04814328
237	0x3d5141a1	0.05108798
238	0xbd92bbb1	-0.071647055
239	0xbd74d3ff	-0.059772488
240	0xbec55022	-0.385377
241	0xbcb1fb1b	-0.021726182
242	0x3e81f48e	0.25381893
243	0x3d8f76b8	0.07005066
244	0xbae8c249	-0.0017758097
245	0xbeadd136	-0.33948678
246	0xbc9bd06f	-0.019020287
247	0xbe326f6a	-0.17425314
248	0xbd89b167	-0.0672329
249	0x3e258fd4	0.16168147
250	0xbec4ccec	-0.38437593
251	0x3d7a8cf7	0.06116959
252	0x3d722a41	0.059122328
253	0x3db69cc2	0.08916618
254	0xbcde92ba	-0.027169574
255	0x3e2c88b3	0.16849022

fc3.bias f4 [2]
0	0x3d9fad3b	0.07796713
1	0x3d63c25e	0.055605285
