final_ckpt_target_critic_1.pth (torch_old, 185338 bytes, 5 tensors)

fcs1.weight f4 [256, 48]
0.0009631831 8.548537e-05 -0.0005561418 1.9182502e-05 -7.1682385e-05 -0.00095761166 -0.0005561418 1.9182502e-05
0.0012637236 4.06968e-05 -0.0019038741 -0.00033488972 -5.3662185e-05 -0.0010203214 -0.0019038741 -0.00033488972
0.0013766789 1.9509564e-05 -0.00053537375 -0.00022747669 -4.5289835e-07 -0.0011458717 -0.00053537375 -0.00022747669
0.002730528 0.0001726626 -0.00066906196 -0.0001977355 7.1682385e-05 -0.00095761166 -0.00066906196 -0.0001977355
0.0028546723 0.00016015214 -0.00068086013 -6.5819375e-05 5.3662185e-05 -0.0010203214 -0.00068086013 -6.5819375e-05
0.0028612847 0.00013294746 -0.0008651585 -0.00030451096 4.5289835e-07 -0.0011458717 -0.0008651585 -0.00030451096
0.0008543687 -5.370509e-05 -0.00031944725 9.1879374e-05 -0.00045492995 -0.00047955295 -0.00031944725 9.1879374e-05
0.0009022233 -3.8985298e-05 -0.0006150027 0.00016150546 -0.0004901522 -0.00040620423 -0.0006150027 0.00016150546
0.0009718759 6.3729394e-06 -0.0004725604 0.0004596174 -0.0004686738 -0.0003977064 -0.0004725604 0.0004596174
0.0013891186 0.00013484426 0.00013889578 -0.00015625835 0.00045492995 -0.00047955295 0.00013889578 -0.00015625835
0.0013703865 0.00012235575 -0.00064002065 -7.4104304e-05 0.0004901522 -0.00040620423 -0.00064002065 -7.4104304e-05
0.0014007092 0.0001298799 0.00022566256 0.00016735644 0.0004686738 -0.0003977064 0.00022566256 0.00016735644
0.011445501 0.0018316966 0.001303938 0.0071636857 -0.0076843994 -0.010028967 0.001303938 0.0071636857
0.013120435 0.0020622709 -0.006488162 4.3680204e-05 -0.008227461 -0.009928787 -0.006488162 4.3680204e-05
0.014487275 0.002204113 -0.006344511 0.001690462 -0.008962809 -0.009860441 -0.006344511 0.001690462
0.020858064 -0.0002803107 -0.0031043943 -0.00087561575 0.0076843994 -0.010028967 -0.0031043943 -0.00087561575
0.020226484 -0.0006055161 8.464247e-05 -0.0036467616 0.008227461 -0.009928787 8.464247e-05 -0.0036467616
0.020557143 -0.00064614037 -0.0008126255 0.0012134961 0.008962809 -0.009860441 -0.0008126255 0.0012134961
0.0016601817 0.0027726502 -0.0021200634 -2.3780543e-05 -0.002450127 -0.0037260503 -0.0021200634 -2.3780543e-05
0.001203317 0.0023392022 -0.0040374463 -0.0014513246 -0.0020775092 -0.0039351676 -0.0040374463 -0.0014513246
0.001597866 0.0018990804 -0.002719223 -0.0018956742 -0.0017914162 -0.004205476 -0.002719223 -0.0018956742
0.0059339306 -0.00025918926 0.0010361967 -0.002334801 0.002450127 -0.0037260503 0.0010361967 -0.002334801
0.0059963334 -0.0009947105 0.0011123411 -0.003146343 0.0020775092 -0.0039351676 0.0011123411 -0.003146343
0.0060860715 -0.0013058416 -0.00049988896 -0.0015779743 0.0017914162 -0.004205476 -0.00049988896 -0.0015779743
0.0011581182 1.0812286e-05 -0.0008873383 8.81027e-05 -0.0009617034 -0.0009654269 -0.0008873383 8.81027e-05
0.0014570956 1.4486263e-05 -0.0013779606 2.7165606e-05 -0.0009421953 -0.0009291658 -0.0013779606 2.7165606e-05
0.0015946168 1.1831068e-05 -0.00032466126 9.670602e-06 -0.00094726926 -0.00092336896 -0.00032466126 9.670602e-06
0.0025926388 0.00021982958 0.00016707968 0.00018513683 0.0009617034 -0.0009654269 0.00016707968 0.00018513683
0.0027662786 0.00022127056 -0.000663097 -0.00014436926 0.0009421953 -0.0009291658 -0.000663097 -0.00014436926
0.0029563496 0.0002055195 -0.0008094215 -6.046737e-05 0.00094726926 -0.00092336896 -0.0008094215 -6.046737e-05
0.0001414607 -2.207862e-06 -2.3616094e-05 -1.5296946e-06 -9.181807e-05 -0.00011096253 -2.3616094e-05 -1.5296946e-06
0.00017066736 -1.3664893e-06 -0.000119180826 6.8329246e-06 -0.00010339325 -0.000117293246 -0.000119180826 6.8329246e-06
00000000: 207e 7c3a 9c46 b338 0bca 11ba 1cea a037
00000010: 3054 96b8 3b08 7bba 0bca 11ba 1cea a037
00000020: 87a3 a53a dbb1 2a38 6a8b f9ba 2394 afb9
00000030: 5513 61b8 4ebc 85ba 6a8b f9ba 2394 afb9
00000040: ae71 b43a 78a8 a337 5358 0cba cf86 6eb9
00000050: e025 f3b4 1331 96ba 5358 0cba cf86 6eb9
00000060: a8f2 323b c40c 3539 fd63 2fba 3857 4fb9
00000070: 3054 9638 3b08 7bba fd63 2fba 3857 4fb9
00000080: 7415 3b3b 83ee 2739 c07b 32ba 8208 8ab8
00000090: 5513 6138 4ebc 85ba c07b 32ba 8208 8ab8
000000a0: 6484 3b3b d067 0b39 cecb 62ba c5a6 9fb9
000000b0: e025 f334 1331 96ba cecb 62ba c5a6 9fb9
000000c0: b7f7 5f3a 6741 61b8 7c7b a7b9 5daf c038
000000d0: aa83 eeb9 826c fbb9 7c7b a7b9 5daf c038
000000e0: 2e83 6c3a 2584 23b8 2238 21ba cb59 2939
000000f0: 8f7d 00ba cff7 d4b9 2238 21ba cb59 2939
00000100: 7dc5 7e3a 22d7 d536 fcc1 f7b9 cef8 f039
00000110: 55b8 f5b9 4083 d0b9 fcc1 f7b9 cef8 f039
00000120: 1613 b63a fb64 0d39 8da4 1139 48d9 23b9
00000130: aa83 ee39 826c fbb9 8da4 1139 48d9 23b9
00000140: 8a9e b33a 9f4c 0039 0fc7 27ba 7268 9bb8
00000150: 8f7d 003a cff7 d4b9 0fc7 27ba 7268 9bb8
00000160: 0098 b73a 5f30 0839 d59f 6c39 677c 2f39
00000170: 55b8 f539 4083 d0b9 d59f 6c39 677c 2f39
00000180: e985 3b3c 8a15 f03a e6e8 aa3a 5abd ea3b
00000190: 6acd fbbb 8950 24bc e6e8 aa3a 5abd ea3b
000001a0: 18f7 563c 2a27 073b a69a d4bb 4335 3738
000001b0: 79cc 06bc 5aac 22bc a69a d4bb 4335 3738
000001c0: 095c 6d3c e172 103b 9ee5 cfbb 7e92 dd3a
000001d0: bfd8 12bc b08d 21bc 9ee5 cfbb 7e92 dd3a
000001e0: 88de aa3c aaf6 92b9 1873 4bbb 9489 65ba
000001f0: 6acd fb3b 8950 24bc 1873 4bbb 9489 65ba
00000200: 03b2 a53c 7fbb 1eba 1482 b138 82fe 6ebb
00000210: 79cc 063c 5aac 22bc 1482 b138 82fe 6ebb
00000220: 7467 a83c bf61 29ba 6006 55ba 2c0e 9f3a
00000230: bfd8 123c b08d 21bc 6006 55ba 2c0e 9f3a
00000240: 749a d93a 5ab5 353b c3f0 0abb 547c c7b7
00000250: 4f92 20bb c030 74bb c3f0 0abb 547c c7b7
00000260: 9eb8 9d3a 4d4d 193b 8e4c 84bb 5f3a beba
00000270: d226 08bb 94f2 80bb 8e4c 84bb 5f3a beba
00000280: 7c6f d13a 90ea f83a fe34 32bb 4578 f8ba
00000290: f4cd eaba 17ce 89bb fe34 32bb 4578 f8ba
000002a0: 6b71 c23b cbe3 87b9 fed0 873a 7603 19bb
000002b0: 4f92 203b c030 74bb fed0 873a 7603 19bb
000002c0: e47c c43b f260 82ba f9cb 913a e032 4ebb
000002d0: d226 083b 94f2 80bb f9cb 913a e032 4ebb
000002e0: ab6d c73b c628 abba fb0a 03ba 08d4 ceba
000002f0: f4cd ea3a 17ce 89bb fb0a 03ba 08d4 ceba
00000300: 00cc 973a 6a66 3537 449c 68ba c7c3 b838
00000310: d31a 7cba b414 7dba 449c 68ba c7c3 b838
00000320: 04fc be3a 070a 7337 af9c b4ba b2e1 e337
00000330: a8fd 76ba 4393 73ba af9c b4ba b2e1 e337
00000340: 7602 d13a 0d7e 4637 4c37 aab9 eb3e 2237
00000350: 2a52 78ba 3e0e 72ba 4c37 aab9 eb3e 2237
00000360: 43e9 293b 0e82 6639 1c32 2f39 4a21 4239
00000370: d31a 7c3a b414 7dba 1c32 2f39 4a21 4239
00000380: 744a 353b dd04 6839 b0d3 2dba d461 17b9
00000390: a8fd 763a 4393 73ba b0d3 2dba d461 17b9
000003a0: 51bf 413b b880 5739 5b2f 54ba 589e 7db8
000003b0: 2a52 783a 3e0e 72ba 5b2f 54ba 589e 7db8
000003c0: 1155 1439 c82a 14b6 2d1b c6b7 e84f cdb5
000003d0: 738e c0b8 8eb4 e8b8 2d1b c6b7 e84f cdb5
000003e0: 2cf5 3239 3768 b7b5 b8f0 f9b8 6046 e536
000003f0: d4d4 d8b8 55fb f5b8 b8f0 f9b8 6046 e536

fcs1.bias f4 [256]
-0.000259131 -0.00015217821 -0.0028102293 -0.0021252432 -0.00023320381 -2.8798147e-05 -2.774626e-05 -0.00090081646
0.0058503007 -0.00097017153 -0.0009613011 -0.00240334 -0.00020212436 -5.7442237e-05 -1.1712834e-05 -0.00010327923
0.04608597 -0.00015040326 -9.735502e-05 -0.0009791877 -0.0003069183 -0.0003053156 -1.690095e-06 -0.000882129
-0.00022274279 -0.00067488744 -0.0005094561 -3.7561236e-05 -0.016192464 -0.00083876937 -2.2646122e-05 -0.00037017942
-0.00036415207 -6.418878e-05 -0.0013518509 -7.840513e-06 -0.0002424539 -0.0033674487 -0.00040316355 -0.0046456764
-0.00020179045 -0.0011329155 -0.00016541261 -5.7565703e-05 -0.0017174796 -6.1860315e-05 -0.00022622432 -0.00018038371
-0.0041845595 -2.2876555e-05 -0.0005988328 -0.00017289413 -0.0006320688 -3.3061257e-05 -0.0017422911 -0.00014588753
-0.00088431424 -0.001107904 -0.00027687848 -0.00047496616 -0.00015365017 -0.0009721761 -0.00022283544 -0.00053427776
-0.00069194566 -2.6823105e-05 -0.0005999704 -1.9383531e-05 -0.00026868243 -0.00061287533 -0.00034994606 -0.00035701174
-0.0023690527 -0.00043955416 -0.0003119741 -0.0007213712 -0.00032545847 -0.00019299533 -0.000645758 -0.00086006447
-0.00031766598 -0.000121125166 -0.00021601398 -0.0013959657 -0.00043782216 -0.0002185264 -0.00038930378 -0.0006288233
-0.0014184758 -0.00048130602 -0.00012159536 -0.0010132984 -0.00084646244 -0.00015383877 -3.8638602e-05 -0.00060281623
-2.4469762e-06 -0.0009732099 -1.3267175e-05 -0.0011213943 -0.00026829416 -0.0011927652 -0.00019477322 -0.0004358047
-3.012059e-05 -0.0015908559 -0.00044043912 -0.013539419 -1.7412922e-05 -0.00038212637 -4.3871856e-05 -0.0031149474
-0.00042535548 0.020465614 -0.0003497004 -0.00049461017 -6.521653e-05 -0.00028009474 -0.0001644374 -0.0012876292
-0.0010180679 -0.0010258709 -0.0009552014 -0.00050386786 -0.0009999787 -0.00038437653 -2.42666e-05 -0.00020058264
-0.000953931 -6.645844e-05 -0.00046863814 -9.2302624e-05 -0.000107465225 -0.00088517286 -3.7503643e-05 -0.00026996917
-0.0006730995 -0.0015107522 -0.00025254796 -0.0015505324 -2.990268e-05 -0.00020066403 -0.015594657 -0.001091647
-8.87929e-05 -0.00012762693 -0.00065358565 -0.0011869333 -1.7367467e-05 -1.2646592e-05 -6.1140774e-05 -0.0010973662
-0.00031638946 -0.0004937442 -0.00061569735 -0.00013202896 -1.3284184e-05 -0.00010203776 -0.00020875619 -0.001641082
-0.0004091306 -7.800093e-05 -0.00022166375 -0.0007212221 -0.0016875541 -0.0006871868 -0.00039521707 -0.0019133043
-0.00020334308 -3.2129956e-06 -0.000110807385 -0.00013821857 -8.580612e-05 -0.00030459388 0.00076949876 -0.0005569221
-0.0007046711 -0.0006972309 -0.0007425843 -0.00025587922 -0.00042986797 -0.00065533066 -0.00028863674 -0.0007263455
-0.00029317362 -0.0004239818 -7.4200047e-06 -0.001194335 -0.0003103403 -0.00029506398 -0.0017746851 -0.00029313023
-0.00084576337 -0.00024303372 -0.00131974 -0.0014231906 -0.0010726351 -0.00038494525 -0.00017924476 -4.9756e-05
-0.00063953345 -9.509239e-05 -0.0003279323 -0.00066613255 -0.0037013697 -0.0009409962 -0.0014114997 -0.0024548967
-0.0001321412 -8.680149e-05 -0.0020260275 -0.00056674896 -4.681448e-06 -0.00014580433 -3.13393e-05 0.004327287
-2.2808174e-05 -0.0013782816 -0.00013904723 -7.843514e-05 -0.00018012684 -0.0009887833 -7.846255e-05 0.002768973
-0.00013217109 -0.0022599543 0.039336406 -0.0002877095 -0.0009269375 -0.0002464697 -0.0013160896 -0.00011471521
-0.0011451364 -0.001843362 -0.00093636673 -0.0007116882 -0.0011836254 -2.3820941e-05 -0.0016710316 -0.00040769484
-6.866694e-05 -0.00015200801 -0.001947473 -8.528406e-06 -0.001721977 -7.658465e-06 -0.0004761142 -0.00021630013
-0.0007453973 -0.00039978497 -0.0017534028 -0.00024551025 -0.00052286236 -0.00045443792 -0.0011210018 -0.00015843463
00000000: f9db 87b9 0792 1fb9 d32b 38bb aa47 0bbb
00000010: 2c88 74b9 8d93 f1b7 a4c0 e8b7 c524 6cba
00000020: e1b3 bf3b 1c53 7eba d3ff 7bba 5b81 1dbb
00000030: 58f1 53b9 22ee 70b8 3d82 44b7 9d97 d8b8
00000040: a4c4 3c3d 91b5 1db9 142b ccb8 1658 80ba
00000050: e0e9 a0b9 c412 a0b9 39d7 e2b5 ad3e 67ba
00000060: 1090 69b9 eeea 30ba 058d 05ba 128b 1db8
00000070: 0fa6 84bc dce0 5bba 2df8 bdb7 a414 c2b9
00000080: aaeb beb9 179d 86b8 9730 b1ba bf8a 03b7
00000090: 393b 7eb9 6ab0 5cbb b25f d3b9 c23a 98bb
000000a0: b697 53b9 567e 94ba 9c72 2db9 b472 71b8
000000b0: 0d1d e1ba 01bb 81b8 a136 6db9 6225 3db9
000000c0: a11e 89bb 07e7 bfb7 fdfa 1cba ea4a 35b9
000000d0: 6bb1 25ba 41ab 0ab8 975d e4ba 63f9 18b9
000000e0: 53d1 67ba 1737 91ba 002a 91b9 e104 f9b9
000000f0: 271d 21b9 a2d9 7eba efa8 69b9 c60e 0cba
00000100: b063 35ba 2e02 e1b7 5547 1dba d199 a2b7
00000110: f2dd 8cb9 5ea9 20ba f778 b7b9 4e2d bbb9
00000120: 1c42 1bbb f673 e6b9 7490 a3b9 671a 3dba
00000130: 4ca2 aab9 ca5e 4ab9 1648 29ba f375 61ba
00000140: 688c a6b9 9404 feb8 d081 62b9 d6f8 b6ba
00000150: 7f8b e5b9 3c24 65b9 781b ccb9 9ed7 24ba
00000160: 26ec b9ba cd57 fcb9 0301 ffb8 a7d0 84ba
00000170: 22e5 5dba c84f 21b9 e20f 22b8 5006 1eba
00000180: bb36 24b6 031f 7fba 1596 5eb7 c0fb 92ba
00000190: d5a9 8cb9 8f56 9cba 0a3c 4cb9 b77c e4b9
000001a0: 79ab fcb7 4484 d0ba bdea e6b9 70d4 5dbc
000001b0: f711 92b7 2258 c8b9 0c03 38b8 2524 4cbb
000001c0: 3f02 dfb9 81a7 a73c fe57 b7b9 baa8 01ba
000001d0: dcc4 88b8 aed9 92b9 d46c 2cb9 abc5 a8ba
000001e0: b170 85ba 8476 86ba 7b66 7aba 0016 04ba
000001f0: b811 83ba 2586 c9b9 2090 cbb7 7e53 52b9
00000200: 3a11 7aba 9a5f 8bb8 8cb3 f5b9 9892 c1b8
00000210: f45e e1b8 f20a 68ba 3b4d 1db8 a68a 8db9
00000220: f172 30ba 6f04 c6ba 6a68 84b9 3c3b cbba
00000230: 84d7 fab7 5769 52b9 bb80 7fbc 9815 8fba
00000240: 5336 bab8 98d3 05b9 6455 2bba df92 9bba
00000250: 5ab0 91b7 b32c 54b7 b438 80b8 80d5 8fba
00000260: 13e1 a5b9 9d6e 01ba c066 21ba 4171 0ab9
00000270: 23df 5eb7 1bfd d5b8 90e5 5ab9 9319 d7ba
00000280: 9480 d6b9 6e94 a3b8 696e 68b9 6510 3dba
00000290: eb30 ddba 5324 34ba 2335 cfb9 d7c7 faba
000002a0: 7e38 55b9 d89e 57b6 4361 e8b8 c4ee 10b9
000002b0: cff2 b3b8 e6b1 9fb9 30b8 493a 69fe 11ba
000002c0: adb9 38ba 60c6 36ba fda9 42ba 8727 86b9
000002d0: e75f e1b9 7fca 2bba 2b54 97b9 3968 3eba
000002e0: 19b5 99b9 e049 deb9 5bf9 f8b6 3c8b 9cba
000002f0: 2cb5 a2b9 d1b2 9ab9 8d9c e8ba 46af 99b9
00000300: 38b6 5dba ded6 7eb9 20fb acba 5a8a baba
00000310: a997 8cba 7ad2 c9b9 a6f3 3bb9 19b1 50b8
00000320: 5da6 27ba 576c c7b8 54ee abb9 669f 2eba
00000330: ae92 72bb 30ad 76ba 1202 b9ba 55e2 20bb
00000340: 628f 0ab9 3209 b6b8 1ac7 04bb e191 14ba
00000350: 5515 9db6 0de3 18b9 5172 03b8 eacb 8d3b
00000360: 2e54 bfb7 75a7 b4ba 35cd 11b9 8c7d a4b8
00000370: 6ee0 3cb9 109a 81ba 438c a4b8 a877 353b
00000380: 6897 0ab9 be1b 14bb 361f 213d b7d7 96b9
00000390: b9fd 72ba 9a38 81b9 a480 acba 4293 f0b8
000003a0: 6718 96ba f79c f1ba 8276 75ba 9690 3aba
000003b0: e123 9bba 15d3 c7b7 8406 dbba e0bf d5b9
000003c0: 4801 90b8 5764 1fb9 5a42 ffba 3a15 0fb7
000003d0: f6b3 e1ba db7c 00b7 f79e f9b9 a0ce 62b9
000003e0: c466 43ba 3b9a d1b9 6fd2 e5ba d4b7 80b9
000003f0: b310 09ba a041 eeb9 94ee 92ba 7921 26b9

fc2.weight f4 [128, 260]
-0.0011923301 1.7790791e-05 -0.005132203 -0.0005732314 -0.0006800608 -6.826376e-05 -4.4706856e-05 -0.0010572714
-0.075114906 0.0011675813 -0.0075756535 -0.00560874 -0.0001769531 1.6333537e-05 -1.0630793e-05 -1.8726687e-05
-0.005383311 0.000476548 0.000669337 0.002351981 0.0011821511 0.00035430747 3.90508e-06 -0.0034813536
-0.0041207112 -0.0007395639 -0.0012232192 0.00020196983 0.040834434 0.00051594316 -0.000103644 4.2991807e-05
0.0013353608 0.00020349634 -0.00421403 1.7069847e-06 0.00037379062 0.00033408566 -0.0012637107 -0.032548074
0.00030563705 0.0012477033 -0.0015035 5.5393098e-06 -0.003663311 -5.7860684e-06 0.00024432794 -0.0012276346
-0.0091021145 5.902119e-06 -0.0017060847 -0.0061964393 -0.00097035157 7.7836274e-05 -0.002630525 0.00014155929
-0.0010411654 -0.0063913483 0.00036662296 -0.00048406568 0.00023024241 0.0012807162 0.0005695086 0.0010855274
-0.00014794519 2.9673734e-05 -0.0030178162 6.79955e-05 0.00010725017 -0.0006979776 -0.00017345972 -0.00010390201
0.011623519 0.00014793589 0.0007744705 0.0008487591 -0.00094018626 -6.367939e-05 0.00040460372 0.00017393439
-0.00017004448 0.00044882507 -0.0003034932 -0.011087164 7.328963e-05 -0.0010486463 -0.0009924041 0.000105740466
-0.0045162397 -0.00014156793 0.00019316064 0.0010523386 -0.0038104083 -5.5461103e-05 -0.0013973586 -0.0019021733
-2.8579088e-06 -0.0007333136 -1.9635025e-05 0.007505049 -0.0018826385 -0.0002887809 -0.026698304 0.00010031091
-3.0802104e-05 0.0030512193 0.004165309 -0.08707597 -1.1457789e-05 0.0007000613 9.727987e-07 -0.008269942
0.00033265344 -0.015804252 -0.00023234858 0.0013067995 -7.9304555e-05 -0.00015284642 0.00010707462 0.0024164245
-0.0006326595 0.00035313514 0.006734241 -0.0014626367 -0.0035112246 -0.00020955336 -1.2870167e-05 -2.7799904e-06
-0.0001574194 -0.00014385993 6.380643e-05 -7.815334e-05 0.001785189 0.005426991 6.697788e-05 -3.4174823e-06
-0.0018387486 -0.0030887942 0.000179449 -0.0015559014 -5.664778e-05 -0.00057742116 -0.1099412 -0.0045193564
-0.00026653302 -5.386831e-05 -0.0046123513 0.00059702183 -1.8374201e-05 -2.214289e-05 -0.0001563385 0.00018138622
0.00034529032 0.00020723675 -0.00047496246 -5.849222e-05 -2.3117593e-05 -6.988565e-05 0.00079225627 -0.002231984
0.0011017965 -0.00041266097 0.00011777729 0.0008154096 -0.008040938 -0.0025403337 -0.002639163 -0.0007060699
0.00029252222 -1.9282877e-06 0.00035598897 0.00042569902 -0.00011387046 0.00089325296 0.0029533352 -0.00165479
-0.0006052367 0.004344651 -0.0011000319 0.00024081557 -2.5361838e-05 -0.0012487866 0.0003917932 0.01492982
2.8153067e-05 0.00017402545 2.6223113e-06 0.0016507374 -0.0011556 0.00044339677 -0.00784375 -0.0005638463
-0.025824815 0.0017677858 -0.00028071203 -0.031416353 -0.005887516 -0.00027876097 1.3168468e-05 0.000112628026
-0.00010740896 0.00014656411 -3.9210157e-05 -0.00023887215 -0.0047965893 -0.0040769023 -0.03567936 -0.0072792317
0.00030355406 -5.9315666e-05 0.0008054971 0.00048420185 -5.2273895e-06 -9.3164024e-05 -2.6598422e-05 -0.016029598
2.3019873e-06 -6.5730266e-05 -0.0002097269 -0.00030033244 -0.0005070449 0.0026298894 2.4761743e-05 -0.04451667
-5.826293e-05 0.0010085361 0.085282065 -0.00015194881 -0.0021093872 -0.00046454987 0.0015680738 7.735161e-05
0.013046022 -0.0037674732 -0.0077168033 0.0023772134 0.0014927742 -5.985776e-05 0.008157048 -0.005132169
9.8254124e-05 -6.7850924e-05 0.0025555657 1.1612043e-06 0.0010775607 -2.2009663e-05 8.137258e-05 0.0015722791
-0.013022875 -0.0062774266 0.0038651705 -0.0021160434 -0.0012925031 0.0010499782 -0.0006372249 0.00022099154
00000000: f647 9cba 6f3d 9537 0a2c a8bb e844 16ba
00000010: 1c46 32ba d428 8fb8 9f83 3bb8 2494 8aba
00000020: d8d5 99bd 8709 993a 303d f8bb 85c9 b7bb
00000030: 7c8c 39b9 0104 8937 e95a 32b7 4117 9db7
00000040: 7c66 b0bb 31d9 f939 7276 2f3a b123 1a3b
00000050: 69f2 9a3a 58c2 b939 6208 8336 6c27 64bb
00000060: 0807 87bb 4bdf 41ba 6d54 a0ba ddc7 5339
00000070: 0242 273d 5c40 073a 735b d9b8 1a52 3438
00000080: 4607 af3a a261 5539 d915 8abb 8c1b e535
00000090: 54f9 c339 3828 af39 18a3 a5ba 2151 05bd
000000a0: e93d a039 fa89 a33a 1711 c5ba 4fde b936
000000b0: 2914 70bb f325 c2b6 2419 8039 95e8 a0ba
000000c0: 0921 15bc d10a c636 b49e dfba 800b cbbb
000000d0: 315f 7eba 083c a338 e364 2cbb 886f 1439
000000e0: b777 88ba 846e d1bb 4d37 c039 32ca fdb9
000000f0: 3a6d 7139 b4dd a73a 134b 153a 4148 8e3a
00000100: bc21 1bb9 dceb f837 8ec6 45bb ce98 8e38
00000110: 7feb e038 7cf8 36ba bde2 35b9 f8e5 d9b8
00000120: 9270 3e3c 3d1f 1b39 d605 4b3a 427f 5e3a
00000130: d576 76ba 9d8b 85b8 fe20 d439 2862 3639
00000140: f84d 32b9 4850 eb39 2b1e 9fb9 f0a6 35bc
00000150: 12b3 9938 bb72 89ba 8e13 82ba fbc0 dd38
00000160: f7fc 93bb da71 14b9 2a8b 4a39 a0ee 893a
00000170: 0bb8 79bb e89e 68b8 9327 b7ba 5852 f9ba
00000180: 80ca 3fb6 d83b 40ba e5b5 a4b7 eaec f53b
00000190: dec2 f6ba 8467 97b9 67b6 dabc 025e d238
000001a0: 8231 01b8 f7f6 473b 257d 883b e354 b2bd
000001b0: d43a 40b7 5284 373a 1c91 8235 a77e 07bc
000001c0: fd67 ae39 eb77 81bc 99a2 73b9 ea48 ab3a
000001d0: 4f50 a6b8 6645 20b9 408d e038 e05c 1e3b
000001e0: 0fd9 25ba ff24 b939 e8aa dc3b f2b5 bfba
000001f0: 931c 66bb 8dbb 5bb9 f2ec 57b7 df8f 3ab6
00000200: f310 25b9 1bd9 16b9 d1cf 8538 41e6 a3b8
00000210: 01fd e93a e6d4 b13b 7a76 8c38 e657 65b6
00000220: 2a02 f1ba 5e6d 4abb 792a 3c39 63ef cbba
00000230: 1799 6db8 145e 17ba da28 e1bd 1c17 94bb
00000240: 75bd 8bb9 a8f0 61b8 3523 97bb 7581 1c3a
00000250: 4c22 9ab7 7fbf b9b7 ccee 23b9 7e32 3e39
00000260: 1508 b539 b14d 5939 6204 f9b9 8b55 75b8
00000270: a7ec c1b7 938f 92b8 6baf 4f3a 7a46 12bb
00000280: 286a 903a 6b5a d8b9 33ff f638 36c1 553a
00000290: 23be 03bc ba7b 26bb cff5 2cbb 8d17 39ba
000002a0: ab5d 9939 bb67 01b6 08a4 ba39 5b30 df39
000002b0: bdcd eeb8 3129 6a3a be8c 413b 8ae5 d8ba
000002c0: bfa8 1eba 935d 8e3b f22e 90ba 7083 7c39
000002d0: 22c0 d4b7 53ae a3ba 9869 cd39 349c 743c
000002e0: 402a ec37 9a7a 3639 f7fa 2f36 8e5d d83a
000002f0: 8077 97ba b577 e839 1283 00bc 16cf 13ba
00000300: 908e d3bc 0cb5 e73a 882c 93b9 6fae 00bd
00000310: 10ec c0bb aa26 92b9 24ee 5c37 b632 ec38
00000320: bf40 e1b8 01af 1939 9675 24b8 c179 7ab9
00000330: b52c 9dbb 8997 85bb 8524 12bd 9f86 eebb
00000340: 5626 9f39 b6c9 78b8 ff27 533a 79dc fd39
00000350: ef66 afb6 0e61 c3b8 ad1f dfb7 8150 83bc
00000360: d77b 1a36 abd8 89b8 23ea 5bb9 f075 9db9
00000370: 35eb 04ba 395a 2c3b 70b7 cf37 1d57 36bd
00000380: 585f 74b8 db30 843a 5da8 ae3d 7354 1fb9
00000390: a53d 0abb d48e f3b9 d387 cd3a d437 a238
000003a0: fbbe 553c b6e7 76bb 3ddd fcbb 06cb 1b3b
000003b0: 31a9 c33a c80f 7bb8 24a5 053c c12b a8bb
000003c0: c80d ce38 304b 8eb8 477b 273b adda 9b35
000003d0: f03c 8d3a 64a1 b8b7 92a6 aa38 ef14 ce3a
000003e0: e65d 55bc dfb2 cdbb cd4e 7d3b 51ad 0abb
000003f0: 3569 a9ba 6c9f 893a 700b 27ba f7b9 6739

fc2.bias f4 [128]
-0.03874626 -0.0014396522 -1.3505636e-05 -6.183597e-08 -4.8093377e-11 -2.8119268e-06 -1.00112025e-07 -4.1603987e-05
-2.4723385e-11 0.017477872 -3.2332887e-06 -0.00034666006 -0.0018509609 -1.4053908e-09 -1.8599447e-05 -1.0576288e-07
-0.0006662493 -7.793683e-08 -0.00014242982 0.039374724 -2.0359221e-10 -1.2649892e-16 -2.2257183e-05 -0.00042706268
-7.354481e-08 -0.0025293196 -8.530394e-12 -4.8774295e-05 0.0014726339 -4.831316e-06 -1.2819359e-09 -1.4370136e-16
-4.5230888e-07 -2.4699156e-07 -0.052132297 -1.3724483e-05 -0.0027500438 -0.006016615 -1.4450237e-08 -3.8386492e-11
-0.00033413852 -2.8626616e-06 -0.036619283 -0.02322924 -2.1591449e-11 -8.3880163e-13 0.0017749342 -1.0707967e-10
-1.7294877e-13 -4.985959e-10 -0.0020727636 -2.0282137e-05 -4.9914324e-05 -1.202472e-10 -0.00030511327 0.015114261
-1.907663e-14 -1.5953761e-05 -1.1308283e-09 -0.0016207853 -0.0033661565 -0.06074446 -0.008575113 -5.522327e-15
0.100002244 -0.0035695483 -6.413346e-06 -2.6008658e-07 -0.00013141922 -0.0033460076 -1.8556169e-11 -0.0008653681
-3.005477e-11 0.14271396 -7.654806e-05 0.0040223994 -0.0032914057 -4.8753823e-06 -6.2889505e-10 -3.519771e-09
-3.57513e-05 -1.4404131e-06 -0.0003857143 0.0010160427 -4.3480542e-11 -6.110815e-08 -0.00041773543 -3.647135e-07
-1.4680467e-11 -0.0004845067 -9.789614e-05 -2.855067e-10 -1.5322674e-06 -7.149856e-13 -1.3646626e-05 -8.808825e-10
-0.00022148635 -0.00064842094 -0.015309831 -7.08925e-07 -0.00014744491 -0.0006635406 -3.8692878e-07 -7.0151276e-05
-4.7260193e-16 -4.0135686e-07 -7.844466e-08 -1.7688524e-08 0.0142793525 -0.0029892488 -0.006737168 -3.4700002e-05
-2.1042408e-10 -0.0008985821 -1.0665325e-10 -5.68938e-06 -0.0039396645 -1.1949192e-11 -9.822543e-14 -5.2918673e-05
-6.771087e-14 -0.00013530317 -1.7622273e-08 -0.0034045284 -1.8290622e-08 -0.001397649 -0.00014857098 -0.0016382206
00000000: 66b4 1ebd b6b2 bcba 4496 62b7 afca 84b3
00000010: 5484 53ae 89b4 3cb6 2bfd d6b3 f17f 2eb8
00000020: 1d78 d9ad c12d 8f3c 7afb 58b6 edbf b5b9
00000030: f19b f2ba cb27 c1b0 0206 9cb7 c21f e3b3
00000040: 3ca7 2eba 3a5e a7b3 3759 15b9 6447 213d
00000050: 1dda 5faf e4d7 11a5 f0b4 bab7 62e7 dfb9
00000060: b0ef 9db3 f1c2 25bb 7b11 16ad 0093 4cb8
00000070: 6505 c13a b01c a2b6 1c30 b0b0 28ad 25a5
00000080: dcd4 f2b4 439a 84b4 ad88 55bd 3542 66b7
00000090: 143a 34bb 0627 c5bb d040 78b2 59d3 28ae
000000a0: 502f afb9 271c 40b6 1afe 15bd 3f4b bebc
000000b0: 9feb bdad 071a 6cab e9a4 e83a 7f78 ebae
000000c0: 17b9 42aa 910d 09b0 34d7 07bb 8f23 aab7
000000d0: 195b 51b8 9436 04af 9cf7 9fb9 cea1 773c
000000e0: b7d3 aba8 71d4 85b7 7c6b 9bb0 8870 d4ba
000000f0: bc9a 5cbb 2fcf 78bd a17e 0cbc 7af6 c6a7
00000100: facd cc3d 15ef 69bb 3932 d7b6 07a2 8bb4
00000110: 94cd 09b9 b148 5bbb c738 a3ad dfd9 62ba
00000120: aa2e 04ae 9c23 123e 6d88 a0b8 55ce 833b
00000130: a0b4 57bb 3797 a3b6 8ede 2cb0 77e0 71b1
00000140: abf3 15b8 3854 c1b5 b239 cab9 bc2c 853a
00000150: bd3a 3fae 903a 83b3 8003 dbb9 d7cd c3b4
00000160: 7921 81ad 6305 feb9 974d cdb8 7ff5 9caf
00000170: 4fa8 cdb5 2440 49ab d0f3 64b7 9822 72b0
00000180: ca3e 68b9 cbfa 29ba 16d6 7abc f44c 3eb5
00000190: 719b 1ab9 75f1 2dba 16bb cfb4 2e1e 93b8
000001a0: de37 08a6 117a d7b4 6875 a8b3 7af1 97b2
000001b0: f2f3 693c 46e7 43bb 76c3 dcbb d88a 11b8
000001c0: 1d5d 67af d38e 6bba 7188 eaae 67e7 beb6
000001d0: 4d18 81bb 6036 52ad 1b2f dda9 fef4 5db8
000001e0: a978 98a9 2be0 0db9 ca5f 97b2 821e 5fbb
000001f0: 811d 9db2 5131 b7ba b8c9 1bb9 90b9 d6ba

fc3.weight f4 [1, 128]
0.19279203 -1.4487503e-05 -7.212677e-07 4.5573247e-09 -1.9782067e-12 1.0553927e-06 -2.325312e-08 8.829029e-06
-1.2297702e-12 0.05079838 2.0691637e-06 0.00016290543 -0.0007018789 2.4737679e-11 -4.5948477e-06 1.45818735e-08
0.00027609893 2.7676242e-08 1.7686307e-05 0.13733906 3.531505e-05 4.139919e-18 5.6529107e-06 0.00014280247
5.9486258e-08 -0.0021501544 7.630452e-12 -8.751027e-06 0.07364391 2.2858276e-06 1.8707826e-05 -6.961319e-17
2.444354e-08 3.0847494e-07 -0.07603637 -3.564285e-06 -0.0047108238 -0.0017308216 -2.9102398e-09 2.7445437e-12
0.00020191025 1.4444438e-06 -0.10956864 -0.038698234 3.9461057e-07 1.2638955e-06 0.07611924 -6.9308205e-11
4.6688168e-14 -1.1834653e-10 -0.0070680156 -3.355361e-06 -9.443571e-05 -4.4261938e-11 0.00034278093 -0.14455019
2.4115135e-12 -5.961354e-06 5.9909305e-10 -0.00075067056 0.0017272248 -0.11434721 0.009301737 4.9291674e-16
0.30262226 0.0017618662 -3.1956986e-06 -3.6863415e-08 2.7967944e-05 -0.0051357676 -2.4006493e-11 -0.0013790968
1.0394565e-11 0.307341 -2.5016454e-05 0.09106168 0.0028778922 -9.8831815e-06 1.5809795e-10 1.512642e-09
-5.264927e-07 -5.9849737e-07 -0.00018704434 0.115319885 -8.311344e-13 5.165499e-08 0.0008659043 -4.8701247e-07
4.2035554e-06 4.9505497e-06 9.756413e-05 2.5531116e-10 -1.967724e-07 -8.5990595e-14 -0.0011446314 5.562756e-10
0.00015318004 -0.0006986642 -0.057533946 1.4637948e-07 -3.47736e-05 -0.00027366643 5.4221084e-07 -3.3857053e-05
-6.720358e-16 -9.4746696e-08 4.8302926e-08 1.8145307e-08 0.091128804 0.00061675714 0.111033216 2.3080262e-05
3.152106e-11 -0.0011218407 5.0599125e-10 -0.00095749943 -0.0012990587 -5.588368e-12 1.421021e-13 -6.4576493e-06
-7.022865e-14 -9.215462e-05 1.2589785e-08 0.00011729251 -1.2019092e-08 -0.0016356377 0.00020124797 0.05346224
00000000: 466b 453e 5a0f 73b7 249d 41b5 a796 9c31
00000010: 3434 0bac 04a7 8d35 27be c7b2 6420 1437
00000020: 2413 adab f611 503d f6db 0a36 98d1 2a39
00000030: 4cfe 37ba 4d98 d92d 712d 9ab6 c283 7a32
00000040: 5fc1 9039 b3bc ed32 0e5d 9437 9ca2 0c3e
00000050: 3f1f 1438 6ebc 9822 22ae bd36 3fbd 1539
00000060: d57d 7f33 9be9 0cbb 803c 062d 60d1 12b7
00000070: 9ed2 963d 3866 1936 c0ee 9c37 6084 a0a4
00000080: eaf7 d132 799c a534 f5b8 9bbd f331 6fb6
00000090: 415d 9abb bcdc e2ba 7bfd 47b1 4e21 412c
000000a0: dfb7 5339 b6de c135 8665 e0bd 0a82 1ebd
000000b0: ddda d334 1ea3 a935 67e4 9b3d 0d69 98ae
000000c0: cb43 5229 961f 02af d09a e7bb aa2c 61b6
000000d0: c90b c6b8 83aa 42ae 47b7 b339 f704 14be
000000e0: f7b1 292c a407 c8b6 6dad 2430 a6c8 44ba
000000f0: 0c64 e23a df2e eabd 5066 183c d612 0e26
00000100: 4ef1 9a3e 6bee e63a af75 56b6 c153 1eb3
00000110: b49c ea37 f149 a8bb d129 d3ad cfc2 b4ba
00000120: f6dc 362d cd5b 9d3e 6dda d1b7 8c7e ba3d
00000130: 059b 3c3b f1cf 25b7 9ed4 2d2f 5ce5 cf30
00000140: 4e54 0db5 6da8 20b5 5521 44b9 d52c ec3d
00000150: 8cf1 69ab 43db 5d33 dbfd 623a 3ebb 02b5
00000160: 440c 8d36 e61c a636 589b cc38 da5b 8c2f
00000170: 6348 53b4 34a2 c1a9 7507 96ba 6ae8 1830
00000180: f49e 2039 9026 37ba b7a8 6bbd 7c2c 1d34
00000190: ded9 11b8 e37a 8fb9 728c 1135 bc01 0eb8
000001a0: 7db3 41a6 8c77 cbb3 a175 4f33 f4dd 9b32
000001b0: bda1 ba3d dfad 213a 6265 e33d 7c9c c137
000001c0: 8fa1 0a2e ba0a 93ba f815 0b30 b300 7bba
000001d0: 2d45 aaba 8b9f c4ac 24fe 1f2a c9ae d8b6
000001e0: 0f24 9ea9 2343 c1b8 764a 5832 f0fa f538
000001f0: 877c 4eb2 e562 d6ba 1706 5339 39fb 5a3d
