final_ckpt_critic_1.pth (torch_old, 185338 bytes, 5 tensors)

fcs1.weight f4 [256, 48]
00000000: 95e3 8a3a 03f9 1ab9 2aa3 d238 5edb e1b9
00000010: d8d6 8eb9 9426 4eba 2aa3 d238 5edb e1b9
00000020: d357 b83a 1e05 66b9 b79d 03ba a660 d5b9
00000030: 8cf5 b8b9 b8c3 37ba b79d 03ba a660 d5b9
00000040: a643 e23a 68cc 6db9 aed8 2939 a9a5 3738
00000050: f236 e2b9 208e 45ba aed8 2939 a9a5 3738
00000060: 6f46 e93a b176 05b8 c213 1fb9 fb96 b0b9
00000070: d8d6 8e39 9426 4eba c213 1fb9 fb96 b0b9
00000080: cc73 e63a 60ca d2b8 7296 55ba bb81 beb9
00000090: 8cf5 b839 b8c3 37ba 7296 55ba bb81 beb9
000000a0: b43b f23a 34bd 64b8 a52f f3b9 2053 9fb8
000000b0: f236 e239 208e 45ba a52f f3b9 2053 9fb8
000000c0: 1646 1a3a 70ed 87b8 369f 46b9 19b5 c338
000000d0: 1faa c4b9 0691 97b9 369f 46b9 19b5 c338
000000e0: 8a1c 323a a0b7 bbb7 81e2 bcb9 ea74 6539
000000f0: 56f2 ceb9 6879 60b9 81e2 bcb9 ea74 6539
00000100: 4f11 243a 6b20 0b38 3ccd adb9 80ce 233a
00000110: 33a1 c3b9 934c 3ab9 3ccd adb9 80ce 233a
00000120: 3a73 7f3a 68cf b3b8 f457 7038 40e7 a6b8
00000130: 1faa c439 0691 97b9 f457 7038 40e7 a6b8
00000140: a699 893a 978e b3b8 7136 d8b9 f391 7c38
00000150: 56f2 ce39 6879 60b9 7136 d8b9 f391 7c38
00000160: 33a9 853a eab5 99b8 41cd fb38 3285 7239
00000170: 33a1 c339 934c 3ab9 41cd fb38 3285 7239
00000180: 6d51 d93b 93c8 d43a 2e9c eb3b ddf6 183c
00000190: d4ff 29bc 92dc c4bb 2e9c eb3b ddf6 183c
000001a0: db9b 473c c707 d13a c8c1 a0bb 3c6d cd3a
000001b0: 15cb 3bbc ae6d 99bb c8c1 a0bb 3c6d cd3a
000001c0: aa93 683c d060 e23a bf9e febb de4a 3c3b
000001d0: 263e 45bc 099e 81bb bf9e febb de4a 3c3b
000001e0: 30c1 c83c f775 25bb b7ae 24bb a2b5 2cbb
000001f0: d4ff 293c 92dc c4bb b7ae 24bb a2b5 2cbb
00000200: a336 c73c c030 35bb bbf5 9339 5ef4 1cbb
00000210: 15cb 3b3c ae6d 99bb bbf5 9339 5ef4 1cbb
00000220: 5e73 bd3c 9c09 a0ba a429 b7bb 82e3 b73b
00000230: 263e 453c 099e 81bb a429 b7bb 82e3 b73b
00000240: 221e d43b 36b0 b83b 8013 0abc 7423 8fbb
00000250: 72b2 7fbb 0d1d 6cbc 8013 0abc 7423 8fbb
00000260: cd87 de3b d67f 463b 95c4 0abc 094b 2dbc
00000270: 4d85 3fbb bb42 74bc 95c4 0abc 094b 2dbc
00000280: ce85 ef3b f4a2 343a 529a 10bc 859b 54bc
00000290: 0bd6 0dbb e602 7abc 529a 10bc 859b 54bc
000002a0: a41a 8e3c cba4 08b8 1322 a1ba 8c59 4cbc
000002b0: 72b2 7f3b 0d1d 6cbc 1322 a1ba 8c59 4cbc
000002c0: 0f15 913c 62be 2ebb e9fa 4b3b b180 66bc
000002d0: 4d85 3f3b bb42 74bc e9fa 4b3b b180 66bc
000002e0: 612f 943c cc1e 53bb a917 d9ba 2608 f8ba
000002f0: 0bd6 0d3b e602 7abc a917 d9ba 2608 f8ba
00000300: f4c0 153a e2c4 1fb6 a8a5 22ba c735 8f39
00000310: 85dd a6b9 3c67 13ba a8a5 22ba c735 8f39
00000320: ecef 663a dd91 1638 c2ea f5b9 2049 9739
00000330: bb40 acb9 e396 03ba c2ea f5b9 2049 9739
00000340: 31c8 703a 8416 9a38 c866 9bb9 8dea 9e39
00000350: 5aa5 bdb9 ca2f e5b9 c866 9bb9 8dea 9e39
00000360: 113b ae3a 04de d237 8c39 2d37 47e6 2e39
00000370: 85dd a639 3c67 13ba 8c39 2d37 47e6 2e39
00000380: 6371 ca3a 78ed 5038 ad12 68b9 ca7a 87b9
00000390: bb40 ac39 e396 03ba ad12 68b9 ca7a 87b9
000003a0: 36e4 e13a 85b0 7d38 9758 d9b9 49d4 69b9
000003b0: 5aa5 bd39 ca2f e5b9 9758 d9b9 49d4 69b9
000003c0: 46e0 6138 f654 36b8 54fd b0b6 ebe5 01b8
000003d0: ac1d a3b8 e4c7 16b8 54fd b0b6 ebe5 01b8
000003e0: 8d82 4738 83a0 3ab8 4206 20b8 464f 7437
000003f0: 8df6 b0b8 1291 e4b6 4206 20b8 464f 7437
0.0010596389 -0.00014779349 0.00010043972 -0.00043078786 -0.00027244422 -0.0007864025 0.00010043972 -0.00043078786
0.001406426 -0.00021936416 -0.0005020755 -0.00040698535 -0.00035278162 -0.00070100604 -0.0005020755 -0.00040698535
0.0017262592 -0.00022678229 0.00016197815 4.3784883e-05 -0.00043147017 -0.0007536132 0.00016197815 4.3784883e-05
0.001779748 -3.182021e-05 -0.00015170782 -0.00033681825 0.00027244422 -0.0007864025 -0.00015170782 -0.00033681825
0.0017582118 -0.000100512756 -0.0008147723 -0.0003633628 0.00035278162 -0.00070100604 -0.0008147723 -0.0003633628
0.0018480928 -5.4535645e-05 -0.0004638407 -7.597194e-05 0.00043147017 -0.0007536132 -0.0004638407 -7.597194e-05
0.00058850774 -6.481528e-05 -0.00018942062 9.332057e-05 -0.00037510783 -0.00028909015 -0.00018942062 9.332057e-05
0.0006794414 -2.2377644e-05 -0.00036026913 0.00021882696 -0.00039471936 -0.00021407532 -0.00036026913 0.00021882696
0.00062586827 3.3170374e-05 -0.00033150043 0.00062487274 -0.000373134 -0.00017766868 -0.00033150043 0.00062487274
0.0009744648 -8.5740176e-05 5.730237e-05 -7.9585705e-05 0.00037510783 -0.00028909015 5.730237e-05 -7.9585705e-05
0.0010498061 -8.5619446e-05 -0.00041239292 6.0217408e-05 0.00039471936 -0.00021407532 -0.00041239292 6.0217408e-05
0.001019752 -7.329493e-05 0.00012006844 0.00023128538 0.000373134 -0.00017766868 0.00012006844 0.00023128538
0.006632021 0.0016234092 0.007190249 0.009336201 -0.010375936 -0.0060077393 0.007190249 0.009336201
0.012183155 0.0015947752 -0.004905913 0.0015672813 -0.011461993 -0.0046822643 -0.004905913 0.0015672813
0.014195362 0.0017271284 -0.007770389 0.0028731148 -0.012038743 -0.003955607 -0.007770389 0.0028731148
0.024506181 -0.0025247314 -0.0025128552 -0.0026353379 0.010375936 -0.0060077393 -0.0025128552 -0.0026353379
0.024318045 -0.0027647465 0.00028221108 -0.0023949365 0.011461993 -0.0046822643 0.00028221108 -0.0023949365
0.0231263 -0.0012209895 -0.0055896807 0.005611838 0.012038743 -0.003955607 -0.0055896807 0.005611838
0.0064733187 0.0056362404 -0.008427501 -0.00436824 -0.0039016274 -0.014411223 -0.008427501 -0.00436824
0.006791091 0.0030288599 -0.00846972 -0.010576972 -0.002922374 -0.014908488 -0.00846972 -0.010576972
0.007309652 0.0006890737 -0.008825855 -0.012976532 -0.0021642472 -0.01525948 -0.008825855 -0.012976532
0.017346688 -3.2578402e-05 -0.001229348 -0.0124725215 0.0039016274 -0.014411223 -0.001229348 -0.0124725215
0.017710237 -0.002666377 0.0031124896 -0.014068768 0.002922374 -0.014908488 0.0031124896 -0.014068768
0.018088998 -0.0032214401 -0.0016562837 -0.0018923327 0.0021642472 -0.01525948 -0.0016562837 -0.0018923327
0.0005712651 -2.3807447e-06 -0.0006204494 0.00027315153 -0.00031827032 -0.0005622988 -0.0006204494 0.00027315153
0.0008809555 3.5898633e-05 -0.0004690495 0.00028855447 -0.00032854624 -0.00050197373 -0.0004690495 0.00028855447
0.0009185104 7.347486e-05 -0.00029640482 0.00030310862 -0.00036172086 -0.0004371389 -0.00029640482 0.00030310862
0.001329275 2.5137335e-05 1.0325002e-05 0.00016679718 0.00031827032 -0.0005622988 1.0325002e-05 0.00016679718
0.0015445169 4.9812224e-05 -0.00022132201 -0.00025840692 0.00032854624 -0.00050197373 -0.00022132201 -0.00025840692
0.001723415 6.0484297e-05 -0.0004145547 -0.00022299694 0.00036172086 -0.0004371389 -0.0004145547 -0.00022299694
5.385305e-05 -4.3471307e-05 -5.2747e-06 -3.0970124e-05 -7.7779725e-05 -3.594895e-05 -5.2747e-06 -3.0970124e-05
4.7566882e-05 -4.4495344e-05 -3.81528e-05 1.4561991e-05 -8.438258e-05 -6.811818e-06 -3.81528e-05 1.4561991e-05

fcs1.bias f4 [256]
00000000: 5b65 0dba a913 0e38 2565 21ba 875d 6cbb
00000010: bf0d 80b7 ab55 86b8 e518 70b8 1038 6dba
00000020: d671 c93b e9ab 4dba d041 0e3a 99c4 0ebc
00000030: 6fba f4b8 ccda a4b8 d5c5 6fb7 cce2 18b8
00000040: fcaf 3d3d f477 b4b8 2729 deb8 8e7e 06bb
00000050: 55e6 9635 72a7 6cb8 d0c4 afb5 3249 1a3a
00000060: e8e8 41b9 cdf8 b2ba 8e43 99b9 93e9 23b8
00000070: fcc2 82bc 32bc 073a 1583 b4b7 37da d0ba
00000080: d60a 8e39 398b 85b8 0cfe c2b9 95dc b937
00000090: 8d79 9cb8 559c cdbb 979e 09ba 849f 8ebb
000000a0: 3d28 fcb9 7a4f 04ba 1c2a 80b9 845d 75b8
000000b0: dd88 e6ba e2bf 6337 35cf 2cb9 86d5 94b9
000000c0: 3596 edbb 67e8 efb8 697e ddba 37ab 47b9
000000d0: dddf 113a e274 2e38 3637 2abb 73f6 86b8
000000e0: d410 4abb 2c3d d1ba 7fe0 9639 76dc 7839
000000f0: 247d 8bb9 b51f b2bb 3850 9ab9 f1af b2b9
00000100: 61ae b8b9 5ef9 5db8 71e3 0d3a aa20 3b36
00000110: fd1a dfb9 b61d dfb9 4f91 a1b9 2e26 bbb9
00000120: df37 b4ba b8c7 a1b9 b90f c7b9 3a8e 8bbb
00000130: c978 2638 36f7 d1b7 2604 19ba 27f3 1539
00000140: 1ac4 48b9 a30f 44b8 78e0 3cb9 a436 8639
00000150: 36a5 4eb9 b78a 9f38 1f54 68b9 2acc b537
00000160: 4a5c 0cbb 7e42 54b5 86a0 2938 22c7 cf35
00000170: 5443 a7ba eb10 9cb9 2043 90b9 1b7a c3b9
00000180: 9c76 99b4 cb08 35ba 7c02 ec36 fd2c a5ba
00000190: 3b30 1938 392f 26ba 0465 1db9 bc32 caba
000001a0: 5d54 28b8 80eb 9238 8210 15b7 0b6e 5dbc
000001b0: 3eb0 24b8 94ba 98b9 ce25 8438 1f97 9cbb
000001c0: 326a 4e39 a1ec a33c 2a51 bfb6 9f81 0bbb
000001d0: 6272 8737 863d aab9 6170 bfb8 7742 4d3a
000001e0: 555c a7ba 181e 58b9 857c 6fba b5c8 b2b8
000001f0: c6a4 41ba ad48 14ba 572f d935 b588 ee38
00000200: ea25 20b9 abff eab8 f8a1 0cb8 b81e 90b9
00000210: 10db 27ba 5f0b 42ba c1a8 00b8 f895 ce38
00000220: c698 40ba 367e c9ba b3c0 54ba eeec bd39
00000230: 65b9 7eb7 9ce3 7f38 bafc 80bc 5d5c 8fb9
00000240: 9ea2 2eb9 621c efb9 20e1 e4ba 3e7d 0bbb
00000250: 5dac 96b7 9459 2435 e68c 4938 fe20 9dba
00000260: 70fe 90b9 b288 52b9 a586 09ba bfe9 9a38
00000270: 86cf 78b7 1ac1 ccb8 c41a 9cb9 e5f1 373a
00000280: b4a4 87b9 86da fcb7 d080 28b9 f9bb 3abb
00000290: bf68 ceb8 0403 9937 f1a5 7639 9538 33bb
000002a0: 96b8 0db9 ba51 01b7 7c39 9737 1b00 beb8
000002b0: 1584 39b9 db98 bdb5 3687 423a c4f4 65ba
000002c0: f2cc 9cb9 add8 8aba c3a1 12bb e531 8636
000002d0: 1228 03ba e3b1 e8ba 538d c9b9 6100 033a
000002e0: db1a f638 8ec5 46b9 3a01 8736 1e85 43b9
000002f0: 6a4c a4ba 78f6 ce37 2fa5 4cbb 614a d038
00000300: d2a5 c9b9 2f60 ab37 0433 95ba 71d0 f9ba
00000310: 6d79 8239 ef79 593a 090e 6e39 6043 e035
00000320: 684f 7db9 8a37 c936 2d1e 51b9 d0ab 28ba
00000330: 0a8f 91bb 94ed 7c39 94ec 403a 917a d0ba
00000340: 9cd1 02b9 4a0d b5b9 e7f0 e8b9 256a 41b7
00000350: 286f 7037 374e 32b9 63ac 3fb7 4ceb 8a3b
00000360: 3be5 11b8 1bc5 c339 c1d3 7bb8 374f 32b8
00000370: be7f 5f38 64cd 76b8 05ea 9db8 25a7 7f3b
00000380: a1cc cdb7 f049 00bc 0203 1f3d 4273 3db9
00000390: d9c8 10ba 842a 77b9 a9d7 f8ba d1cf 78b8
000003a0: 6f0f 46ba bdba a0b7 4f46 afba fee9 c0ba
000003b0: c6ca 10ba 6b67 84b8 3b15 6b3a 3492 82b9
000003c0: a90f 4fb6 f2a3 62b9 162c 84ba 500e a136
000003d0: af3f dbb9 da09 aab7 a771 97b9 f23e 80b9
000003e0: 4a02 a5ba c44a b439 ad42 97ba b930 6cb8
000003f0: b73b acba c1f5 c9b9 f372 1bbb b632 99b8
-0.0005393826 3.3873748e-05 -0.00061567343 -0.0036066489 -1.526519e-05 -6.405575e-05 -5.7243644e-05 -0.00090491865
0.0061476035 -0.0007845746 0.0005426677 -0.008713865 -0.000116695526 -7.8608835e-05 -1.42915715e-05 -3.6450845e-05
0.04631041 -8.605412e-05 -0.0001059345 -0.002052221 1.1242906e-06 -5.642273e-05 -1.3095796e-06 0.0005885541
-0.00018492679 -0.0013654471 -0.00029232766 -3.907976e-05 -0.015962116 0.00051778846 -2.1518712e-05 -0.0015934174
0.00027092424 -6.3678664e-05 -0.00037191843 2.2156435e-05 -7.4613e-05 -0.0062747397 -0.0005249767 -0.004352512
-0.00048095165 -0.00050472433 -0.00024445436 -5.8499645e-05 -0.0017588396 1.3574931e-05 -0.00016480389 -0.00028387847
-0.007250572 -0.000114396964 -0.0016898635 -0.00019041901 0.0005564669 4.159369e-05 -0.002597285 -6.435523e-05
-0.0030832784 -0.0015963665 0.00028777492 0.00023733251 -0.00026605383 -0.0054359087 -0.00029432937 -0.00034081892
-0.00035225137 -5.2922747e-05 0.00054126146 2.7884184e-06 -0.00042553982 -0.0004255601 -0.00030816576 -0.00035695866
-0.0013749561 -0.00030857115 -0.00037967952 -0.004258898 3.9689974e-05 -2.5029858e-05 -0.0005837105 0.00014300329
-0.0001914654 -4.6744604e-05 -0.00018012698 0.00025599182 -0.00019707237 7.6075485e-05 -0.00022156582 2.1671953e-05
-0.0021417313 -7.9072913e-07 4.044224e-05 1.5480657e-06 -0.0012761154 -0.00029767244 -0.00027515832 -0.00037284274
-2.858477e-07 -0.00069059123 7.0336373e-06 -0.0012601909 3.652296e-05 -0.0006339434 -0.00015010318 -0.0015426497
-4.013289e-05 7.005688e-05 -8.884936e-06 -0.013515006 -3.9264785e-05 -0.0002913071 6.301292e-05 -0.004778757
0.00019685252 0.020010294 -5.7016923e-06 -0.0021286977 1.6146518e-05 -0.00032470765 -9.128522e-05 0.00078300334
-0.0012768606 -0.00020610576 -0.00091356813 -8.525086e-05 -0.0007386919 -0.00056565815 1.6181538e-06 0.00011374188
-0.00015272913 -0.000112056114 -3.3529446e-05 -0.00027488708 -0.0006403187 -0.0007402207 -3.0674742e-05 9.850779e-05
-0.0007346984 -0.0015372697 -0.00081158726 0.00036225416 -1.5182745e-05 6.1008715e-05 -0.01574551 -0.00027343901
-0.00016654513 -0.0004560678 -0.0017462112 -0.0021284367 -1.7961656e-05 6.1225114e-07 4.8053356e-05 -0.0011987982
-0.0002765539 -0.00020078084 -0.0005246199 7.386831e-05 -1.483027e-05 -9.763446e-05 -0.0002977458 0.0007016941
-0.0002587192 -3.0142499e-05 -0.00016069715 -0.0028493388 -9.842356e-05 1.8240426e-05 0.00023522206 -0.0027346958
-0.00013515571 -7.708028e-06 1.8027371e-05 -9.059926e-05 -0.00017692179 -1.4126084e-06 0.00074206607 -0.00087721297
-0.00029907335 -0.0010593139 -0.002237425 3.9993197e-06 -0.00050032244 -0.001775321 -0.00038443002 0.000499731
0.00011735196 -0.00018956346 4.0234563e-06 -0.00018646239 -0.001253498 2.4671885e-05 -0.0031226387 9.932067e-05
-0.00038461253 2.0429577e-05 -0.0011383002 -0.0019059313 0.00024886001 0.00082960626 0.00022702677 1.6708909e-06
-0.00024157541 5.9967324e-06 -0.00019943035 -0.00064342935 -0.0044421004 0.00024121098 0.00073594716 -0.0015905668
-0.00012475852 -0.0003453291 -0.00044429975 -1.152841e-05 1.4330995e-05 -0.0001700454 -1.1424624e-05 0.0042394754
-3.478418e-05 0.00037340153 -6.0040275e-05 -4.251228e-05 5.3286312e-05 -5.8842255e-05 -7.529933e-05 0.0039009538
-2.4533192e-05 -0.007830128 0.038821228 -0.00018067381 -0.00055230927 -0.00023571594 -0.001898517 -5.932135e-05
-0.00075554004 -1.9160443e-05 -0.0013372394 -0.0014718173 -0.00055233797 -6.3135136e-05 0.0008967702 -0.00024904462
-3.085452e-06 -0.00021614114 -0.0010083939 4.79984e-06 -0.00041818383 -2.0270167e-05 -0.00028885642 -0.0002446096
-0.0012589183 0.0003438798 -0.0011540257 -5.631216e-05 -0.0013140355 -0.00038520808 -0.0023719638 -7.305054e-05

fc2.weight f4 [128, 260]
00000000: 8dde fab9 fd62 02b8 3f17 a8bb 8740 a5ba
00000010: 79ae dbb9 af7c 7eb8 a38f 8ab9 b072 1abb
00000020: e0bc 99bd 2774 9c37 c2da 06bc 4162 0abb
00000030: 64c6 d0b9 5286 f838 7c15 e2b6 f1ec 5bb7
00000040: 7ded 8cbb 479d 5539 0032 c339 53a7 0dba
00000050: e00f d139 e94a de39 7759 8e36 6d0d 50bb
00000060: 431f 44bb f542 18ba b539 9bb9 6341 3138
00000070: e114 253d 4879 62b9 279b 85b8 7e7a fa38
00000080: 0494 4439 6915 e238 c3c9 b6bb 470d b137
00000090: a1f3 0739 30db 9bba 4e01 b5ba a3e1 07bd
000000a0: 7cfb 843a 83af e53a 031b 66ba 8866 2ab7
000000b0: 18a8 50bb 9cad d035 a418 c538 c01f 92ba
000000c0: 6eba cabc 006c a136 f3e3 8eba dbdf c0bb
000000d0: f05e 543a f00d 4938 c3a8 88bb 8862 bd38
000000e0: d828 bbbb 986c a8bb 6026 ff39 cf85 40ba
000000f0: 7d3c 9a39 da38 1c3b 1119 243a fda2 3739
00000100: 093f 81b9 ed89 5137 4dcd 0fbb 3e17 a938
00000110: d815 9839 a6da 91b9 c8e2 9db8 974f 3bb7
00000120: 4ea7 1c3c af4c 2739 cb5f 9a3a 06b2 ba39
00000130: 17eb 47ba 8245 bd38 a8df 1db8 c1cd 42b8
00000140: b6c7 5eb9 aebf 9fb8 1d3c 5cb9 4d3b 80bc
00000150: 58fc 8938 248f 2aba 6ad7 86ba 496f 0a3a
00000160: fa7e 02bc af14 f6b6 1ebb 81b8 f958 173a
00000170: ed30 55bb 541a c1b8 1727 fcba 7aac 95ba
00000180: 51d8 afb5 8cd0 fbb9 c397 07b6 6579 b93b
00000190: e2e3 9eba 59cd f6b9 cadc d7bc 6ae1 52bb
000001a0: 2875 6eb7 0051 9bba 71d3 643b 0171 acbd
000001b0: 458e 98b7 109a bc39 4884 c638 ac56 40bc
000001c0: 0863 32b9 3bb1 86bc 2a10 e938 a50a a03b
000001d0: f003 b6b8 e679 67b8 37e8 8339 615d 913b
000001e0: 1117 3f3a a819 05bb 79d6 763b ee12 b8ba
000001f0: d022 0ebb 510d 6aba 03b0 4936 5130 2938
00000200: 5785 3f3a 5323 58b9 679a 1bb9 17e0 0cba
00000210: 6018 e43a 4bdb 073b aff2 af38 c338 04ba
00000220: 8f25 01bb 27f4 a7bb 45e6 ca3a 0adf d239
00000230: 1150 b6b8 be57 93ba 6733 e2bd 3dbe 86bb
00000240: 66d7 7eb9 45ee b8b9 6830 3ebc 96cd 2a39
00000250: f5ec 21b8 abeb a636 aa78 a1b8 6020 513a
00000260: b2e1 3c3a df5c 89b9 f360 1bba 1b12 aab9
00000270: 833d c5b7 2d6e 22b8 3045 0739 f3a7 92b6
00000280: 9428 053b e804 0eb9 1138 fa37 7d32 833b
00000290: 5a2c f0bb 327c eeba 79a7 1cbb f0f1 8ab8
000002a0: abec 9739 1878 6eb5 46e6 b539 33f5 e539
000002b0: e007 0aba 26e2 423a 2f68 5c3b a37c a7b8
000002c0: 04b8 2a3a a856 d23a 7388 9cb9 21d2 d939
000002d0: 76b6 80ba ba73 a0bb e072 863a ba9c 473c
000002e0: fe11 97b7 3c43 3b3a 2523 ddb5 9002 893b
000002f0: d2d7 f0bb 49be e8b7 88c3 04bb 01a3 bbb9
00000300: f065 cfbc 404a c33a 0e7c 1cba 6d97 00bd
00000310: 047f 9cbb cea0 99b8 dca4 523b 3281 f438
00000320: 099b 80b9 8a19 b638 95ba 40b9 c336 10b9
00000330: f019 38bc 6518 05bb a47f 29bd 7677 4abb
00000340: b602 0539 f27d 82b9 8cfb 923a 68bd af39
00000350: 2fa0 a237 b4a3 c538 8692 8ab7 327a 81bc
00000360: 3359 d4b6 3ae1 04bb b4d6 ecb9 70f7 94b9
00000370: a284 9eb9 1bb5 b63b 76d3 a537 3f19 33bd
00000380: d32e 84b9 ae57 673c 2d99 ad3d 6caa 41b9
00000390: 4edd 813a 9f5e 58b9 dbcf b03a 7919 d139
000003a0: f357 b33b be14 cbba 5855 aebb f48b e23a
000003b0: 839b 293a e56c a5b8 b944 203c 9fef 43bb
000003c0: 0a39 3238 c26d d339 51a1 c03a 4a79 6eb6
000003d0: 7844 2ebb 9417 12b8 b911 a3b8 357e db3a
000003e0: af50 55bc db18 aabb 6e04 313b 0344 a7ba
000003f0: f829 ddba bbfe d239 93f8 8fb8 5c86 c238
-0.0004784953 -3.1086605e-05 -0.0051297243 -0.0012607732 -0.00041900927 -6.067444e-05 -0.0002642843 -0.0023566894
-0.07506728 1.8650737e-05 -0.008230867 -0.0021115693 -0.00039820664 0.000118505806 -6.737826e-06 -1.3108584e-05
-0.0043007717 0.00020371853 0.0003723055 -0.00054036564 0.00039875414 0.00042398952 4.242345e-06 -0.0031746284
-0.002992586 -0.0005808317 -0.000296069 4.2260985e-05 0.040303115 -0.0002159822 -6.3708336e-05 0.00011943745
0.00018747157 0.00010780508 -0.005578251 2.1106227e-05 0.00012965362 -0.0011890884 -0.0013809593 -0.03317417
0.0010145749 0.001752362 -0.0008777829 -1.0156662e-05 -0.0031838473 1.5547735e-06 9.398282e-05 -0.0011148378
-0.0247471 4.8107468e-06 -0.0010901674 -0.0058860607 0.0008101305 4.7935115e-05 -0.0041705086 9.030575e-05
-0.005711656 -0.0051398985 0.00048665982 -0.0007344158 0.00029418236 0.0023837597 0.00062598387 0.00017512958
-0.00024651762 1.2489484e-05 -0.0021942437 8.062877e-05 0.00029007974 -0.0002781946 -7.528585e-05 -1.11645995e-05
0.009561373 0.00015954928 0.0011777816 0.00035609322 -0.00076262787 9.025169e-05 -3.7640013e-05 -4.6444828e-05
-0.00021245968 -7.617414e-05 -0.00021003229 -0.015653277 6.579672e-05 -0.0006506315 -0.0010287587 0.0005280865
-0.007964844 -7.333779e-06 -6.1860526e-05 0.0005773451 -0.0032530383 -9.207861e-05 -0.0019237724 -0.00114192
-1.3101472e-06 -0.0004802983 -2.0204905e-06 0.0056602233 -0.0012122358 -0.00047073772 -0.026350398 -0.0032177814
-1.4213183e-05 -0.0011849701 0.0034916068 -0.08419991 -1.8186061e-05 0.0003597294 9.466015e-05 -0.011739414
-0.00017012295 -0.016441932 0.000111133166 0.0048840814 -8.67917e-05 -5.518822e-05 0.0002515928 0.0044361805
0.0007289509 -0.0020309482 0.0037664457 -0.0014043727 -0.002168823 -0.0008928376 3.0053786e-06 4.0337738e-05
0.0007305941 -0.00020612525 -0.00014839471 -0.0005373968 0.0017402284 0.0020730074 8.3898536e-05 -0.00050438585
-0.0019706225 -0.005125541 0.0015480003 0.00040220498 -8.69335e-05 -0.0011241359 -0.110449605 -0.0041120336
-0.0002430357 -0.0003527274 -0.011608221 0.0001628905 -3.8606075e-05 4.974621e-06 -7.699554e-05 0.00079775415
0.0007205262 -0.0002619987 -0.00059272273 -0.00032438416 -2.3512874e-05 -3.872642e-05 0.00012900378 -4.370691e-06
0.0020318376 -0.00013544003 2.982843e-05 0.0040038214 -0.007329506 -0.0018194972 -0.0023903532 -6.625417e-05
0.00028977296 -8.883667e-07 0.00034694577 0.0004386097 -0.00052654557 0.00074342114 0.0033631434 -7.986396e-05
0.0006512406 0.0016047554 -0.000298563 0.00041546024 -0.0009820003 -0.004896608 0.0010257624 0.012183363
-1.8008981e-05 0.00071435026 -1.6476012e-06 0.0041812137 -0.0073499465 -2.7745164e-05 -0.0020258147 -0.00035788867
-0.025317162 0.0014899448 -0.00059694133 -0.03139441 -0.0047758836 -7.325561e-05 0.003214172 0.00011658891
-0.00024529573 8.683193e-05 -0.00018380054 -0.0001375331 -0.011236653 -0.002030873 -0.041381493 -0.0030893958
0.00012684878 -0.0002488937 0.0011213883 0.0003351972 1.9386496e-05 9.424184e-05 -1.6519112e-05 -0.015805338
-6.3284765e-06 -0.0020275847 -0.00045173394 -0.00028413115 -0.00030234928 0.0055757887 1.9768002e-05 -0.04372525
-0.0002521189 0.014120026 0.084764816 -0.00018469401 0.0009907873 -0.00020634614 0.001348968 0.00039882565
0.005473131 -0.0015493853 -0.0053202324 0.0017284141 0.00064700114 -7.888096e-05 0.00978201 -0.0029897464
4.249163e-05 0.00040326832 0.0014696514 -3.5535363e-06 -0.0026591104 -3.483107e-05 -7.775747e-05 0.0016745987
-0.013019725 -0.0051909513 0.0027010697 -0.0012761358 -0.001687347 0.0004024411 -6.865072e-05 9.275667e-05

fc2.bias f4 [128]
00000000: 2bb5 20bd 4055 26b9 39e9 90b6 0134 ffb1
00000010: 13e9 4bad f422 1ab7 b201 01b1 b1eb 89b8
00000020: f5d8 e4ad d996 903c 4070 c3b6 7a11 97b9
00000030: 6ea8 a7b9 ddb9 2cb1 0bd3 97b5 ccb4 20b0
00000040: 333a 7d38 9dd1 30b3 7a26 d7b5 1866 233d
00000050: 2425 50ab 976d d0a2 384d 18b5 6a4c f8b9
00000060: 586c b3b2 fef9 a3b9 ee01 6cab ac6e 04b6
00000070: 011d fe3a 5c74 21b7 1bf4 cda9 1106 1ea5
00000080: 27c5 3db3 47c1 abb2 3c07 55bd e791 2fb5
00000090: c3ce dcba ecd5 ecbb af3e 21b2 59dc deab
000000a0: e3fa abba 579d 05b6 1319 16bd a648 bcbc
000000b0: 5009 8ba1 a52a 8ca0 4b0e 853a 0cce 29ae
000000c0: 1952 64a9 f60b 4db0 0429 c2bb f025 1db7
000000d0: 350a a6b7 f10e 94ad e06c 72ba 19f2 7c3c
000000e0: 3f1d 459e e7cd 85b7 5bd5 3731 34e3 c4b9
000000f0: b265 a1b9 3ea5 77bd 7312 0bbc 77c9 60a2
00000100: 6a83 cc3d 4dbf d7ba 0b2b 01b5 0b38 d6af
00000110: 7f19 3eb8 a91f 32bb 26a8 42ad 36ac 9cba
00000120: 7fac b7ab 0b0c 123e 4014 84b8 744e 813b
00000130: ad82 04bb 4dc4 27b6 0656 b4b0 38f6 2eaf
00000140: 76d4 4db8 47a3 96b5 6fc4 29b9 5285 603a
00000150: c87b bead ac30 42b3 ea95 35ba 9ef2 81b3
00000160: 2986 2bac c16b d9b7 8bce 8ab8 5081 baac
00000170: ec3b 62b4 fad7 90a4 5bc6 79b5 e89b 6fb0
00000180: df2e 17b9 8c1b ceb9 4a94 7bbc 0020 e1b5
00000190: e90d 0e38 3d12 93ba a2c1 9db6 7be7 1bb8
000001a0: 438b 0621 f196 8eb5 4c77 2831 bef9 ecb1
000001b0: 3ec5 6f3c 6cf6 88ba 9219 cdbb a3f5 2ab8
000001c0: db60 92af fd88 cfb8 89fd fcae 9ab1 7fb0
000001d0: df0f 04bb 51bc eda8 7bfd 8aaa 9def 2eb8
000001e0: a535 f4aa 3904 0eb6 f53b 4daf 40a1 5bbc
000001f0: 5512 3cb2 3770 04b9 a951 ddb8 dffa 1ebb
-0.039235275 -0.00015862752 -4.318685e-06 -7.427389e-09 -1.1590967e-11 -9.187253e-06 -1.8772934e-09 -6.57657e-05
-2.6016947e-11 0.017650055 -5.8245205e-06 -0.00028813985 -0.00031978212 -2.5134945e-09 -1.1311798e-06 -5.846459e-10
6.0374103e-05 -4.1168835e-08 -1.6029946e-06 0.039892286 -7.394799e-13 -5.6494546e-18 -5.673678e-07 -0.0004735918
-2.0887612e-08 -0.0003127604 -8.384672e-13 -1.9733952e-06 0.0019387306 -9.62344e-06 -9.1461744e-14 -1.3706371e-16
-4.41843e-08 -1.9994912e-08 -0.052008852 -6.5404896e-07 -0.0016846288 -0.00722765 -9.385686e-09 -1.5835207e-12
-0.0013121035 -1.9910128e-06 -0.036645006 -0.02298386 -9.421471e-19 -2.3745142e-19 0.0010151354 -3.8609158e-11
-5.0697378e-14 -7.4595563e-10 -0.0059252996 -9.366762e-06 -1.9793495e-05 -1.6832287e-11 -0.0009247791 0.01543858
-1.0435141e-20 -1.5950716e-05 2.6751283e-09 -0.00037553313 -0.00030784082 -0.06046032 -0.008488285 -3.0464315e-18
0.09986003 -0.001646021 -4.811888e-07 -3.8966194e-10 -4.5323275e-05 -0.0027179515 -1.106496e-11 -0.0011953178
-1.3050809e-12 0.14262407 -6.298022e-05 0.00394612 -0.002021949 -2.4999201e-06 -1.3121173e-09 -1.5912682e-10
-4.907368e-05 -1.1223391e-06 -0.00016190273 0.0008564788 -2.1655469e-11 -4.521341e-08 -0.0006926941 -6.0511624e-08
-2.4375035e-12 -2.5918593e-05 -6.6188244e-05 -5.3007945e-12 -2.106969e-07 -6.2815924e-17 -9.3048374e-07 -8.716925e-10
-0.00014417943 -0.00039311906 -0.015355179 -1.677312e-06 3.3868393e-05 -0.0011220645 -4.7015064e-06 -3.7170463e-05
4.5585277e-19 -1.0623754e-06 2.451503e-09 -6.8968964e-09 0.014634429 -0.0010449416 -0.0062591517 -4.0759925e-05
-2.6626065e-10 -9.896045e-05 -1.150467e-10 -9.3020847e-10 -0.0020151061 -2.6393955e-14 -2.4689612e-13 -4.170799e-05
-4.338033e-13 -2.1162107e-06 -1.8665942e-10 -0.013405144 -1.09472085e-08 -0.00012630304 -0.000105533116 -0.0024258418

fc3.weight f4 [1, 128]
00000000: fb95 443e d2c0 3fba 4919 fd37 05b8 5332
00000010: c802 06ae 9d4d 5f37 8a63 94b1 19d6 9238
00000020: c88f 202e d77b 563d 07ca 9e37 111c 5c39
00000030: a6ff f4b7 0851 3631 2164 1d35 50ec 6a2f
00000040: 895b 123c 2ba2 f5b2 bd4c 0bb7 e768 0c3e
00000050: f658 c137 c36f dea2 0417 5632 da45 9b37
00000060: 181a f3b2 5102 8fba bfcd aeaa adc0 e1b7
00000070: 7bed 953d 2d27 a436 a5b4 4b37 e141 c0a4
00000080: 16fb 3ab3 1fe9 7333 ccfd 9dbd 64f6 20b6
00000090: ee4c b5bb 91de 07bc c020 9632 ec6a 412d
000000a0: d46c 9b39 692a ce35 c78c e1bd d891 24bd
000000b0: ea33 6734 d05d 2935 7b5f 9c3d 8cff 90ae
000000c0: 482b c128 b3b7 8eaf 94e6 48bc 6b07 a137
000000d0: e01c 8bb8 d81d 1dae abcf b13a 0a23 14be
000000e0: 53ce 8829 0aef 8636 cccf 0ab1 e3d7 a538
000000f0: a317 25b9 5d1d ecbd 18a5 1b3c eefd 90a2
00000100: 20e8 9a3e 08bb e53a 26f8 8f33 9758 6f30
00000110: cb53 ac37 8d14 d5bb 26e6 1aae 3e82 99ba
00000120: 3bf2 8ead 144e 9d3e c48e eeb8 b631 ba3d
00000130: 1e2a ab39 e6b2 6eb7 cd79 a930 6dd4 402f
00000140: 073c 7bb7 be80 9eb5 41b5 86b9 0f10 eb3d
00000150: d2e1 4fad 1824 0233 a836 213b a189 9cb5
00000160: 7186 4936 e601 fab7 02b6 ae37 eda3 4aac
00000170: 2501 5335 5483 c9a4 be95 83ba 31a4 f52f
00000180: 8ce9 8738 848e 15ba e43f 6bbd fc6d 8a35
00000190: 592a 0fba 8ef6 19bb ae3c 0837 3e35 d937
000001a0: 0b0d f0a6 7dba 0136 85ca 9932 b961 06b1
000001b0: 5115 ba3d bac7 ce39 d610 e43d d287 ee38
000001c0: 31d3 36ae 8ba7 27ba 3085 7e30 d553 2fba
000001d0: 9c24 8d3a 4ddf 4eaa dbcd 562b cce9 2637
000001e0: 30da 79aa 830a 0934 157d 7aaf c384 52bb
000001f0: 1e8a 12b2 8429 b8ba ec1b 6938 36ca 603d
0.19197838 -0.0007314804 3.0171725e-05 1.2323658e-08 -3.0470543e-11 1.33099065e-05 -4.318683e-09 7.001701e-05
3.650749e-11 0.052364197 1.8929144e-05 0.0002099129 -2.9206112e-05 2.6530547e-09 5.8632764e-07 2.1366131e-10
0.0089329565 -2.85955e-08 -8.302913e-06 0.13711892 2.3048819e-05 -6.0291553e-18 1.2461673e-08 1.8509967e-05
-2.830079e-08 -0.0010910725 -3.1051374e-13 -2.6911812e-05 0.073206864 4.8921415e-06 1.21418025e-05 -8.337833e-17
-4.353486e-08 5.678987e-08 -0.077144235 -2.3985276e-06 -0.0055328524 -0.00829281 1.7477191e-08 1.0994521e-11
0.00029644987 1.5360539e-06 -0.11013179 -0.04017815 2.1532438e-07 6.309392e-07 0.07635399 -6.593756e-11
2.1446075e-14 -2.5960176e-10 -0.012262005 1.919615e-05 -6.633415e-05 -3.5724174e-11 0.0013565918 -0.14466491
6.075405e-14 4.021339e-06 -2.0199762e-09 7.908025e-05 -0.00015744432 -0.11529038 0.009499811 -3.9300137e-18
0.30255222 0.0017527053 6.704094e-08 8.707359e-10 2.0543017e-05 -0.006502694 -3.521996e-11 -0.0011711789
-1.6251103e-11 0.3072363 -0.000113753165 0.09091513 0.0003264704 -1.42275585e-05 1.2330986e-09 1.7537767e-10
-1.4974742e-05 -1.1809386e-06 -0.00025693516 0.11477672 -1.181673e-11 3.030081e-08 0.0024599228 -1.1662961e-06
3.002959e-06 -2.9803206e-05 2.082717e-05 -2.8796924e-12 7.860529e-07 -8.739233e-17 -0.0010039133 4.4681905e-10
6.480803e-05 -0.00057051354 -0.057433978 1.0313811e-06 -0.00054613274 -0.0023492905 8.12036e-06 2.5893209e-05
-1.6656881e-15 1.9331048e-06 1.790364e-08 -1.9555115e-09 0.09086097 0.0003944019 0.11136024 0.00011374023
-4.1569585e-11 -0.000639551 9.259393e-10 -0.0006688212 0.0010768357 -1.8373948e-13 7.6313755e-13 9.948806e-06
-2.2191342e-13 1.2762943e-07 -2.2781806e-10 -0.003212259 -8.529723e-09 -0.0014050459 5.5577533e-05 0.054880343
