final_ckpt_target_critic_0.pth (torch_old, 185330 bytes, 5 tensors)

fcs1.weight f4 [256, 48]
00000000: 2d84 463a 9e40 ae37 55d4 95b8 165a 69b9
00000010: 54d6 f339 b0f9 1dba 55d4 95b8 165a 69b9
00000020: edeb 4b3a 10fe ce36 1127 edb8 ec22 7ab9
00000030: 69e6 e339 00f0 25ba 1127 edb8 ec22 7ab9
00000040: e378 463a 004c 0b37 35af 00b9 2f7b cab8
00000050: be68 d239 d5cf 27ba 35af 00b9 2f7b cab8
00000060: 1cb8 f839 371b 0d39 eee2 2bb9 b455 5639
00000070: 54d6 f3b9 b0f9 1dba eee2 2bb9 b455 5639
00000080: d0b9 213a d894 1b39 9054 b137 b8bf 1ab7
00000090: 69e6 e3b9 00f0 25ba 9054 b137 b8bf 1ab7
000000a0: 9464 323a c98b 0239 7970 07b9 5e3d 21b9
000000b0: be68 d2b9 d5cf 27ba 7970 07b9 5e3d 21b9
000000c0: d6d8 8c3b 749c a5b8 96b7 053a bd17 bab9
000000d0: 5e13 523b 279e 4fbb 96b7 053a bd17 bab9
000000e0: ebbb b53b 46e4 d3b9 43f4 a0b9 1a48 8aba
000000f0: 28fb 723b b4d9 2ebb 43f4 a0b9 1a48 8aba
00000100: 407c be3b 3d84 6cba b732 6bba 0e11 a4ba
00000110: 726a 9c3b f2ce 0dbb b732 6bba 0e11 a4ba
00000120: de13 ba3b b80f 5c3a adcd faba b614 89ba
00000130: 5e13 52bb 279e 4fbb adcd faba b614 89ba
00000140: d798 e23b add8 923a 14dc d637 3be2 cf39
00000150: 28fb 72bb b4d9 2ebb 14dc d637 3be2 cf39
00000160: 4af9 ee3b ca89 6b3a 8618 d4ba 621e c6ba
00000170: 726a 9cbb f2ce 0dbb 8618 d4ba 621e c6ba
00000180: 7c1b de39 359e c337 43f3 5ab9 4523 fcb8
00000190: 16e1 5339 76cc 9cb9 43f3 5ab9 4523 fcb8
000001a0: 2bf9 f539 5568 2d37 302e d3b8 5b1d d7b8
000001b0: b653 6839 3ec6 8fb9 302e d3b8 5b1d d7b8
000001c0: df82 0c3a d2ad 5b34 d378 2fb8 a9e4 9eb8
000001d0: 4e31 7539 565e 78b9 d378 2fb8 a9e4 9eb8
000001e0: 63f8 cc39 2583 8238 602b cdb7 a721 2539
000001f0: 16e1 53b9 76cc 9cb9 602b cdb7 a721 2539
00000200: 9c2f ee39 2fda a838 5d3f 5bb9 9dee fc38
00000210: b653 68b9 3ec6 8fb9 5d3f 5bb9 9dee fc38
00000220: 4c28 133a ba01 8938 35c1 7a37 f7cf 03b9
00000230: 4e31 75b9 565e 78b9 35c1 7a37 f7cf 03b9
00000240: a0f6 ae3b 60c2 8238 7ed8 b5b9 089d cdba
00000250: 53f8 1b3b 2d03 25bb 7ed8 b5b9 089d cdba
00000260: 8add c23b fd0a a1b7 555f 56ba 1f71 06ba
00000270: 408e 333b 9545 06bb 555f 56ba 1f71 06ba
00000280: 5e38 d73b 2961 b6b8 190a 13bb d1eb 71ba
00000290: 416b 583b cc2e f2ba 190a 13bb d1eb 71ba
000002a0: 006d 8f3b a43f 5a3a de19 0d3a 945c 7a3a
000002b0: 53f8 1bbb 2d03 25bb de19 0d3a 945c 7a3a
000002c0: 1380 aa3b 07fa 573a d483 8cba fbc3 853a
000002d0: 408e 33bb 9545 06bb d483 8cba fbc3 853a
000002e0: 34e8 d03b 5335 403a 3063 75ba b1ff 43ba
000002f0: 416b 58bb cc2e f2ba 3063 75ba b1ff 43ba
00000300: 2fb0 c23b eea9 d139 61b0 9aba 96c1 dbb9
00000310: edb5 293b 60e8 89bb 61b0 9aba 96c1 dbb9
00000320: e84e d83b 7c10 f238 441a a3ba 6e10 0abb
00000330: 795c 123b 95f6 79bb 441a a3ba 6e10 0abb
00000340: cc7c f43b f716 e5b8 6d1a 0dba 937c feba
00000350: eb7d f13a 96ed 52bb 6d1a 0dba 937c feba
00000360: 7314 b43b f188 ca39 4eba 43bb 54ce a43a
00000370: edb5 29bb 60e8 89bb 4eba 43bb 54ce a43a
00000380: 5556 d13b 7a03 193a 9d5a b2b9 7855 213a
00000390: 795c 12bb 95f6 79bb 9d5a b2b9 7855 213a
000003a0: f657 f13b 0607 4c3a 0c3a 4eba 465d 3bb8
000003b0: eb7d f1ba 96ed 52bb 0c3a 4eba 465d 3bb8
000003c0: 0f5e eb39 d101 ba38 9802 23b9 4ead 38b8
000003d0: bcaa 4c39 8544 0eba 9802 23b9 4ead 38b8
000003e0: 267a 1f3a 98f8 6b38 0016 81b8 0a70 6ab9
000003f0: 66ab 3239 36a4 13ba 0016 81b8 0a70 6ab9
0.00075727963 2.0772506e-05 -7.1444236e-05 -0.00022254171 0.0004650826 -0.0006026281 -7.1444236e-05 -0.00022254171
0.0007778991 6.168855e-06 -0.00011308317 -0.00023854867 0.00043468483 -0.0006330013 -0.00011308317 -0.00023854867
0.0007571114 8.302741e-06 -0.00012272301 -9.655055e-05 0.0004013236 -0.0006401514 -0.00012272301 -9.655055e-05
0.00047439418 0.00013456946 -0.00016392369 0.00020440557 -0.0004650826 -0.0006026281 -0.00016392369 0.00020440557
0.0006169351 0.000148374 2.1139422e-05 -9.223753e-06 -0.00043468483 -0.0006330013 2.1139422e-05 -9.223753e-06
0.00068051484 0.0001244984 -0.00012916503 -0.00015377018 -0.0004013236 -0.0006401514 -0.00012916503 -0.00015377018
0.00429831 -7.896955e-05 0.0005100904 -0.0003549437 0.0032055 -0.003167996 0.0005100904 -0.0003549437
0.005546083 -0.00040415133 -0.00030699567 -0.0010550052 0.003707597 -0.0026680054 -0.00030699567 -0.0010550052
0.0058131516 -0.00090223906 -0.00089720957 -0.001251729 0.0047734315 -0.0021638242 -0.00089720957 -0.001251729
0.005678638 0.0008394676 -0.0019134782 -0.0010458443 -0.0032055 -0.003167996 -0.0019134782 -0.0010458443
0.0069151926 0.001120349 2.561327e-05 0.00039650672 -0.003707597 -0.0026680054 2.561327e-05 0.00039650672
0.007292901 0.0008985071 -0.0016181625 -0.0015115256 -0.0047734315 -0.0021638242 -0.0016181625 -0.0015115256
0.00042363617 2.3319482e-05 -0.00020880722 -0.00012022866 0.00020206379 -0.00029906974 -0.00020880722 -0.00012022866
0.00046915686 1.0335895e-05 -0.00010069867 -0.00010257467 0.00022156429 -0.00027422787 -0.00010069867 -0.00010257467
0.00053600775 2.04592e-07 -4.1835778e-05 -7.5766184e-05 0.00023383388 -0.00023686266 -4.1835778e-05 -7.5766184e-05
0.00039094975 6.2233106e-05 -2.4458102e-05 0.00015748163 -0.00020206379 -0.00029906974 -2.4458102e-05 0.00015748163
0.0004543037 8.051504e-05 -0.00020909072 0.000120607416 -0.00022156429 -0.00027422787 -0.00020909072 0.000120607416
0.00056136097 6.532991e-05 1.4946146e-05 -0.00012570606 -0.00023383388 -0.00023686266 1.4946146e-05 -0.00012570606
0.0053394586 6.235088e-05 -0.0003468431 -0.0015687058 0.0023799136 -0.0025178895 -0.0003468431 -0.0015687058
0.0059468197 -1.9197812e-05 -0.0008177658 -0.00051285507 0.002739802 -0.0020488251 -0.0008177658 -0.00051285507
0.006567999 -8.696534e-05 -0.0022436439 -0.000922856 0.0033022913 -0.0018477081 -0.0022436439 -0.000922856
0.0043770075 0.0008325523 0.00053825777 0.00095505384 -0.0023799136 -0.0025178895 0.00053825777 0.00095505384
0.005203256 0.0008238856 -0.001072044 0.0010205501 -0.002739802 -0.0020488251 -0.001072044 0.0010205501
0.006375337 0.00073321647 -0.00093607884 -0.00074767607 -0.0033022913 -0.0018477081 -0.00093607884 -0.00074767607
0.005941413 0.00039990194 -0.0011801833 -0.00041915168 0.002589579 -0.0042086095 -0.0011801833 -0.00041915168
0.0066012032 0.0001154253 -0.0012443741 -0.0021066922 0.002233295 -0.003814136 -0.0012443741 -0.0021066922
0.007461166 -0.000109238485 -0.0005382661 -0.0019415788 0.0018424367 -0.003218507 -0.0005382661 -0.0019415788
0.005495602 0.00038630472 -0.0029865685 0.0012573698 -0.002589579 -0.0042086095 -0.0029865685 0.0012573698
0.0063884654 0.0005837005 -0.00034018318 0.00061543984 -0.002233295 -0.003814136 -0.00034018318 0.00061543984
0.007365222 0.0007783029 -0.0007866926 -4.4671142e-05 -0.0018424367 -0.003218507 -0.0007866926 -4.4671142e-05
0.00044892772 8.8695095e-05 -0.00015545858 -4.403042e-05 0.0001951856 -0.00054270803 -0.00015545858 -4.403042e-05
0.000608357 5.6259887e-05 -6.155297e-05 -0.00022357717 0.00017039254 -0.00056320743 -6.155297e-05 -0.00022357717

fcs1.bias f4 [256]
00000000: 7f5c 4db9 62ba efba 04dd a7b8 d04a 1cba
00000010: b49b 82ba 2ad6 17b9 b74f d7b9 96a0 90b9
00000020: df56 dab9 1d69 b8b8 fb9c c0ba 160e 0abb
00000030: 2f66 31ba a581 7eba 3a6d cbba def4 cbb9
00000040: cbfb a9ba a9ea 06ba dbcb a9b9 1983 7aba
00000050: 8c4f 37ba 5d7d 45bb c6a3 a5ba a3c9 50bb
00000060: 89b0 79b9 2cfb b9ba b97e 60ba 0bc2 6fba
00000070: 41df feba f85c 07ba e2ca 45ba 0c0c 0fba
00000080: cb50 d6ba 61f0 a3ba 5a31 daba aa20 cebb
00000090: df49 6eba cf4b 6ab9 1aee 93b8 85ad 5dba
000000a0: 8452 17bb b89b 313c 2573 61b9 54a2 0fbb
000000b0: fdcb 97bb d616 18ba d190 adb7 9640 03ba
000000c0: 8730 81ba 1c57 f9b9 4345 ccba 263b c1b7
000000d0: 4cea bcb9 8f67 45bb 92af 30ba 7867 d6ba
000000e0: a3f3 69ba fa3a acba 04de 11b9 f097 4bba
000000f0: 87ea c0b9 094d c2ba 3b7a cab9 7724 b7ba
00000100: af3c 2aba 70c3 84b9 6222 dfba 6638 88ba
00000110: c01f edba 8d5f 9fb9 b831 00bc 40f5 42b8
00000120: 7590 d3b9 70e5 34ba bb61 12bb 07c2 e2b9
00000130: 5e03 5fba 399d a33b 3dba 16bb 98f1 04bb
00000140: 5518 a5b9 b5f0 8fba 8228 c4b8 bef1 1db7
00000150: 8014 9cb8 62f1 bfb9 3110 2aba cf56 77bb
00000160: 0d0c b5ba f982 85b9 0b78 52ba 0f54 5db8
00000170: 1452 a5ba e0d1 07bb c192 82bb 9ece 26ba
00000180: c6d5 01ba 1510 c0b7 fbeb 23b9 4e32 b9b9
00000190: d980 86b9 0111 fab8 9636 f8b8 21e9 09bb
000001a0: 34e2 66b8 fc8d 87ba 84cd 13bb 0210 63ba
000001b0: 7fdb b9ba 0f9b cfb8 e779 58ba 2499 adb9
000001c0: 595a 75ba 81f3 eab9 8f10 60ba 0dcf 14b9
000001d0: 9c2c 14bb 6a9d 50ba a55f 4fba 9207 2ab9
000001e0: ba64 85b9 d730 f2b9 b01c cfb9 a6cc 83b9
000001f0: c0f9 053b d4d4 f8b8 c86f b4ba 831e a7b7
00000200: 0af5 c4ba 5825 05ba 9fd6 07b9 1976 4bba
00000210: 4a22 b5b9 cda9 31ba 8c6b 65ba 2fdf aeb9
00000220: 2cff d6b6 233c c2ba 247e 44ba 71e7 ebb9
00000230: 899a 0dbb 7f24 e4ba 525e 94b9 cb5c c2b9
00000240: 50b6 70ba ac37 02ba da81 0fbb d49a 3cb9
00000250: 3785 51ba 670d 89bb b8ac faba fe4d a5b9
00000260: 7d33 5ab9 222c 46ba 560f 6cba 9754 39b9
00000270: 2251 5fb9 6292 f6b9 e669 90b8 a5bb 443d
00000280: a863 88b9 afa9 fcb9 bd48 e8b9 159e c6b9
00000290: d098 1fba e38c cbba ecd9 e0ba faa6 8abb
000002a0: e922 ddb6 c73e 7eb9 4706 0ab9 50aa 20ba
000002b0: 773c a3ba e526 f3ba 64c3 89ba e522 27b9
000002c0: c9ac 14ba ee1d 8aba ac75 8cb9 a939 faba
000002d0: fc2c 29bb 7d0e d9ba c092 bdb7 7a24 01bb
000002e0: 7a42 d0b9 c89a 8db9 a2a1 12ba 46f9 0bbb
000002f0: 79ed 21ba 1371 9cba 6efa 77b9 40ac a5ba
00000300: d981 76ba 8f8e e8b8 65df ceba 9712 d7b8
00000310: ce0c 99ba aca7 d3ba 6708 95ba 9f84 b13c
00000320: a882 e1b9 f00f 873c 1c51 a4ba 1ceb 86ba
00000330: fe7a 93ba 33b4 4fba 3794 10ba 5566 2eba
00000340: fd06 19bb 2c9e 1db8 9711 35ba 6435 a6b9
00000350: 3f2e 01bb 8542 6fba ada1 5aba c4be 3ebb
00000360: eddb 95b9 d282 e9b9 cd23 57b9 f6a1 3aba
00000370: 7c14 4aba 279a f3b9 8ce6 1cba 1bd2 92ba
00000380: 8601 aeba 2ac5 22bb 6b04 cfba ec8b 6fba
00000390: 493e 23bb cc0a e63b 822c 3dba 901e 52ba
000003a0: 316d 1dba 3a39 a7b9 7955 c5ba b124 40b9
000003b0: 29b2 8bb9 5a2b ccba f23d 68ba d1a0 51bb
000003c0: aa4c 62bb 12ee fbb8 c9ce 2aba 6b10 76ba
000003d0: 0a74 36ba a6ae 46ba fa04 6fbb 4e5e b2b9
000003e0: 4f6e 4aba 5848 abb9 e904 a7ba 8840 58ba
000003f0: dcc0 ae3b 1f39 08ba a983 b7b8 5da7 76ba
-0.00019584781 -0.0018289799 -8.004348e-05 -0.00059620757 -0.0009964616 -0.00014480265 -0.00041067388 -0.00027585466
-0.00041644924 -8.7933826e-05 -0.0014695221 -0.0021065525 -0.00067672407 -0.00097086496 -0.0015520223 -0.00038901618
-0.0012968717 -0.00051466614 -0.00032386076 -0.0009556278 -0.00069927494 -0.0030134537 -0.0012637309 -0.0031858466
-0.00023812255 -0.0014189235 -0.0008563805 -0.0009146041 -0.0019445197 -0.0005163695 -0.00075451855 -0.0005456812
-0.0016350982 -0.0012507552 -0.0016646788 -0.006290515 -0.0009089987 -0.0002234422 -7.053856e-05 -0.00084563374
-0.0023089955 0.010840349 -0.00021500567 -0.0021916823 -0.0046324716 -0.00058017427 -2.0690642e-05 -0.00050068775
-0.0009856381 -0.00047557882 -0.0015584606 -2.3034936e-05 -0.0003603272 -0.003012154 -0.0006740029 -0.001635774
-0.00089245493 -0.0013140135 -0.00013910985 -0.0007766476 -0.0003679583 -0.0014823984 -0.0003861951 -0.0013972659
-0.0006494028 -0.00025322614 -0.0017023797 -0.0010392785 -0.0018091127 -0.00030398034 -0.007824354 -4.648161e-05
-0.00040352685 -0.0006900644 -0.0022336084 -0.0004325064 -0.00085072767 0.0049931076 -0.002299919 -0.0020285603
-0.0003148938 -0.001098177 -9.3535535e-05 -9.414214e-06 -7.442478e-05 -0.00036610203 -0.0006487398 -0.003774095
-0.0013812796 -0.0002546532 -0.0008028752 -5.276879e-05 -0.0012612962 -0.002072446 -0.0039847796 -0.0006363186
-0.0004952814 -2.2895672e-05 -0.00015632801 -0.0003532343 -0.0002565447 -0.00011924096 -0.00011835729 -0.0021043497
-5.504694e-05 -0.0010341997 -0.0022552917 -0.0008661748 -0.0014179795 -9.899411e-05 -0.0008257911 -0.0003311123
-0.0009359471 -0.00044813383 -0.00085473893 -0.00014191512 -0.0022609597 -0.0007958027 -0.00079106755 -0.00016215284
-0.00025442784 -0.00046194225 -0.0003950349 -0.00025138742 0.0020443052 -0.00011865204 -0.0013766224 -1.992216e-05
-0.0015026641 -0.0005079112 -0.00012954556 -0.00077614334 -0.00034548558 -0.00067773164 -0.00087516825 -0.0003335415
-6.407403e-06 -0.0014818948 -0.0007495603 -0.0004499513 -0.0021607003 -0.0017405896 -0.00028299034 -0.000370717
-0.000918244 -0.0004967402 -0.0021897466 -0.00017986755 -0.0007992568 -0.004182506 -0.001912496 -0.0003152936
-0.00020809281 -0.0007559677 -0.0009004971 -0.00017674487 -0.00021297162 -0.0004702984 -6.88618e-05 0.048030514
-0.0002601419 -0.0004819161 -0.00044304683 -0.00037883283 -0.00060881395 -0.0015529658 -0.001715479 -0.004231331
-6.5903773e-06 -0.00024246714 -0.00013163044 -0.0006128894 -0.0012453933 -0.001855102 -0.0010510501 -0.0001593936
-0.0005671499 -0.0010537484 -0.00026790553 -0.001909067 -0.0025814166 -0.0016560104 -2.2598892e-05 -0.001970558
-0.0003972238 -0.00027008937 -0.0005593543 -0.0021358295 -0.0006177049 -0.0011935554 -0.00023649048 -0.0012639835
-0.0009403504 -0.00011089176 -0.001578313 -0.000102554615 -0.001167679 -0.0016147993 -0.0011370302 0.021669684
-0.0004301269 0.016487092 -0.001253638 -0.0010293457 -0.0011251864 -0.0007923275 -0.000551525 -0.0006652822
-0.0023350113 -3.7579026e-05 -0.0006907223 -0.00031701766 -0.0019711403 -0.00091270386 -0.00083401316 -0.0029105404
-0.00028583352 -0.00044538692 -0.00020517335 -0.0007119471 -0.0007708741 -0.00046463424 -0.0005985282 -0.0011201532
-0.00132756 -0.0024836757 -0.0015794163 -0.00091379764 -0.002490895 0.00702033 -0.000721641 -0.00080154184
-0.00060053455 -0.0003189536 -0.001505538 -0.00018324215 -0.00026644886 -0.0015576885 -0.0008859328 -0.0031986723
-0.0034530559 -0.00012012957 -0.0006515799 -0.0009386602 -0.000696004 -0.0007579125 -0.0036471472 -0.00034021068
-0.0007722126 -0.00032669562 -0.0012742552 -0.0008249362 0.005333049 -0.00051965 -8.7506436e-05 -0.00094090943

fc2.weight f4 [128, 260]
00000000: 00a6 9db1 62d9 ba33 d098 602f 0051 5f33
00000010: febf 58b2 e1e6 80af 53f7 b1b0 dc7b 69b3
00000020: c831 8632 ef18 9eb2 d6f5 4133 57a5 abb3
00000030: cfd4 9133 e770 08b3 d592 8731 02d2 c632
00000040: 91f9 37b5 26d8 00b1 0288 5131 1a80 5fb5
00000050: 1e55 b9b3 1cd0 7531 d6cc 5634 5b41 3eb2
00000060: beec 79b2 6575 24b4 68bf f232 ba42 9233
00000070: 36ff 1b33 aed5 deb2 9e3d 72b1 1d3d 3f32
00000080: 4de1 3e33 f428 3432 b9bb 4c33 ffec d031
00000090: 24ad 28b2 40c3 94b2 2877 d931 1ef4 42b2
000000a0: 2857 98b3 6e3d 1533 d01c b9b1 07ff 80b2
000000b0: b6a3 b5b6 e6bb a732 e411 3330 bbdd 95b2
000000c0: f433 4ab2 c8f7 4eb3 fc3d 9432 43bc d3b1
000000d0: a8fe c1b2 da1d ccb2 7599 f532 7b2b ae33
000000e0: 6e7c 0ab3 8f4e d931 2f25 3433 1f9c fd30
000000f0: ae5b 83b2 b8a6 1a34 c5a6 bfb1 1628 92b3
00000100: 0457 5933 8c18 5ab2 dfdf 8c33 7751 9db2
00000110: 120f 88b1 21b0 feb2 45a0 36b4 88e0 5bb1
00000120: 547b c1b2 8827 dbb2 841e 9db2 e96b 32b3
00000130: 9925 e232 ffa7 0fb6 22c6 b1b3 16de 8334
00000140: 7eb5 9d31 d4ca 3232 9789 23b1 0b88 fbb0
00000150: 2b95 86b1 c80b e0b2 534c 7eb3 330d 80b1
00000160: ff8f 1e32 ab44 8133 8027 d6b1 5fc5 bab0
00000170: 7f18 5433 74fb 6431 b1fd 03b3 85d0 28b3
00000180: 507f 4ab3 ca5a 4bb2 dfe0 2eb3 c8ee 2031
00000190: c98f b230 7b5d 0e32 9302 e4b1 ecf2 6933
000001a0: f1ba 20b3 85d9 c433 7305 d8b2 3c10 f1b2
000001b0: 4b8d 2231 14e8 2e31 d0da c434 1fca 14b4
000001c0: 1fa7 f8b1 28dd 6db2 4196 15b3 b159 a3b1
000001d0: ccdb 0832 7871 30b3 3a9d bab1 481e aeb2
000001e0: 85b5 1fb3 72ad 03b2 465a 92b1 044a 11b3
000001f0: a64a 81b4 1da8 1732 7623 dfb1 6242 2f30
00000200: 13b1 9fb3 b564 dcb2 339b 2f32 a744 66b3
00000210: 3887 7eb1 f21d 15b3 9aba 7cb0 759d 9cb2
00000220: e724 1cb0 34ef 3433 0f7f ac33 8283 b7b0
00000230: f9e3 1b33 1c5b e233 b090 1732 4e45 a430
00000240: 9699 8232 6e85 5632 0541 0634 204a 4ab2
00000250: 3272 9eb3 861a 17b3 ba8b 8bb0 7c12 e3b2
00000260: ca62 ff32 450a 56b3 3057 cf32 bd63 50b3
00000270: 6aec 46b2 62ed 4db2 789c b2af e4df a4b8
00000280: 9d99 0cb2 5fa5 28b3 abca cdb3 198f 90b3
00000290: 3625 19b3 0a91 c9b3 4001 47b4 045c 8eb3
000002a0: 4e03 d3af 9fc4 1fb2 910a d5b1 4882 dfb2
000002b0: 1fd5 8ab3 d150 43b3 d03b 87b2 ca80 9231
000002c0: a1ca 8932 2ad8 9eb2 6259 1ab3 1841 a0b2
000002d0: a7ca 2eb6 5a55 1633 d03f 04b2 5c99 4cb4
000002e0: a4ca 9c33 493f 2d31 9f2a eeb1 41af aab4
000002f0: 5c98 6c32 5181 bfb2 5746 5ab2 f43b acb1
00000300: 975e 9cb2 68c3 6631 7b8e bb33 761d 0631
00000310: ef3c 03b3 5c6b 2fb2 5298 92b2 a3b2 7fb5
00000320: 2ea8 6cb1 d632 3333 80f7 bd32 2eb0 83b3
00000330: 7cc8 a5b3 aac3 54b2 e744 7f33 89ea 6231
00000340: ad3d a6b3 7676 55b2 f7a9 c9b2 c0c1 6a32
00000350: ff66 a1b2 105f 84b3 1a1d e7b1 cbd1 94b4
00000360: 0094 42b3 0f1b 2bb3 5dcd f932 91b7 b334
00000370: e888 a931 7d03 c8b2 c516 abb2 0ef5 abb2
00000380: e2e0 50b3 d4cb 1030 526c 9530 78f5 3fb4
00000390: 16fa 1cb3 5c27 f5b4 dd6b 6932 6863 0332
000003a0: 4dd2 c9b2 af6b 5ab2 b22d 36b4 373b 03b3
000003b0: c04d 1732 9317 b1b3 7a55 cc33 3a55 ceb6
000003c0: 910f 23b3 ade6 31b3 0805 51b1 4264 b1b2
000003d0: e5aa 0bb2 1d0b dbb2 7f99 dc32 2874 54b3
000003e0: 4598 39b3 c97e 8a32 8f65 8f33 77bc 8ab2
000003f0: bf63 30b5 8516 9cb2 8cad 66b2 1418 2e31
-4.5881734e-09 8.700842e-08 2.0426971e-10 5.1994903e-08 -1.2616509e-08 -2.3447114e-10 -1.2948739e-09 -5.436219e-08
1.5622291e-08 -1.840496e-08 4.51599e-08 -7.992883e-08 6.790798e-08 -3.176765e-08 3.94571e-09 2.3145734e-08
-6.853598e-07 -1.8749318e-09 3.0490814e-09 -8.3260386e-07 -8.6302165e-08 3.5770489e-09 2.0004822e-07 -1.1074316e-08
-1.45475365e-08 -1.5316398e-07 2.825955e-08 6.810792e-08 3.6320863e-08 -2.5941372e-08 -3.525066e-09 1.1131559e-08
4.4442732e-08 1.0486691e-08 4.7668184e-08 6.08054e-09 -9.818255e-09 -1.7318257e-08 6.3290777e-09 -1.1347792e-08
-7.093905e-08 3.4747636e-08 -5.3874842e-09 -1.5017134e-08 -5.413279e-06 1.9526805e-08 6.5145245e-10 -1.7446714e-08
-1.176976e-08 -4.818847e-08 1.7257655e-08 -6.162311e-09 -2.2583961e-08 -2.37623e-08 2.8591538e-08 8.1104155e-08
-3.2243797e-08 6.3244623e-09 4.1943334e-08 1.8452545e-09 -1.5292098e-08 1.440302e-07 -5.577791e-09 -6.8059464e-08
5.060339e-08 -1.2694851e-08 6.55998e-08 -1.8314251e-08 -3.9598342e-09 -2.9649586e-08 -1.7008377e-07 -3.1996326e-09
-2.252424e-08 -2.5512932e-08 -1.8291082e-08 -4.1542e-08 2.632696e-08 -2.1406447e-06 -8.278245e-08 2.456224e-07
4.5899347e-09 1.0407081e-08 -2.3797833e-09 -1.8301319e-09 -3.9168717e-09 -2.608239e-08 -5.92084e-08 -3.726791e-09
9.229551e-09 6.019521e-08 -6.2327103e-09 -1.3589377e-09 4.9382376e-08 3.3321301e-09 -3.0731545e-08 -3.9305196e-08
-4.714758e-08 -1.1836798e-08 -4.071705e-08 2.3418796e-09 1.2992071e-09 8.286743e-09 -6.635966e-09 5.4470476e-08
-3.7422925e-08 9.166528e-08 -2.5148188e-08 -2.8063475e-08 2.3654418e-09 2.5452254e-09 3.6667052e-07 -1.3857105e-07
-7.2367494e-09 -1.3845501e-08 -3.482842e-08 -4.754121e-09 7.966218e-09 -4.1081393e-08 -5.431187e-09 -2.0270036e-08
-3.7185163e-08 -7.6646405e-09 -4.259422e-09 -3.382776e-08 -2.4082436e-07 8.827581e-09 -6.4941856e-09 6.3758965e-10
-7.436224e-08 -2.5657167e-08 1.0221629e-08 -5.3613487e-08 -3.7038728e-09 -3.4719e-08 -9.194224e-10 -1.8232393e-08
-5.680491e-10 4.212707e-08 8.032486e-08 -1.3352379e-09 3.629609e-08 1.0540518e-07 8.822255e-09 1.1952268e-09
1.5203835e-08 1.2486778e-08 1.2503376e-07 -1.1774802e-08 -7.37822e-08 -3.518155e-08 -1.0153294e-09 -2.6434684e-08
2.9730831e-08 -4.9835098e-08 2.413762e-08 -4.8519485e-08 -1.1578871e-08 -1.1986545e-08 -3.248919e-10 -7.861832e-05
-8.184e-09 -3.9265952e-08 -9.5829215e-08 -6.731552e-08 -3.565693e-08 -9.386174e-08 -1.8533774e-07 -6.629128e-08
-3.8383025e-10 -9.2997245e-09 -6.200317e-09 -2.6019862e-08 -6.464892e-08 -4.5475478e-08 -1.5743268e-08 4.263801e-09
1.6041044e-08 -1.849192e-08 -3.5937212e-08 -1.8656053e-08 -2.604598e-06 3.5002223e-08 -7.6979205e-09 -1.9054772e-07
7.301176e-08 2.5210787e-09 -6.931557e-09 -3.1792482e-07 1.37716505e-08 -2.2294133e-08 -1.27052635e-08 -5.0126747e-09
-1.8203805e-08 3.358048e-09 8.733783e-08 1.9516313e-09 -3.0556233e-08 -1.0210751e-08 -1.7065904e-08 -9.5254853e-07
-3.443812e-09 4.172292e-08 2.2115046e-08 -6.13221e-08 -7.719879e-08 -1.2384513e-08 5.943448e-08 3.3020646e-09
-7.741196e-08 -1.2425167e-08 -2.347677e-08 1.3664646e-08 -1.8789704e-08 -6.164021e-08 -6.7262933e-09 -2.7719793e-07
-4.530375e-08 -3.983865e-08 2.9080804e-08 3.347491e-07 4.934112e-09 -2.328465e-08 -1.9917374e-08 -2.0018458e-08
-4.8633304e-08 5.267655e-10 1.0871963e-09 -1.7877562e-07 -3.6549032e-08 -4.5663444e-07 1.358691e-08 7.647806e-09
-2.3495113e-08 -1.27137545e-08 -1.6966695e-07 -3.055467e-08 8.807035e-09 -8.246493e-08 9.5150384e-08 -6.1492e-06
-3.7965552e-08 -4.1420822e-08 -3.0416363e-09 -2.0651104e-08 -8.129722e-09 -2.550001e-08 2.5681173e-08 -4.946574e-08
-4.3212157e-08 1.612297e-08 6.67743e-08 -1.6151018e-08 -6.571026e-07 -1.8171031e-08 -1.3427222e-08 2.533402e-09

fc2.bias f4 [128]
00000000: 8741 6bb6 7c17 69af af14 3cb0 721f d639
00000010: 1e46 20b1 be07 89b5 a67e beb5 2f26 fdba
00000020: 4adc cd3b e922 30af 582a 37b2 e803 b9ba
00000030: 41d1 b2b3 fbbc 15a5 5e0b 0cb3 b8f8 98b2
00000040: cbc8 8cb1 8c50 72b8 713b cbbb c9a5 c2b5
00000050: 0f40 12ad 377b 90b9 8a94 3eb8 2499 c2bb
00000060: 613f fcb2 ee6a bbb1 a0ab 1db6 0ddc feae
00000070: d9d9 b3b8 623f 9eab b2e2 1d3e a3ab fcb6
00000080: 3e6d 71b4 9915 16b4 1154 c9b7 ed9c 24ba
00000090: f3aa 8eb0 63e5 86bd 4cd0 23ac c037 88b9
000000a0: 6b55 a8b9 cabc 14b1 7499 16b9 559a a0ad
000000b0: 650f 36bb 878c a13c a79b 08b9 06b9 833c
000000c0: d612 8eb8 7248 813d 8b69 85a5 6214 8cb9
000000d0: 4a3d 21ad 59e3 81ac 871d 2cba 3f4f 0cbb
000000e0: 2b10 59bc 3a24 aaa8 b40f 9bb8 d415 38bb
000000f0: 92c7 37b8 1039 8ab6 97ef bbae cd5a 5eb9
00000100: 819a c2b8 95b0 c2b2 9075 d7b6 2bee 8db5
00000110: 4e5a 8fb8 9641 b5b0 e3b3 d63b 9c28 80b8
00000120: 98a9 aeb8 bcee afb3 d46b d6b3 fc0e 68b6
00000130: d07c ffb7 b9e3 0db7 3381 41ba 4f3c 5db0
00000140: 2e73 80bb fa4c 0b3d 3daa 03b9 3c80 8cb4
00000150: 6b3f e3b6 012e 95bb 6ee1 07ad 78e0 db3b
00000160: 73a0 fcb8 4f84 57b6 5e06 96b9 67d0 adba
00000170: 5e67 1abb cf14 afbd 5702 aeb3 91ba 94bb
00000180: 6c35 93b6 1d10 08aa a995 bcbb 2fe1 88bb
00000190: c256 52bb db4b 53ab a35e a5af c3bf cbb5
000001a0: 8449 5ab4 af38 3eb8 fc9a 26b7 0536 29b7
000001b0: f326 39aa 7f9a a0ba bfc1 47b4 f2d8 a1ab
000001c0: a62d 1cb4 0c6a ecba 6290 8ab9 7141 18b6
000001d0: 85f5 c9a5 1d5d eeb8 6699 acb3 9304 c6b1
000001e0: aedb fbba c9ce 94b7 dbf7 0aa4 a943 44b6
000001f0: bedf 9dba c58a a5b4 d7e0 bdb5 0ff1 1db6
-3.505587e-06 -2.119957e-10 -6.8423395e-10 0.0004084069 -2.3322921e-09 -1.0209549e-06 -1.4192963e-06 -0.0019313748
0.006282364 -1.601951e-10 -1.066163e-08 -0.0014115544 -8.326834e-08 -1.2987719e-16 -3.260663e-08 -1.7808233e-08
-4.097364e-09 -5.777231e-05 -0.0062021543 -1.4502376e-06 -8.313363e-12 -0.00027557623 -4.5437868e-05 -0.005938666
-2.9365482e-08 -5.454573e-09 -2.3494722e-06 -1.15896716e-10 -8.5759624e-05 -1.1244167e-12 0.15418509 -7.5301664e-06
-2.2484616e-07 -1.3977696e-07 -2.4000214e-05 -0.0006279487 -1.0380447e-09 -0.06586721 -2.3279321e-12 -0.00025981478
-0.00032107098 -2.1644149e-09 -0.0001436228 -1.8258431e-11 -0.0027780172 0.019720329 -0.00013027956 0.016079437
-6.774596e-05 0.06312646 -2.314334e-16 -0.00026718067 -9.165399e-12 -3.691641e-12 -0.0006565679 -0.002140954
-0.013248484 -1.8889502e-14 -7.393901e-05 -0.0028089182 -4.3816464e-05 -4.1193634e-06 -8.546335e-11 -0.00021205396
-9.2794195e-05 -2.2664873e-08 -6.4211854e-06 -1.0574635e-06 -6.835592e-05 -1.3188124e-09 0.006552206 -6.11108e-05
-8.328556e-05 -8.192498e-08 -9.9847654e-08 -3.4579416e-06 -3.045649e-05 -8.457276e-06 -0.0007381618 -8.0485035e-10
-0.0039199805 0.034008957 -0.00012556552 -2.6170335e-07 -6.77251e-06 -0.0045526032 -7.723917e-12 0.0067101084
-0.000120461824 -3.211451e-06 -0.00028614973 -0.0013260961 -0.0023560147 -0.08548891 -8.102932e-08 -0.004538842
-4.3871605e-06 -1.2084817e-13 -0.0057551456 -0.0041772346 -0.0032095169 -7.506753e-13 -3.0080569e-10 -1.5180489e-06
-2.0329577e-07 -4.535232e-05 -9.930456e-06 -1.0085762e-05 -1.6444814e-13 -0.0012253075 -1.8603804e-07 -1.1499952e-12
-1.4545239e-07 -0.0018036976 -0.00026428985 -2.2687857e-06 -3.5034312e-16 -0.00011366068 -8.037277e-08 -5.7630785e-09
-0.001921525 -1.7739267e-05 -3.0133922e-17 -2.924566e-06 -0.001204483 -3.0834613e-07 -1.4147034e-06 -2.3535138e-06

fc3.weight f4 [1, 128]
00000000: ade1 e636 a40c be2e 3beb c8b0 7612 02ba
00000010: 38d0 91b0 77c8 db35 8c3f ffb4 a364 f1ba
00000020: c10e 7d3d 3f77 0baf 3aa1 8cb2 0b97 bf38
00000030: 549d cfb3 2782 0ca5 63bb 8132 05ed 16b2
00000040: 4008 8eb0 affd 0a38 853c bd3b e618 04b8
00000050: 468a e6aa b904 34b8 705a 1db7 78b8 dbbb
00000060: ba17 d531 c4b3 b3b0 77b7 8837 2d98 77ae
00000070: a89c ee37 7e7d 042b 1c28 e93e dcb6 8f36
00000080: 354b aa33 b3b0 6533 8e4d 0136 711d ebb9
00000090: a351 87b0 ea31 babd 8e6e edac 4999 dd38
000000a0: a040 5d3b c449 922f e97d 0338 4c55 94ad
000000b0: 4c5b adba f7ac 0f3e a2c6 be38 0bcc 093e
000000c0: f0a8 9837 0141 edbd 910f c023 bb79 3938
000000d0: b1fc 90ab 8aaa 9b2c 246b 1637 b769 133b
000000e0: 8b82 203a c28a d036 a4a0 3b39 df8e a33a
000000f0: 21bf c637 ef72 24b6 3ee8 9f2e 6aa6 7938
00000100: 2855 abb8 0633 2ab3 f686 99b6 9d9d 5036
00000110: 807b 99b7 98ac 21b0 e9d7 00be bd79 5e3a
00000120: f20c 08b7 4ffe 5434 883c 5b33 1b7e e035
00000130: 2df5 ea37 9370 3b37 eafc c6ba 9342 c9af
00000140: aae0 ec3b 80e0 bfbd 11c1 8cb9 d7db 8632
00000150: 451e c7b5 685b 473d 7a5d 01ac 2b68 443e
00000160: 96bd 2d37 1467 91b6 0ee0 3e3d d8de e8ba
00000170: 613d 733a 28cf d6bd fd1b c3b3 67cd 523b
00000180: f153 9e38 c0a5 782a 8031 07ba ba32 843d
00000190: 9514 b73b 5778 8e2a 5f4c 2faf e8fa 1235
000001a0: af23 84b4 90a2 2cb8 50a3 dd36 5372 9b36
000001b0: 7b86 4ea9 b44f b53b 4c24 a5b3 4925 1fac
000001c0: 8941 f333 8899 3ebb f8ac 96b9 a236 f335
000001d0: c623 8224 db50 8cb9 cc37 e2b3 33af 0831
000001e0: f50b bfbb e92e 5138 e7b4 c1a2 15af 4736
000001f0: 6f1c a6ba d89a 9734 e824 1fb5 a8d2 af38
6.8808063e-06 8.642445e-11 -1.4618772e-09 -0.00049618573 -1.0609318e-09 1.6375114e-06 -4.7543688e-07 -0.0018416833
0.06178165 -1.2684341e-10 -1.6371462e-08 9.135724e-05 -9.6678065e-08 -1.2187162e-16 1.510279e-08 -8.785041e-09
-1.0334205e-09 3.3138025e-05 0.0057750368 -3.149444e-05 -4.0952154e-13 -4.2919743e-05 -9.378986e-06 -0.00670534
6.2018133e-09 -1.3075057e-09 1.6297896e-05 -5.6296457e-11 2.844476e-05 4.7069976e-13 0.45538414 4.2830197e-06
7.929922e-08 5.3478924e-08 1.926764e-06 -0.00044844628 -9.845745e-10 -0.090915516 -6.748219e-12 0.00010566653
0.0033760443 2.660966e-10 3.1350097e-05 -1.6863531e-11 -0.0013226061 0.14030825 9.096904e-05 0.13456742
1.819848e-05 -0.11584664 2.0823274e-17 4.4220807e-05 -1.0301951e-12 4.4242986e-12 8.965642e-06 0.002249343
0.0006122968 6.2150366e-06 0.00017893553 0.0012478492 2.369244e-05 -2.4504805e-06 7.2717374e-11 5.952121e-05
-8.169777e-05 -3.9627615e-08 -4.575467e-06 3.1086158e-06 -1.829653e-05 -5.881673e-10 -0.12582363 0.00084867683
-8.109246e-06 1.9836556e-07 5.1044964e-08 1.6726002e-06 2.8009143e-05 1.1172279e-05 -0.0015181575 -3.660899e-10
0.0072289305 -0.09368992 -0.00026846727 1.5699625e-08 -1.4835465e-06 0.048671156 -1.8383892e-12 0.19180362
1.0355745e-05 -4.3333366e-06 0.046600394 -0.0017766608 0.00092788605 -0.10488731 -9.085486e-08 0.0032165886
7.5496624e-05 2.2084331e-13 -0.00051572174 0.06454988 0.0055871704 2.530777e-13 -1.594329e-10 5.4754355e-07
-2.461288e-07 -4.1159394e-05 6.6053253e-06 4.632669e-06 -4.5857832e-14 0.005533183 -7.6900136e-08 -2.2615956e-12
1.132749e-07 -0.002908321 -0.000287391 1.8120811e-06 5.6439116e-17 -0.00026763123 -1.05340945e-07 1.9890194e-09
-0.005830283 4.987317e-05 -5.2504293e-18 2.9755222e-06 -0.0012673269 2.8238605e-07 -5.928582e-07 8.383888e-05
