final_ckpt_actor_0.pth (torch_old, 159204 bytes, 6 tensors)

fc1.weight f4 [256, 24]
000000 71 5c 90 3d 46 f0 e2 bd ff 4a 9e 3c d4 37 81 be
       0.07048882 -0.11080985 0.01932287 -0.25237906
000010 80 6d 81 bd ad 0c 95 be b2 85 c3 3c 4c 94 33 be
       -0.063197136 -0.29111233 0.023867462 -0.1753704
000020 5c 41 cb 3d a5 8b c6 bd 4e 3c 4e bd 92 c5 72 be
       0.09924576 -0.09694604 -0.05035048 -0.2370818
000030 54 96 d3 3c 64 7a 65 be 45 c8 3f 3c 63 4c 3c be
       0.025828518 -0.2240997 0.011705463 -0.18388514
000040 2b 10 9c 3d 33 ec 60 be e8 03 7e bd 42 f7 1d 3a
       0.07620271 -0.21965103 -0.062015444 0.0006025919
000050 c2 da 1b 3c ae 3c a0 3c 3a 11 5e 3b 67 8a 36 bd
       0.009512605 0.019560184 0.003388478 -0.044565585
000060 92 2e d7 3c b7 0a c4 bd 16 94 7a bd 34 cd cd 3d
       0.026267324 -0.09572356 -0.061176382 0.10048905
000070 9c 4e 1e 3d c1 4f 44 be ab b0 57 bd 99 5f fd 3b
       0.038649186 -0.19171049 -0.052658718 0.0077323434
000080 cb 5b 4f 3d 24 a2 3b bd 19 00 ca 3c 21 da bb 3d
       0.05062465 -0.045808926 0.02465825 0.09172464
000090 85 51 22 3d 32 19 3b be 8f 76 ba bc 52 75 d0 3d
       0.039628524 -0.1827133 -0.022761611 0.10178627
0000a0 ef 70 b5 3d 22 1a 18 be 13 76 a5 bd dc ea b0 bd
       0.08859431 -0.14853719 -0.080791615 -0.08638546
0000b0 fd 6d f6 3d 46 64 ca 3c c3 ba 11 bd cf 64 ff bd
       0.12032697 0.024706017 -0.0355785 -0.124703996
0000c0 2e 57 db bd a8 c2 77 3e 30 33 2b 3b d0 d4 86 3d
       -0.107099876 0.24195349 0.002612304 0.065835595
0000d0 09 2f 33 3d 43 ff 0c 3e 80 26 a4 bd 91 96 42 3c
       0.043746028 0.1376925 -0.08015156 0.011876718
0000e0 47 61 36 bd 02 03 48 3e 26 09 2f 3c 4a b4 a0 bd
       -0.044526365 0.19532397 0.0106833335 -0.078468874
0000f0 6b 91 ac 3d e8 09 3c 3e e7 ac f4 3c 2c 2a 70 bd
       0.08426174 0.18363154 0.029867603 -0.05863397
000100 16 72 9a bc f4 dc 3a 3e a3 7d 64 bc fb 45 1d bd
       -0.018853229 0.1824835 -0.01394597 -0.038396817
000110 b6 d5 21 3e f5 5f 3c 3e 45 d9 04 3d e4 6e 16 3d
       0.1580418 0.1839598 0.032433767 0.036726847
000120 46 3d 44 3d 33 ee e7 3d dd 5f d1 3c 5f 77 6a bd
       0.047909997 0.1132473 0.025558406 -0.057242747
000130 95 9e a2 3d 07 5a 2a 3e d1 40 4a 3d 02 7d 83 bd
       0.07940403 0.16635905 0.04937822 -0.06420328
000140 79 69 84 bc 05 4b dc 3d 99 72 58 bd b5 f8 08 3d
       -0.016163575 0.10756496 -0.052843664 0.03344031
000150 24 b8 69 3e be 4a 35 3d 19 dd 6b bc 50 a0 d7 3d
       0.2282415 0.044260733 -0.0143959755 0.10528624
000160 54 a9 47 3d 61 ac 29 3e e9 7f 35 bd 67 b7 98 3c
       0.04874547 0.16569664 -0.044311438 0.01864214
000170 4a 14 a8 3e 56 9d 9a bd 95 b0 55 3d 8f 6d 45 3d
       0.3282798 -0.07549541 0.052170355 0.048200186
000180 73 f3 4a bd 66 f8 68 be 48 f4 4c 3d 75 c7 9d 3c
       -0.049548578 -0.22751006 0.050037652 0.019260148
000190 6a 00 f9 3c 06 c3 a6 bb 9c 2c 64 bd ad fc 58 bd
       0.030395705 -0.0050891666 -0.055706605 -0.052975345
0001a0 7d f5 d7 bc 20 a9 0b be 0f 0a 28 bd 7c e6 20 3d
       -0.026362175 -0.13638735 -0.041025218 0.039282307
0001b0 df e0 3f 3e fa f6 e5 3d 08 fe 9b bc d5 4d da 3d
       0.18738125 0.11228748 -0.01904203 0.106593765
0001c0 f4 8e d4 3d 06 36 18 bd 9e 15 3f bc 71 3e d3 bd
       0.10378829 -0.037160896 -0.011662869 -0.10314644
0001d0 37 d8 4f 3e 71 30 4e 3e ea 06 dd 3c fa e9 0e bd
       0.20297323 0.20135666 0.026980836 -0.034891106
0001e0 c1 e8 48 bd 58 67 8b bd 89 25 85 bd 48 a6 38 be
       -0.049050096 -0.06806821 -0.065013 -0.18032181
0001f0 c0 82 95 3d 35 3f 99 be b6 48 58 3c 36 fc 25 be
       0.07300329 -0.29931036 0.013200929 -0.16209492
000200 81 b9 98 bd f2 17 1d be 55 05 14 bd 08 a3 58 be
       -0.07457257 -0.15341166 -0.036137898 -0.21155941
000210 2c fc 97 3c 5e f4 3a be 5f d9 00 3d fe 09 3e be
       0.018552862 -0.18257281 0.0314573 -0.18558499
000220 80 2c 97 bd f7 39 86 be 1e 10 36 bc f2 5e cd 3c
       -0.073815346 -0.262161 -0.011112241 0.025069688
000230 0f 17 19 3e 6e 95 97 bc 2c 23 3c bb e6 9d 93 ba
       0.14950202 -0.01850387 -0.0028707488 -0.0011262267
000240 63 21 f5 bd cd a1 16 bd 84 55 b1 bc 4f ec 13 be
       -0.11969259 -0.0367754 -0.021647222 -0.14445613
000250 f3 57 06 3e 48 e7 bb be b9 08 be 3b 06 f4 60 bd
       0.13119487 -0.3669989 0.0057993797 -0.05492022
000260 21 24 8f bc e7 d4 09 be 5d 57 09 3d 83 b7 12 be
       -0.017473282 -0.13460122 0.03353058 -0.14327817
000270 4d 2c 87 3d e9 ca 0f be 9a 4e 49 3c 7f 48 0a be
       0.066002466 -0.14042248 0.0122868065 -0.13504218
000280 2c a9 f0 bd 26 7f 14 be 5a 9a 14 bd 97 bf 7c 3e
       -0.11751017 -0.14501628 -0.036280014 0.2468246
000290 96 27 1b 3e d7 fa f7 bd 72 03 1d bd 71 20 8e 3e
       0.1515182 -0.12108391 -0.038333364 0.27759126
0002a0 fe 64 0d 3d a6 56 80 bd b7 04 ca bc f7 43 e5 3d
       0.03452014 -0.06266527 -0.024660451 0.11194604
0002b0 92 1d 54 3d da 6f 40 3d 31 04 55 3b 04 71 87 3d
       0.051786013 0.04698167 0.003250372 0.06613353
0002c0 34 7d 1b 3d 44 03 8e 3c 90 c7 2b bd 43 ec 52 3b
       0.0379612 0.017335542 -0.041938365 0.003218428
0002d0 47 dd ac bd 25 27 a7 3d 17 b0 e9 bc f6 ba 2f 3c
       -0.08440643 0.08161763 -0.028526349 0.010725727
0002e0 4f 0b 7f 3d 94 88 8e 3a 3f af 9a 3c ae 39 46 3e
       0.062266644 0.0010874444 0.018882392 0.1935794
0002f0 93 60 1e be a8 03 a9 3d 65 71 c3 3d f8 44 32 3e
       -0.15466528 0.082526505 0.09543113 0.17409122
000300 38 0b 17 be 76 38 88 3e d9 1b cb 3c 7f fd f1 3c
       -0.14750373 0.26605576 0.024793552 0.029539822
000310 b5 75 5a 3d d1 9b 80 bd 5f 35 df 3c 58 d3 88 3b
       0.05333491 -0.062797196 0.027247129 0.0041755848
000320 df 48 9e bd 99 40 6a 3e c6 cc 99 bc fd a4 a0 bd
       -0.07728743 0.22876205 -0.018774401 -0.07843969
000330 d6 80 17 3e ff d7 51 bc bb a5 bc 3a a2 f2 5b bd
       0.14795241 -0.012807845 0.0014392653 -0.05369819
000340 ef c3 62 bc a4 28 6f 3e 18 2d 83 3d a8 6c 51 bd
       -0.0138406595 0.23355347 0.06405085 -0.051129013
000350 40 fa 35 3e 93 35 3a 3c cf 53 5f bc 11 70 f0 bd
       0.17771244 0.011365312 -0.013630821 -0.11740125
000360 e5 40 e6 3b 4b c5 54 3e 79 32 2c 3d b7 15 dc 3c
       0.007026779 0.20778386 0.042040322 0.026865823
000370 7a ff 27 be ef 01 da bc 14 b6 0a 3d 6a 17 36 3d
       -0.1640605 -0.02661225 0.03386505 0.044455923
000380 17 70 ad bd 15 ee 44 3e 50 b4 a4 3c cd b5 37 3d
       -0.08468645 0.19231446 0.020105511 0.044851113
000390 d2 19 86 bd 72 21 e1 bd 42 24 ce bc 7e 75 d0 bc
       -0.065478936 -0.10992707 -0.025163773 -0.02544665
0003a0 03 b6 f8 bc ff 4f 2d 3e 82 de 48 bd ab 82 cb 3d
       -0.030360227 0.16925047 -0.049040325 0.09937032
0003b0 25 25 96 b9 3b 7f a8 be 9e 40 44 3d 58 03 96 3d
       -0.00028637904 -0.3290957 0.047913186 0.073248565
0003c0 9b d5 cc bd c5 55 60 3d 69 b2 2c 3c e4 e3 47 bc
       -0.100016795 0.054769296 0.010540583 -0.012200329
0003d0 cc 28 a8 bd be 40 b7 3d 30 68 02 bd b8 76 32 3d
       -0.082109064 0.089478955 -0.031837642 0.04357025
0003e0 07 74 7c bd d0 74 8a 3d b8 08 45 3c 6b fd 6b 3a
       -0.06163409 0.067605615 0.0120260045 0.0009002301
0003f0 94 bf ac 3d 67 cf 6d bc 0b 56 f0 bc 31 5e b7 3c
       0.08434978 -0.014514781 -0.029337903 0.022383781

fc1.bias f4 [256]
000000 86 f7 60 be 65 51 14 bd 35 68 38 3e 51 8a 0d 3e
       -0.21969423 -0.036210436 0.18008502 0.13822295
000010 c2 84 20 bd 0e f3 93 be 70 7b 7f be e7 af 58 bd
       -0.039189108 -0.28896374 -0.24949431 -0.05290213
000020 1f 0b 03 be cd 5d 9b bd 0b 6d 80 3e f7 72 a3 bd
       -0.12797211 -0.075862505 0.25083193 -0.07980912
000030 7b 0e 45 bd 74 18 23 bd f6 b2 20 bd b5 25 22 3e
       -0.048109513 -0.039818242 -0.03923317 0.15834697
000040 0d 9f 18 3d d8 11 fa bb 9f c3 7d bc b1 f2 34 be
       0.037261058 -0.0076315217 -0.015488534 -0.17670704
000050 e7 aa d5 bc 1b aa 89 be 45 3e 32 bd 4c db de bd
       -0.02608247 -0.26887593 -0.043516416 -0.10881671
000060 0c 84 04 3e e1 d5 11 bd a4 94 17 3e 19 2c 87 3d
       0.12940997 -0.03560436 0.14802796 0.06600208
000070 4d df 9e bd 8e e9 54 3d 95 25 d3 bc 83 25 b2 bd
       -0.07757435 0.051980548 -0.025774756 -0.08698561
000080 5b 3e d6 bd f6 fb 33 3e fc 00 9a bc 7b 8b 48 3c
       -0.10461112 0.17576584 -0.018799298 0.012240286
000090 d4 d8 28 be 83 57 8d 3e 4d 32 e6 bd 05 fb 04 3d
       -0.16488963 0.2760583 -0.11240063 0.032465953
0000a0 e4 80 80 be 78 2e 9e bd 80 02 89 3d 4f e5 9d bd
       -0.25098336 -0.07723707 0.0668993 -0.07709753
0000b0 ff 74 2c bd fa 97 78 bd 4a e8 4f bb af 90 32 be
       -0.042103764 -0.06069181 -0.0031724148 -0.17438005
0000c0 73 33 ae 3e ce b5 33 3e 01 36 79 bd 60 54 47 3e
       0.34023628 0.17549822 -0.060842518 0.1946578
0000d0 93 be ce bd d7 64 eb bd 9f a7 dd 3d c5 a1 e0 3a
       -0.10094943 -0.11493843 0.10822987 0.0017138055
0000e0 55 18 5c 3e f0 bb 7a bc 78 dd 75 be dd ed 32 3e
       0.21493657 -0.015303597 -0.24010265 0.1747355
0000f0 46 0b d7 3d af 78 5d 3e c3 c9 bb bc c5 1e 5e bd
       0.10500197 0.21628068 -0.022923356 -0.054228563
000100 ef 67 72 3d 87 ed 4e bd 78 ef d8 bd 30 08 e2 3d
       0.05918115 -0.050519492 -0.1059255 0.11036718
000110 cb c0 50 be 59 06 cf bc a5 b9 8b bc 99 f2 2b be
       -0.20386045 -0.025271581 -0.017056296 -0.16791762
000120 9c 24 f2 bd ab 9b 84 bd 02 99 e1 bd 8a 9e 41 3e
       -0.11823389 -0.06475004 -0.11015512 0.18908134
000130 e1 3c 90 3d 5d 68 1d 3e a0 d9 7e bd a2 a4 d7 3d
       0.07042862 0.15371843 -0.062219262 0.10529448
000140 21 49 a5 bd 73 31 18 3d 95 cb 98 be 8d 49 84 be
       -0.08070589 0.037156533 -0.2984282 -0.25837365
000150 23 bf b9 ba 73 53 a3 bd 8e 8f 28 be 9c 52 28 3e
       -0.0014171343 -0.07974901 -0.16461012 0.16437763
000160 1e 18 39 be 98 58 bd bc a9 3e 8a bc 31 29 25 3d
       -0.18075606 -0.023113534 -0.016875582 0.040322486
000170 af b2 3d be 9f 72 5e 3e af 5d d7 bd 00 70 48 be
       -0.18525194 0.21723412 -0.105159156 -0.19573975
000180 14 7a 39 3e 9e 77 81 be a9 91 30 3e 94 e8 cb 3d
       0.18112975 -0.25286573 0.17243065 0.0995647
000190 d6 e8 58 3c f8 33 d2 bd 25 06 97 bd 35 83 09 3e
       0.013239106 -0.102638185 -0.07374219 0.13428958
0001a0 b3 82 31 be ac 2e a0 3d 98 cd 51 3d 91 78 bd 3d
       -0.17335014 0.07821402 0.05122146 0.09251512
0001b0 dc 0c 17 3c 5a fd 79 bc 42 22 b9 bd 95 55 4b be
       0.0092193745 -0.015258158 -0.09039737 -0.19856866
0001c0 9f 9f b2 bb bd 8b 93 be 05 3b 4a 3c 0f 38 45 3e
       -0.005451157 -0.2881755 0.012343173 0.19259666
0001d0 93 f2 5b 3e bb 13 fe bd 8f 90 21 be 67 93 2d 3d
       0.21479253 -0.12406107 -0.15777801 0.042376902
0001e0 95 93 9a bd 2b 18 0b 3d 3b 69 75 3e 1f 82 19 3e
       -0.0754768 0.033958595 0.23965923 0.14991044
0001f0 83 28 bd 3d c8 1a ca 3d 89 9b 5c bd 9d c2 b8 bc
       0.092362426 0.09868389 -0.053859267 -0.022553736
000200 dc 1d b7 3d dd 9d 48 be c3 c9 3b be 89 25 d0 3d
       0.08941242 -0.1959147 -0.18338685 0.10163409
000210 a4 db e9 bd c7 87 64 3e 04 96 6f 3e bf 41 3a 3e
       -0.11418846 0.2231742 0.2339707 0.18189143
000220 4f 0a 26 3d 05 6e f9 3c 5b 3b 24 3e 4c ee 25 3e
       0.040537175 0.03044797 0.16038267 0.16204184
000230 41 73 b3 3d 0c 99 e2 bd 0c 01 88 3e 70 38 87 bc
       0.08762217 -0.110643476 0.265633 -0.016506404
000240 27 4c 4f 3e 92 73 c4 bd d0 e4 cf bd 00 33 08 3b
       0.20243894 -0.09592356 -0.101510644 0.0020782351
000250 bd d9 86 bd 31 17 b6 3d aa 9f 9f 3c cc f2 29 3e
       -0.06584499 0.08891142 0.019485313 0.16596526
000260 72 a8 55 3d 1a 12 51 be 20 ba 67 3e 63 dd 58 bd
       0.052162595 -0.20417061 0.22629595 -0.052945506
000270 ca 0c 8c 3e 25 70 a0 bd 37 81 83 bc 2c 48 24 3e
       0.27353507 -0.0783389 -0.016052825 0.16043156
000280 68 7b 49 bd a3 2a 86 bd e9 43 68 bd e7 22 42 3b
       -0.049189955 -0.06551101 -0.05670539 0.0029622854
000290 87 9c 76 bd fc 3d 89 3e 73 5e c6 3d 7a 38 2b 3c
       -0.06020787 0.26805103 0.096859835 0.010450477
0002a0 08 91 0b 3e f3 fd e7 3d 26 18 fc 3c 50 d0 9a be
       0.13629544 0.11327734 0.030773234 -0.30237055
0002b0 7d 47 32 be 6d e5 ee bd a4 31 cf bd dd 83 fa bd
       -0.17410083 -0.11664853 -0.1011689 -0.12232182
0002c0 d2 02 b6 bc 9a a5 1e 3e 3e 02 d9 bd 75 e0 a0 3d
       -0.022218142 0.1549286 -0.10596131 0.07855312
0002d0 d9 87 c4 bd b7 dc 30 3e 89 43 c2 3d dd b4 cf 3c
       -0.095962234 0.17271696 0.094855376 0.025354797
0002e0 83 f4 c7 3d ba d3 f5 bd f1 f2 69 be 76 ff 07 be
       0.09763434 -0.12003274 -0.22846581 -0.13281044
0002f0 aa 79 4b 3d ac 25 77 3d 9e c5 0c 3e c7 c7 2c 3d
       0.049676575 0.06033866 0.1374726 0.04218271
000300 03 8d af bd 33 ba 63 bd 67 3a 86 3e c5 68 0a be
       -0.08571818 -0.055597495 0.26216432 -0.13516529
000310 88 26 08 bd 26 46 c8 3d 21 cf 5e 3e 3e de 79 3d
       -0.03323987 0.09779005 0.21758701 0.061002962
000320 89 ca 75 bd e1 24 03 bc 22 21 ff 3d 73 c3 93 3c
       -0.060007606 -0.008004398 0.124574915 0.018037533
000330 c3 43 3d 3e 3d 1d e6 3d 47 9f 14 bd ee 84 18 3e
       0.1848288 0.112360455 -0.03628471 0.14894459
000340 5a a3 fe bb 10 46 b7 bd f3 21 d3 3d ba 7e 0b be
       -0.007770938 -0.0894891 0.1030921 -0.13622561
000350 d1 b1 06 3e a3 20 82 3d 23 d2 d6 bd 2c 40 69 be
       0.13153769 0.06353881 -0.10489299 -0.22778386
000360 ca 4c 16 3e f7 ef 65 3e 94 d3 88 bc 07 df 06 3d
       0.1467773 0.2245482 -0.01670245 0.03292754
000370 79 75 13 be 7d fb da 3c d2 7f 42 3e 91 6a a0 3c
       -0.14400281 0.026731247 0.18994072 0.019582065
000380 ae 0b b9 bd d7 34 83 be 44 02 32 3e e5 50 44 bd
       -0.09035431 -0.2562625 0.17383677 -0.04792871
000390 6c 75 a5 bd 67 30 fe bd 8c ed 92 3e dc 23 36 3e
       -0.08079037 -0.12411576 0.2869686 0.17787117
0003a0 f5 25 05 be 02 2e a9 bd 89 cb 48 bb 34 12 dd 3d
       -0.1300276 -0.082607284 -0.0030638895 0.107944876
0003b0 79 24 3a be 75 06 38 3e 09 52 3f bc 2f a3 c8 3d
       -0.18177976 0.17971213 -0.011677274 0.0979675
0003c0 18 b3 2a bd c3 c8 a2 be 75 26 43 3d e8 6a b0 bd
       -0.041674703 -0.31793794 0.047644097 -0.08614141
0003d0 34 f3 a2 3c 18 24 d4 3d c5 8d d8 bb db 1d 85 be
       0.019891359 0.10358447 -0.006608697 -0.2599934
0003e0 5e 6a 67 bc 48 71 12 be 11 28 1a be 1f d4 ef bd
       -0.014124481 -0.14301026 -0.15054347 -0.11710381
0003f0 a7 68 a8 3e 3d cf ac 3e 29 37 d9 bd 79 a7 74 3d
       0.32892343 0.3375186 -0.10606224 0.059730027

fc2.weight f4 [128, 256]
000000 36 66 5c be c8 d8 c8 bd f2 cf 84 3d 77 d2 2a bd
       -0.21523365 -0.09806973 0.06484975 -0.04170462
000010 fb c9 95 3d 60 a2 2e be 87 b1 75 be 80 cb de 3d
       0.07313915 -0.17054129 -0.23993503 0.10878658
000020 a1 2d 1f bb 07 a6 cf 3d 76 87 28 3d 44 3e 82 bd
       -0.0024288672 0.10139089 0.04114481 -0.063595325
000030 a2 9d 43 be 56 c0 0e 3e 4b 11 9f 3c d8 fb bb 3d
       -0.19103101 0.13940558 0.019417426 0.09178895
000040 d1 f3 d6 3d 9f 02 2d 3c ed d7 bb 3c 04 51 29 bc
       0.10495723 0.010559707 0.02293011 -0.010334257
000050 c7 32 90 be 47 92 0e 3d f8 a2 52 bc 30 be 01 3c
       -0.2816374 0.03480747 -0.012856238 0.007918879
000060 fe c8 73 3d 9b a4 37 be 5d 88 79 3c bf 18 cd bc
       0.059517853 -0.17933886 0.015230265 -0.025036214
000070 ba ae 22 3d f7 b5 ce bc 58 48 12 3e f7 21 b0 3d
       0.039717413 -0.025233252 0.1428541 0.08600228
000080 a2 04 0a 3e 56 b5 e4 3d d7 5a c5 3d 4b 91 e6 3c
       0.1347833 0.111673996 0.09636467 0.028145453
000090 a8 2c a0 3d 38 7e 3d 3c 98 04 36 3e 7c 56 63 3d
       0.078210175 0.011565737 0.1777519 0.0555024
0000a0 f0 e7 d3 bd 65 15 32 3d bb 26 3c 3d 50 0e 9f 3d
       -0.10346973 0.043477435 0.045935374 0.07766402
0000b0 1c 74 20 3d 43 22 a9 3d f8 c1 fe 3d 78 eb 80 bd
       0.03917323 0.08258488 0.1243934 -0.06294912
0000c0 b0 ae e6 3d bc de e5 bc c7 a7 40 3c 4f 36 d7 bd
       0.11263788 -0.02806031 0.011758751 -0.105084054
0000d0 32 4c 94 bd 31 0c 9a 3d fc c2 f3 3c 26 48 00 3d
       -0.072410956 0.075218566 0.029756062 0.031318806
0000e0 c0 80 55 3d db 82 60 bb 94 e8 c9 be c3 a8 99 bd
       0.05212474 -0.0034257683 -0.39435256 -0.07502892
0000f0 c9 89 ae bd e5 79 15 3e 9d 79 84 3d 21 6d 5d bd
       -0.08522374 0.1459728 0.064685084 -0.05405915
000100 30 10 29 be 2d b2 b5 bc 07 64 24 bd 99 36 d4 bd
       -0.16510081 -0.022179687 -0.040134456 -0.10361976
000110 86 25 1d be 83 e8 a8 3d a9 76 92 bd 94 07 24 3d
       -0.15346345 0.08247473 -0.07151539 0.04004629
000120 00 9d 1e bd 63 d3 b7 3d 9d f0 22 bd 59 ae f7 bc
       -0.038723946 0.08975866 -0.039780248 -0.030234503
000130 a6 a1 ec 3d 0d a3 06 bd 9d 1d 86 bd fe 93 f8 b8
       0.115542695 -0.03287034 -0.06548617 -0.00011853127
000140 c5 2a 7e bd d2 60 5e bd df 65 aa bd 00 5d 50 3d
       -0.062052507 -0.054291554 -0.083202116 0.05086994
000150 bb 71 0b bd 98 11 df bd 9d 38 66 bd 60 89 25 3d
       -0.03404401 -0.108920276 -0.056206334 0.040414214
000160 24 25 f4 bd 2a 70 4c bd 57 ea a0 bd 8f 98 91 bc
       -0.119211465 -0.049911655 -0.07857197 -0.01777294
000170 2d 07 06 be 42 16 22 3e 3d 1f 3c be 29 aa 6a 3d
       -0.13088675 0.15828803 -0.18371291 0.057291184
000180 98 f6 e6 3d 54 b6 84 3e 63 59 bf 3d f6 fc 8f bd
       0.11277503 0.25920355 0.09343221 -0.0703067
000190 26 ca 6d bc a2 9b 10 3e 22 e5 71 bd c6 9e d9 3d
       -0.014513528 0.14121869 -0.05905641 0.10625987
0001a0 1f 2f 21 3f e0 08 78 bd 0f e9 08 be 72 7b 44 3e
       0.62962526 -0.06055534 -0.13370155 0.19187716
0001b0 17 f3 9b bd 65 f2 ca 3d d6 0e 09 bd ba 6f c9 bd
       -0.07614725 0.09909514 -0.033461414 -0.09835763
0001c0 53 1a aa 3d 93 f8 65 bd 28 c2 44 3c ec 22 d1 3d
       0.08305802 -0.056145262 0.012009181 0.10211739
0001d0 3b 71 63 3d 07 91 03 3e 93 20 ab 3d 3b 1f 96 bd
       0.055527907 0.12848292 0.083558224 -0.073301755
0001e0 64 58 27 3e 89 a8 00 be 34 06 3f 3c a3 83 63 3d
       0.16342312 -0.12564291 0.011659194 0.05554546
0001f0 d7 04 5a bd e7 ad 2d 3e 01 69 f1 3d dd 52 33 bd
       -0.053227272 0.1696087 0.11787606 -0.043780196
000200 67 15 32 3c 11 e0 38 3d 39 90 9a 3a 50 d6 ac 3d
       0.0108693605 0.04513556 0.0011792249 0.08439314
000210 37 da 0d be af 23 13 3e dd ed 77 3e 24 7b 46 bd
       -0.13852774 0.14369081 0.24211831 -0.04845728
000220 f4 3b 26 3d f5 0d d1 3d 16 17 ee bc 27 64 a4 bc
       0.04058452 0.1020774 -0.029063743 -0.020067288
000230 8d 51 d0 bd 49 f2 c8 bc 97 88 44 3e 58 f8 48 3c
       -0.101718046 -0.024529593 0.1919273 0.012266241
000240 bb 10 e2 3d 4c 3c 72 3d d1 01 d2 3c fd 59 a8 3d
       0.11038347 0.059139535 0.025635632 0.08220289
000250 51 64 a4 3c 93 a4 89 3d b2 44 14 3e c3 18 91 bc
       0.020067366 0.06720843 0.1447933 -0.017712003
000260 54 d9 be bc 25 99 73 3d 99 fa 84 3d cf 29 f3 bc
       -0.02329699 0.059472222 0.0649311 -0.029683022
000270 fa 15 cf 3d e2 9a 3c be 5a 90 06 3c 98 4e 9e 3d
       0.101116136 -0.18418458 0.008213127 0.07729834
000280 88 6e 01 3e 93 e3 b7 bc 42 c1 62 3d e3 d1 6c be
       0.1263982 -0.022447383 0.055360086 -0.2312694
000290 03 05 20 3e 98 d2 16 3d 4a c1 a8 3d 71 33 40 bd
       0.15626912 0.03682193 0.08239992 -0.04692406
0002a0 0f 62 dd 3d ab c3 61 3d af 9a 9a bd 66 65 00 be
       0.10809719 0.055118244 -0.07549035 -0.1253868
0002b0 6d 84 fb bb 5d 9d d5 3d d6 03 5b 3c 68 94 5d bd
       -0.0076756985 0.10430405 0.013367614 -0.05409661
0002c0 6c a2 bf 3d 3d 61 89 3c 8e 4d 9b 3d a0 a4 c4 3d
       0.093571514 0.01677 0.07583152 0.09601712
0002d0 9a d0 04 bb 83 bb a8 bc 04 3b 57 bd 99 79 0e 3d
       -0.0020265938 -0.020597225 -0.052546516 0.034783933
0002e0 6e 53 06 3d 47 f9 5c 3d 7d 2a cf 3d 39 25 3f 3d
       0.03279441 0.053948667 0.10115526 0.046666358
0002f0 d7 18 7b 3d 51 78 56 3d 38 00 0f 3d 68 57 b4 bb
       0.061302986 0.052360836 0.034912318 -0.0055035837
000300 15 5e 09 be 90 e4 f6 3b 4d b2 ad ba 01 27 97 3d
       -0.13414796 0.007534571 -0.001325199 0.07380486
000310 e4 c8 c9 bc 1f d7 73 bb a5 1b 4c 3c 16 85 7d bd
       -0.024631925 -0.003720708 0.012457763 -0.0618945
000320 a6 f5 ab 3d b2 3b 23 3d 02 99 d8 3d 17 55 64 3e
       0.08396463 0.03985185 0.10576059 0.22298084
000330 b0 bd f2 3d 28 f5 cc bc d8 3c e2 bd aa b8 1e 3e
       0.11852586 -0.025019243 -0.11046761 0.15500131
000340 ce 19 a3 bd 92 28 cc 3d 1f 5a ac 3b d3 c1 fa 3c
       -0.07963906 0.09968676 0.0052597667 0.03061
000350 a3 6b bf 3d 06 a7 ba bd e6 92 1c 3e 96 e3 f0 bd
       0.09346702 -0.091138884 0.15290412 -0.117621586
000360 34 00 06 3e 26 72 3e 3e 21 b0 0e bd 90 dd 09 be
       0.13086015 0.18598232 -0.03483594 -0.13463426
000370 1c dc 8f bc 82 63 83 bc fa d8 b1 3b 61 1e 29 3e
       -0.017561011 -0.01603866 0.005427477 0.16515495
000380 e5 1c 01 be 6f 8f f5 bd 59 63 cb 3d fd fd 20 3e
       -0.12608679 -0.119902484 0.099310584 0.15721889
000390 3f 70 88 bc 0f 01 38 bd d7 0b 97 3d d5 d0 47 bc
       -0.016655086 -0.044922885 0.07375305 -0.0121957855
0003a0 d2 12 0b be ed 9b db bd 6a 8a 8f bd 3d 9f 49 3d
       -0.13581398 -0.107231 -0.07008822 0.049224127
0003b0 3e 17 3d bd 52 67 87 3e 75 bf dd 3c e3 c8 8f be
       -0.046164744 0.26446015 0.027068833 -0.28082952
0003c0 34 d1 52 3e 54 b0 36 be 01 6f 89 3d 17 df 2d bd
       0.20587617 -0.17840701 0.067106254 -0.042449083
0003d0 bd c4 bb 3c 58 fa 35 3e df 35 27 3e 91 29 69 be
       0.02292096 0.1777128 0.16329144 -0.22769763
0003e0 42 b8 f6 3d 06 89 2c bd 55 42 c5 3c f3 6e a9 bd
       0.12046863 -0.042122863 0.024079481 -0.08273115
0003f0 82 1b b8 3d 9f b6 6d 3c 54 8a f5 3c 8a 8c ab bd
       0.08989622 0.014508872 0.029973187 -0.08376415

fc2.bias f4 [128]
000000 71 39 3a 3e a1 2e 0e 3d a1 84 40 bd fc ff f7 3d
       0.18185975 0.034712438 -0.047001485 0.12109372
000010 31 00 9c bd b6 e2 fb 3d ea 0b 02 3e 22 bc 13 be
       -0.07617224 0.12299101 0.12699857 -0.14427236
000020 ff 31 52 bd 0b 34 98 3d 16 df 9e 3c e0 d7 07 3e
       -0.05131721 0.074318014 0.019393485 0.13265944
000030 27 9c ee bd 80 92 26 3c 0b 3d a5 bc 79 52 d6 bb
       -0.116508774 0.010166764 -0.02017071 -0.006540593
000040 61 47 8a 3d d8 6c da bd 27 34 ea bc e2 33 0a bd
       0.06751896 -0.106652915 -0.028589321 -0.033740886
000050 e4 b3 a2 3d f1 35 12 3e ee 4a 72 bb a5 f5 63 3c
       0.07944468 0.1427839 -0.003697093 0.013913547
000060 5b fc 1e 3e 20 f7 bd bd 33 8d df bd bf 85 ac 3b
       0.15525953 -0.09275651 -0.109156035 0.005264967
000070 a9 74 25 3d fb e6 4a bd 88 22 03 be 77 bd 85 bd
       0.04039446 -0.049536686 -0.12806141 -0.06530278
000080 e1 ef 9b 3d 03 09 84 bd 90 8f 76 3d 8e 34 ce bd
       0.07614113 -0.06447031 0.060195506 -0.10068618
000090 29 9f 1b 3e 4d 80 55 bd 58 37 cc bd b1 b8 8c bd
       0.15197434 -0.05212431 -0.099714935 -0.068711646
0000a0 f2 12 a7 3a d3 73 1b 3e 75 70 7f bc 50 47 26 3e
       0.0012746735 0.15180902 -0.015590777 0.16238141
0000b0 da 0b 61 3d e4 96 77 bc 35 cb 8c bd b0 96 40 3e
       0.054942943 -0.015111659 -0.06874696 0.18807483
0000c0 90 17 05 be 0e 3c 58 bc ed 99 e0 bd ad ab b2 bd
       -0.1299727 -0.013197912 -0.10966859 -0.08724151
0000d0 a5 87 c5 bc ee 50 ea bb 97 e6 2e bc ef 14 c5 3c
       -0.024112532 -0.007150761 -0.010675094 0.024057833
0000e0 5c e1 f1 3d 44 51 75 bc 9f 53 07 bd 82 eb 6a 3d
       0.11810562 -0.0149729885 -0.03303873 0.057353504
0000f0 7a 3e f2 bd 06 92 b7 bd be a9 df bd 99 5f bf bc
       -0.11828323 -0.08963399 -0.10921048 -0.023361014
000100 70 b4 9f bd 8f d9 63 3d e1 14 c1 bd 19 1c 03 bd
       -0.077980876 0.055627402 -0.094278105 -0.032009218
000110 bb 88 12 bb 64 7a 27 3d 82 01 db 3c 16 9f c8 bd
       -0.002235933 0.040888205 0.026734117 -0.09795968
000120 5e 92 35 3d 09 52 d6 bd 8e 25 2c bd 63 ef a2 3c
       0.04432904 -0.10464866 -0.042028002 0.01988954
000130 40 51 58 bd e5 3d 20 3e 7a 52 95 bd 09 f1 de bd
       -0.05281186 0.15648611 -0.07291122 -0.108858176
000140 c9 87 b0 3d 12 52 cb bc a1 bb e6 3d 69 f8 a3 bd
       0.08619649 -0.024819408 0.11266256 -0.08006365
000150 28 14 38 bc 2b 39 aa bc f2 29 7a bd c0 bd 90 bd
       -0.011235274 -0.020779213 -0.06107516 -0.07067442
000160 8d c9 2a 3d 19 c4 13 be 04 15 1b 3e 7b f6 bd 3c
       0.04169612 -0.14430274 0.15144736 0.02318882
000170 af 08 b3 3b 52 09 36 3d 26 aa c9 3c 16 65 69 bc
       0.0054636816 0.044442482 0.024617266 -0.014245292
000180 9f 1a 89 3d 5f ac fc bc 01 b5 cf 3c bf 4e ec bc
       0.06694531 -0.030843912 0.025354864 -0.028846143
000190 49 79 40 3d f4 88 bf bd 0b fc 17 bd ef 28 11 3e
       0.046990667 -0.093522936 -0.0371056 0.14175771
0001a0 57 18 2c bd 51 e9 1c bd 9f af 29 be e8 ed 7c bd
       -0.0420154 -0.038308445 -0.165709 -0.061750323
0001b0 84 35 8a bb eb f4 91 3c 71 4f f4 bc 71 73 3f bd
       -0.0042178053 0.017816981 -0.029823037 -0.046740953
0001c0 9e a6 02 bd 0d dc 49 3e 63 2b 10 3e d0 98 55 ba
       -0.03189718 0.19712849 0.1407905 -0.0008148076
0001d0 77 a4 d4 bd 02 8b 73 bd 55 02 00 3d 97 8c 87 3d
       -0.10382932 -0.05945874 0.031252224 0.06618612
0001e0 6c 57 e1 3b 36 21 42 3e c3 16 03 3e e0 b9 bf 3d
       0.0068768766 0.18957981 0.12801652 0.09361625
0001f0 ff d6 06 be 8a a8 da bb 52 e2 0f 3e 95 c8 bf bc
       -0.13167952 -0.0066729235 0.14051178 -0.023411075

fc3.weight f4 [2, 128]
000000 e3 1f d4 3d 4b f3 87 3e 49 b5 44 be 5f 1c 35 3d
       0.103576444 0.26552805 -0.1920978 0.04421651
000010 29 c1 86 be d9 33 45 3d 7d f1 3f 3d e9 99 10 bb
       -0.26319245 0.04814515 0.04686116 -0.0022064394
000020 aa 15 d3 bd 95 6b 07 3e 5a 6c b9 be a0 74 5f 3d
       -0.103068665 0.13224633 -0.36215478 0.05455458
000030 73 0e f1 be 16 63 f6 3d ff e1 98 be 17 cb 2f be
       -0.47081336 0.12030618 -0.2985992 -0.17167316
000040 bc 49 a4 3e cb 5b ff be 7b 37 df be 01 d6 00 3e
       0.32087505 -0.4987472 -0.43597016 0.12581636
000050 ee 63 30 3e 66 51 8d 3e c8 b4 63 be 55 ca e5 be
       0.1722562 0.27601165 -0.22236931 -0.4488093
000060 2e 22 5d 3c 94 44 06 be 30 ee 8c be 89 67 f9 be
       0.013496919 -0.13112098 -0.27525473 -0.48711804
000070 01 c8 b6 3d 90 12 bc be 9f 56 2a be be e2 8f be
       0.089248665 -0.36732912 -0.16634606 -0.28102678
000080 cd a8 9d 3e e5 37 6e be 7b 6a 20 3e 78 a3 05 be
       0.30792847 -0.2326351 0.15665619 -0.1305064
000090 49 9e 08 3e 92 99 15 be 55 ce 29 be 95 89 bf 3d
       0.13341631 -0.14609364 -0.16582616 0.093524136
0000a0 ad 68 83 be b9 36 9f 3e 55 1b ed bd e1 49 3f 3d
       -0.256658 0.31096438 -0.11577479 0.046701316
0000b0 06 9b 8a be c9 41 81 be 27 46 84 be b9 e9 8b 3d
       -0.27071398 -0.25245503 -0.25834772 0.068316884
0000c0 e9 55 42 be d6 1c 85 3e 5e 09 bb be 23 b3 b7 be
       -0.18978085 0.25998563 -0.36530584 -0.35878858
0000d0 a2 6b e7 bd f2 7b 6f 3d 3a 75 f3 bd e1 03 f7 bd
       -0.11299826 0.058467813 -0.118875936 -0.12061287
0000e0 92 3a 22 3d fa de d3 be 3a c1 a0 be f7 7b c7 be
       0.03960664 -0.41381055 -0.3139742 -0.38961765
0000f0 22 18 90 bc 34 3c 19 3d e6 4d c6 3c 1d 8e e5 3c
       -0.017589632 0.03741093 0.024207067 0.028021866
000100 c0 97 ea bd a4 bd 39 be 5d c9 a8 be 5f 1f 6e be
       -0.11454725 -0.18138748 -0.32966128 -0.23254155
000110 ac c5 14 3e e0 af 02 be 59 11 6d 3d c4 99 90 be
       0.14528531 -0.12762403 0.057877872 -0.28242314
000120 f0 92 70 be f5 05 63 bd 74 ba 4d bc 45 66 db be
       -0.23493552 -0.055425603 -0.012556661 -0.42851463
000130 70 d6 99 be 28 3f c0 3c d4 80 bc be 28 c4 1a be
       -0.30046415 0.023467615 -0.36817038 -0.1511389
000140 82 a6 27 3e b8 8e 76 be 37 08 dc 3d bd a5 37 bd
       0.16372111 -0.2407788 0.10743754 -0.044835795
000150 70 c1 29 be 03 ad 2c 3e fb de a8 be ef 17 ec be
       -0.16577697 0.16862874 -0.3298262 -0.4611201
000160 b6 19 b8 be 7a a1 0d bd e3 64 32 3d 70 06 95 be
       -0.35957116 -0.034577824 0.043553244 -0.29106474
000170 5d 35 05 bb 0d d8 94 3e 5c 6d a1 be 02 2b a9 be
       -0.0020325996 0.29071084 -0.31528747 -0.33040625
000180 49 32 00 be ab 91 87 3c ce a3 a8 be 87 af 05 be
       -0.12519182 0.016548952 -0.32937473 -0.1305524
000190 b4 62 8a be fd 5b 6c 3c 49 1e 85 be c7 89 cb 3d
       -0.2702843 0.014426229 -0.25999668 0.09938388
0001a0 bb d5 f0 bc 1a 90 bd be b7 83 a6 be 6a f0 8a be
       -0.02939879 -0.37024003 -0.32522365 -0.27136546
0001b0 2b 03 ce be 01 17 cd be fc 07 e0 be 04 07 a0 be
       -0.40236792 -0.40056613 -0.43756092 -0.31255352
0001c0 21 31 c1 3d eb ca 59 3e 0e 51 64 3d 9e 12 a3 3d
       0.09433199 0.21268813 0.055741362 0.07962535
0001d0 b8 84 ff bc 3f 58 1f bf 44 6d dc be c2 42 7b 3d
       -0.031191215 -0.6224403 -0.43052113 0.061342962
0001e0 fb de c7 be 69 48 49 3e 14 ea 95 3d 41 be 00 3e
       -0.39037308 0.19656529 0.073200375 0.12572576
0001f0 d9 38 78 be 06 89 ca 3d 20 d1 bb 3c 36 6c 40 3e
       -0.24240436 0.098894164 0.022926867 0.18791279
000200 ad 3d 74 bd 8f 1d bd 3d 3c 75 77 3e a5 3a 39 bd
       -0.05962913 0.092341535 0.24165815 -0.045221943
000210 5b 55 01 3f 99 6c bd bd f0 db 93 bd bb 58 6c bd
       0.5052087 -0.09249229 -0.07219684 -0.057701807
000220 1f d5 b2 3e 82 69 43 3e 74 b1 13 3f a0 e9 43 bd
       0.34928223 0.19083217 0.57692647 -0.047830224
000230 f1 4f c4 bd 55 85 a8 bd c8 cb 42 3e 3d 36 9d 3e
       -0.0958556 -0.08228556 0.19023049 0.30705443
000240 73 5c 33 be ed 6c 1d 3f 5b 8f 89 3e c7 9c 33 3e
       -0.17515735 0.6149433 0.26867184 0.17540275
000250 eb 63 21 be fe 35 4a be ed 12 80 3e 7a 41 93 3e
       -0.15760772 -0.19747159 0.2501444 0.28760892
000260 c9 ae 91 bd aa ad 6b 3e 97 28 4a 3e 65 c1 a2 3e
       -0.07113416 0.23015466 0.19742046 0.31788173
000270 56 42 1f 3e af 5a 49 3e 6f 6b 9e 3e aa 17 91 3d
       0.15552649 0.196635 0.3094134 0.07084592
000280 ea 08 d0 be 7f 1c a0 3e 8b 08 04 bd c7 1d c5 3d
       -0.406318 0.3127174 -0.03223471 0.0962482
000290 55 a2 dc bd 10 e1 6a 3e 0b 75 3a 3d 39 f6 e1 3e
       -0.1077315 0.22937417 0.045521777 0.44133165
0002a0 4f 89 b4 3e 18 73 0e bc 9a cf e6 3e f6 5d c3 bd
       0.35261008 -0.008694433 0.45080262 -0.09539406
0002b0 d2 6a 86 3e ea 0f b8 3e bd f7 72 3e 19 6c 5e bd
       0.26253372 0.3594964 0.23727317 -0.05430231
0002c0 2c a7 e1 3d b2 4a 3e be c4 4b d8 3e ee 7b 59 bd
       0.11018214 -0.18583182 0.42245305 -0.053096704
0002d0 07 b3 eb 3e 25 3a c2 3e d3 7b c6 3e 48 76 fe 3e
       0.46035025 0.37934986 0.38766345 0.49699616
0002e0 e4 85 a9 bd 07 e6 05 3f 2f 16 6f 3e 66 42 ec 3e
       -0.08277491 0.5230412 0.23348306 0.46144408
0002f0 5e f3 5c bd 88 b2 bf 3e 85 86 87 bd 3a ab 90 3e
       -0.05394303 0.37440896 -0.066174544 0.28255635
000300 72 b2 03 3e b3 a8 06 3f 15 56 db bc 19 df b1 3e
       0.1286104 0.52601165 -0.026774446 0.34740523
000310 99 33 ca be b7 6f cd 3e 09 06 1d 3e 04 fb a4 3e
       -0.3949249 0.40124294 0.15334333 0.3222276
000320 b7 46 ee 3e 6a 4f ea 3e 81 36 ba bd 7e f8 e3 3e
       0.46538326 0.45763713 -0.09092427 0.44525522
000330 43 bf 05 3c a0 a0 2f be fe a3 d0 3e 5a c6 68 bd
       0.008163276 -0.17151117 0.40750116 -0.056829788
000340 a3 9b 34 3b 5d fc 89 3e 87 28 c2 bd 7a bc d0 3e
       0.0027558587 0.2695035 -0.09480386 0.40768796
000350 81 89 92 3e 2e 49 da 3e 23 9c f6 3d b0 96 17 3f
       0.28620532 0.42633957 0.120414995 0.59214306
000360 05 d9 5b 3e df c5 0e 3e 95 66 e6 bd 8f ae b4 3e
       0.21469505 0.1394267 -0.11250035 0.35289428
000370 45 5e de 3a 15 43 60 3e ba dc b9 3e 9a 1c 8d 3e
       0.001696535 0.2190059 0.36301214 0.27560884
000380 9c 51 da 3e 7a 8d a2 bd 07 d8 d5 3e ee 66 05 3f
       0.42640388 -0.07937141 0.41766378 0.52110183
000390 19 77 b8 3e 6b f3 86 bd b6 f5 ac 3e c7 a0 16 bc
       0.36028364 -0.06589397 0.33781213 -0.009193606
0003a0 c2 85 8b 3e 37 7a f4 3e b7 a1 ad 3e fb 98 98 3e
       0.27250487 0.47749493 0.3391244 0.29804215
0003b0 28 57 f6 3e 34 c5 13 3f 92 ad 15 3f 38 a8 a1 3e
       0.4811337 0.57722783 0.5846797 0.31573653
0003c0 31 29 f5 3d 54 4b 0b be db 68 10 be e1 47 b4 3e
       0.11970747 -0.13602954 -0.14102499 0.3521109
0003d0 a9 08 04 3e e7 10 ee 3e 88 0d c9 3e a2 b6 87 bd
       0.12893929 0.4649727 0.39268136 -0.06626631
0003e0 0a 44 f4 3e 7a 64 34 be 75 82 cf bd 1a e3 1c be
       0.4770816 -0.17616454 -0.101323046 -0.15321007
0003f0 20 01 c1 3e 82 da 62 3e 15 77 9c bd 10 54 35 be
       0.3769617 0.22153667 -0.076399006 -0.17707849

fc3.bias f4 [2]
000000 f0 10 d8 3d 3f 14 a3 bd
       0.105501056 -0.07962846
