final_ckpt_target_actor_0.pth (torch_old, 159212 bytes, 6 tensors)

fc1.weight f4 [256, 24]
000000 1c f1 8e 3d bb 8c e2 bd c4 5f 97 3c 1d 48 81 be
       0.06979582 -0.110619985 0.018478282 -0.2525033
000010 fd cf 82 bd 8c 6f 95 be 78 9a bc 3c d7 b4 33 be
       -0.06387327 -0.29186666 0.023022875 -0.17549454
000020 7d 09 ca 3d ba b3 c6 bd 6c 0c 4f bd cc ff 72 be
       0.09865091 -0.09702249 -0.050548956 -0.23730391
000030 91 09 ce 3c 34 41 66 be 08 88 3c 3c 99 86 3c be
       0.025151046 -0.2248581 0.011507042 -0.1841072
000040 b8 f8 9a 3d c0 ff 60 be e2 82 80 bd 92 40 0a 3a
       0.075669706 -0.21972561 -0.06274964 0.0005273904
000050 ac a5 10 3c 30 a6 9a 3c 7c f4 2d 3b 51 d9 36 bd
       0.008828562 0.018878073 0.002654343 -0.044640843
000060 63 56 dc 3c 6e 61 c5 bd 76 34 77 bd 17 69 cd 3d
       0.026896661 -0.09637724 -0.060352765 0.1002981
000070 67 28 21 3d f4 1b 45 be 09 51 54 bd f5 1c f7 3b
       0.03934517 -0.19248945 -0.051835094 0.0075412937
000080 72 cd 52 3d 70 eb 3e bd 37 a1 cc 3c 1d 97 bb 3d
       0.05146546 -0.04661125 0.024979217 0.09159682
000090 ae 38 25 3d 7f d0 3b be 88 d5 b7 bc 50 32 d0 3d
       0.040337257 -0.18341254 -0.022440687 0.10165846
0000a0 e6 0e b7 3d b4 a1 18 be 12 25 a4 bd 4a 9a af bd
       0.089383885 -0.14905435 -0.08014883 -0.0857435
0000b0 78 f6 f7 3d 6c 90 c3 3c a9 18 0f bd 48 14 fe bd
       0.12107557 0.023872577 -0.034935627 -0.12406212
0000c0 15 07 dc bd 44 bc 78 3e 84 ae 2b 3b d6 6c 87 3d
       -0.10743538 0.24290568 0.0026196549 0.06612556
0000d0 88 9c 31 3d 17 13 0d 3e ae 22 a4 bd 7a 56 47 3c
       0.04336217 0.13776813 -0.08014427 0.012166614
0000e0 ae 29 38 bd ed e2 48 3e 99 c9 24 3c be f3 a0 bd
       -0.044961624 0.19617815 0.01005783 -0.0785899
0000f0 ff a8 ab 3d 26 1a 3c 3e 28 8d ef 3c 14 a9 70 bd
       0.08381843 0.1836935 0.029242113 -0.058754995
000100 dd 27 9c bc a9 4f 3b 3e dd c3 5a bc 5a 5e 21 bd
       -0.019061977 0.18292107 -0.0133523615 -0.03939662
000110 31 57 21 3e c8 87 3c 3e c3 47 07 3d 98 56 12 3d
       0.15755917 0.18411171 0.03302742 0.035727113
000120 10 a0 42 3d 6b a5 e7 3d 9c e5 d3 3c d3 40 6d bd
       0.04751593 0.11310848 0.025866322 -0.05792315
000130 08 71 a3 3d fa 8d 2a 3e b5 83 4b 3d be e1 84 bd
       0.079805434 0.16655722 0.049686152 -0.064883694
000140 6b 81 87 bc d0 8c db 3d db e7 57 bd 03 42 04 3d
       -0.016541203 0.10720217 -0.05271135 0.032289516
000150 16 0b 6a 3e ab dc 35 3d f4 b1 69 bc 00 45 d5 3d
       0.22855791 0.0443999 -0.014263619 0.10413551
000160 d9 70 46 3d 8b 09 29 3e e2 6a 34 bd 5d a1 8d 3c
       0.048447464 0.16507547 -0.044047244 0.017288858
000170 45 32 a8 3e eb 70 9a bd b0 c5 56 3d 8e e2 3f 3d
       0.32850853 -0.07541069 0.052434623 0.04684692
000180 0c bb 4b bd da ee 69 be 0f cc 51 3d 64 15 9d 3c
       -0.04973893 -0.22845021 0.051219996 0.019175239
000190 5a 8e 00 3d 44 6d 89 bb ee 54 5f bd c5 55 59 bd
       0.031385757 -0.0041939337 -0.054524355 -0.05306031
0001a0 41 12 d9 bc cb dd 0c be 65 fb 24 bd 0f 3b 1d 3d
       -0.026497962 -0.13756482 -0.04027881 0.0383864
0001b0 71 ab 40 3e 83 ad e7 3d aa e0 95 bc 28 78 d8 3d
       0.188154 0.113123916 -0.018295605 0.10569793
0001c0 97 f9 d3 3d 41 c1 1d bd 4d c5 35 bc e0 6d d4 bd
       0.1035034 -0.03851438 -0.011094403 -0.103725195
0001d0 10 6b 50 3e 0e ee 4e 3e 2a af e1 3c ba 48 11 bd
       0.20353341 0.20207998 0.027549345 -0.035469748
0001e0 af 40 4b bd c0 3a 8c bd d2 8f 87 bd b9 f1 38 be
       -0.049622234 -0.06847143 -0.066192284 -0.1806096
0001f0 c8 ee 93 3d 9e 86 99 be cd f6 44 3c a7 47 26 be
       0.07223278 -0.29985517 0.0120217325 -0.1623827
000200 fc b7 99 bd 0b 75 1d be db c8 14 bd e5 83 58 be
       -0.07505795 -0.1537668 -0.036324363 -0.21144064
000210 2d 50 91 3c 14 78 3b be ec 15 00 3d d9 ea 3d be
       0.017738426 -0.18307525 0.031270906 -0.18546619
000220 c7 3c 98 bd f9 31 86 be 7d 5b 45 bc dd 67 d4 3c
       -0.07433467 -0.2621 -0.012045738 0.025928432
000230 bb 31 18 3e 07 8a 9b bc 86 50 79 bb 09 41 8c b9
       0.1486272 -0.018986715 -0.003804238 -0.00026751336
000240 15 5f f7 bd 84 86 1c bd d4 31 b3 bc c2 06 15 be
       -0.12078682 -0.03821422 -0.021874346 -0.14553359
000250 cc 7a 05 3e e5 49 bb be a9 97 b6 3b b5 5d 65 bd
       0.13035125 -0.36579815 0.0055722785 -0.05599757
000260 33 5b 98 bc 46 45 0b be 88 b0 0b 3d b4 41 13 be
       -0.018598175 -0.13600644 0.0341039 -0.14380533
000270 66 6d 85 3d 59 b4 0e be 2b b3 52 3c ad d2 0a be
       0.06515007 -0.13935985 0.0128601 -0.13556929
000280 96 ca f2 bd 76 d3 15 be 7a 9e 14 bd f4 cc 7d 3e
       -0.118550465 -0.14631447 -0.036283948 0.24785215
000290 d8 46 1a 3e a9 54 f6 bd 95 07 1d bd 20 a7 8e 3e
       0.15066087 -0.120278664 -0.03833731 0.2786188
0002a0 0f af 0b 3d b5 20 80 bd 61 f4 cd bc 54 cf e4 3d
       0.034102496 -0.06256238 -0.025140943 0.11172357
0002b0 d5 e7 51 3d 79 98 40 3d 41 87 35 3b 5c fc 86 3d
       0.051246483 0.04702041 0.0027699026 0.065911025
0002c0 d2 24 1a 3d fd 4e 8f 3c 21 d5 2a bd f3 0f 5d 3b
       0.03763277 0.01749372 -0.04170716 0.003373143
0002d0 74 ef ad bd bc 26 a7 3d 31 cb e7 bc ec 43 32 3c
       -0.08492938 0.08161685 -0.028295131 0.010880452
0002e0 64 56 7d 3d e8 ac a8 3a a0 6d 98 3c bf 2d 46 3e
       0.061849967 0.0012868913 0.01860696 0.19353388
0002f0 65 e1 1e be a7 f3 a8 3d 0b e1 c2 3d 0a 39 32 3e
       -0.15515669 0.08249598 0.0951558 0.17404571
000300 c4 76 17 be 20 17 88 3e 90 78 ce 3c c5 9c f4 3c
       -0.14791399 0.26580143 0.025203973 0.02985991
000310 de 01 59 3d 45 92 7e bd 17 92 e2 3c 4b 50 93 3b
       0.052980296 -0.062151212 0.027657552 0.0044956557
000320 23 37 9f bd 55 11 6a 3e 3a 27 9a bc e1 68 a0 bd
       -0.07774188 0.22858174 -0.018817533 -0.07832504
000330 02 1d 17 3e bd f4 46 bc 3a ff b6 3a 64 7a 5b bd
       0.1475716 -0.012143311 0.0013961561 -0.053583518
000340 aa 16 6a bc de 08 6f 3e bd 27 84 3d 1c 61 52 bd
       -0.01428763 0.23343226 0.06452892 -0.051362142
000350 4a 93 35 3e 96 89 45 3c 0e 7f 57 bc 50 ea f0 bd
       0.17731968 0.012056729 -0.013152851 -0.117634416
000360 3d 2b f3 3b 19 a8 54 3e 4d 68 2c 3d 06 20 e0 3c
       0.007420926 0.20767249 0.042091656 0.02735902
000370 ea 88 27 be 44 33 dc bc eb eb 0a 3d 96 1c 38 3d
       -0.16360822 -0.026879914 0.033916395 0.044949137
000380 ba bb ac bd ef e4 44 3e 25 44 a2 3c 08 f8 38 3d
       -0.084342435 0.19227956 0.019807884 0.045158416
000390 eb 1c 85 bd b5 98 e1 bd 86 94 d0 bc 2e f1 cd bc
       -0.06499656 -0.11015455 -0.025461446 -0.025139417
0003a0 a2 97 f5 bc f8 42 2d 3e bd ad 47 bd 81 ee ca 3d
       -0.02997953 0.16920078 -0.048749674 0.09908772
0003b0 fc cc 6d 39 4c 92 a8 be 7d 71 45 3d 2e 6f 95 3d
       0.00022678444 -0.32924116 0.048203934 0.072965965
0003c0 0b be cc bd d5 2e 62 3d 80 5c 2f 3c 80 bd 38 bc
       -0.09997185 0.055220444 0.010703206 -0.011275649
0003d0 0b 35 a8 bd a3 73 b7 3d b3 bd 01 bd 5d 40 36 3d
       -0.08213242 0.08957603 -0.031675052 0.044494975
0003e0 5e 68 7c bd 9f c1 8b 3d 7d 56 42 3c 24 5d aa 3a
       -0.06162297 0.0682404 0.011861441 0.0012997729
0003f0 94 c2 ac 3d f1 45 6b bc 3f af f1 bc 25 a4 ba 3c
       0.0843555 -0.014359937 -0.02950251 0.022783348

fc1.bias f4 [256]
000000 f8 ee 60 be 23 12 17 bd 03 88 38 3e 34 d2 0d 3e
       -0.2196616 -0.03688253 0.18020634 0.13849717
000010 10 30 1d bd af ef 93 be b8 5b 7e be 21 ac 57 bd
       -0.038375914 -0.28893802 -0.24839675 -0.05265439
000020 d2 84 02 be dd 0c 9c bd 4f 71 80 3e f9 f8 a2 bd
       -0.1274598 -0.07619641 0.25086448 -0.07957644
000030 86 3f 44 bd 32 f0 23 bd 06 04 20 bd 6e 5f 22 3e
       -0.047912143 -0.04002399 -0.039066337 0.15856716
000040 24 ac 18 3d f6 cf fb bb c9 41 7c bc 28 ba 34 be
       0.03727354 -0.007684703 -0.015396544 -0.17649138
000050 0b eb d1 bc 8b ed 89 be 0f 79 31 bd dd 1b de bd
       -0.025624773 -0.26939043 -0.04332834 -0.10845158
000060 d0 65 04 3e 76 1f 12 bd 8e 40 17 3e bb 92 88 3d
       0.12929463 -0.035674535 0.1477072 0.066686116
000070 ba da 9f bd a9 a0 55 3d 95 fb d0 bc f0 af b1 bd
       -0.07805391 0.05215517 -0.025510589 -0.086761355
000080 60 e1 d5 bd cd e3 33 3e 46 69 9d bc 5b de 49 3c
       -0.104433775 0.17567368 -0.019215237 0.01232108
000090 da d2 28 be 9e 55 8d 3e 98 5b e6 bd d3 5f 05 3d
       -0.16486683 0.27604383 -0.11247939 0.03256209
0000a0 d5 24 80 be 1e 2a 9d bd 21 4f 89 3d 16 f3 9d bd
       -0.250281 -0.07674049 0.06704546 -0.077123806
0000b0 da aa 2a bd b4 2a 77 bd c4 0b 11 bb 3b f3 31 be
       -0.041666843 -0.06034346 -0.0022132257 -0.17377941
0000c0 7c 26 ae 3e 44 f5 33 3e 55 63 78 bd a4 4e 47 3e
       0.34013736 0.1757403 -0.060641605 0.19463593
0000d0 04 fd cd bd d6 f7 eb bd 27 23 de 3d 42 dc cf 3a
       -0.100580245 -0.1152188 0.108465485 0.0015858489
0000e0 87 e1 5b 3e 8e c4 79 bc 93 86 75 be e6 b0 33 3e
       0.2147275 -0.015244616 -0.23977117 0.1754795
0000f0 6a 55 d7 3d 5b ec 5c 3e 95 fc b7 bc f6 dc 60 bd
       0.10514338 0.21574537 -0.022459308 -0.054898225
000100 35 06 72 3d f9 31 4e bd 1d c0 d8 bd cc 8a e2 3d
       0.05908795 -0.050340626 -0.10583518 0.1106163
000110 f4 95 50 be 75 86 cc bc de 61 85 bc b9 18 2c be
       -0.20369703 -0.024966458 -0.016282018 -0.16806306
000120 9c e8 f1 bd 9f f0 82 bd 4d d5 df bd 31 78 41 3e
       -0.11811945 -0.06393551 -0.10929356 0.18893506
000130 c9 4e 91 3d 10 89 1d 3e 4a 30 7e bd 20 d4 d7 3d
       0.07095105 0.15384316 -0.06205777 0.105385065
000140 ec ea a4 bd af 1f 13 3d cc ff 98 be 14 3a 84 be
       -0.0805262 0.035918888 -0.29882658 -0.2582556
000150 1f a8 89 ba 7d e2 a3 bd 4b 58 28 be 9b 41 28 3e
       -0.0010502374 -0.080021836 -0.16439931 0.16431277
000160 46 c3 38 be 19 18 c0 bc f6 03 86 bc 63 9f 26 3d
       -0.18043241 -0.02344899 -0.01635931 0.040679347
000170 cc f5 3c be 25 4b 5e 3e 68 ba d7 bd a4 05 48 be
       -0.18453139 0.21708353 -0.10533601 -0.19533402
000180 6c be 39 3e 33 b1 81 be a0 6d 30 3e 89 97 cb 3d
       0.18139046 -0.25330505 0.17229319 0.099410124
000190 63 5c 5d 3c 4c 8c d1 bd a1 ec 95 bd 84 51 09 3e
       0.013510796 -0.10231838 -0.07320524 0.13410002
0001a0 1a 62 31 be 4d b0 a0 3d 89 d7 50 3d 97 1c be 3d
       -0.17322579 0.07846127 0.0509868 0.09282797
0001b0 e7 9f 1a 3c 4b eb 7f bc 3f d5 b9 bd bb 26 4b be
       0.009437538 -0.015620063 -0.090738766 -0.19838993
0001c0 33 bb af bb 63 86 93 be 42 cd 50 3c 03 f9 44 3e
       -0.005362892 -0.28813466 0.01274425 0.19235615
0001d0 29 9c 5b 3e 2b 49 fe bd 96 d7 21 be f2 4c 2f 3d
       0.21446289 -0.124162994 -0.15804896 0.04279799
0001e0 ae 6e 99 bd 6d 83 0c 3d fb 3e 75 3e 86 9f 19 3e
       -0.074918136 0.034305025 0.23949806 0.1500226
0001f0 00 9f bd 3d 32 8f ca 3d c3 66 5c bd 56 b5 b7 bc
       0.092588425 0.098905936 -0.05380894 -0.022425335
000200 af 30 b7 3d 79 72 48 be 51 6a 3b be 3c 8f cf 3d
       0.089448325 -0.19574918 -0.18302275 0.10134742
000210 98 7f ea bd 8d 6b 64 3e 6f 4a 6f 3e 60 03 3a 3e
       -0.11450118 0.22306652 0.23368238 0.1816535
000220 d5 13 28 3d c6 a3 fc 3c 9e ba 23 3e 63 81 25 3e
       0.04103454 0.030839812 0.15989158 0.16162638
000230 35 8e b2 3d 33 30 e3 bd 1d d3 87 3e 8e 54 86 bc
       0.0871853 -0.11093178 0.26528254 -0.01639774
000240 1c fc 4e 3e 93 36 c2 bd 75 40 cf bd 9c 11 a0 3a
       0.2021336 -0.094830655 -0.10119716 0.0012212279
000250 6e 8f 87 bd c3 5b b5 3d 2b 94 a3 3c 05 45 2a 3e
       -0.06619154 0.08855393 0.019968113 0.16627891
000260 b6 81 54 3d 47 19 51 be 59 d7 67 3e 2d 93 58 bd
       0.051881514 -0.20419799 0.22640742 -0.052874733
000270 b9 01 8c 3e 71 f5 9f bd 13 9a 85 bc 44 d8 24 3e
       0.27345064 -0.07810486 -0.01630882 0.16098124
000280 be 71 4c bd e4 6a 85 bd 61 67 67 bd dd 28 42 3b
       -0.04991316 -0.065145284 -0.056495074 0.0029626407
000290 94 b8 77 bd ad 25 89 3e 33 06 c6 3d 52 68 2a 3c
       -0.06047876 0.26786557 0.09669151 0.010400848
0002a0 42 b9 0b 3e 68 ee e7 3d 89 31 ff 3c 21 c8 9a be
       0.13644889 0.11324769 0.03115155 -0.3023081
0002b0 67 24 32 be 11 18 ef bd 4e 26 d1 bd 86 a7 fa bd
       -0.17396699 -0.11674512 -0.10212384 -0.12238984
0002c0 7b ef b4 bc 30 9b 1f 3e db 0f da bd 3a f2 a0 3d
       -0.02208685 0.15586543 -0.106475554 0.07858701
0002d0 0e e1 c3 bd f7 2e 31 3e 45 62 c3 3d b3 7d cd 3c
       -0.0956441 0.17303072 0.09540228 0.025084352
0002e0 de 50 c8 3d f4 6c f4 bd f8 d0 69 be 21 86 07 be
       0.09781049 -0.11934844 -0.22833622 -0.1323476
0002f0 58 cf 4b 3d c1 4c 77 3d 3e a7 0c 3e 93 63 2d 3d
       0.049758285 0.060375933 0.13735673 0.04233129
000300 aa 87 af bd 1c 68 64 bd 2a 5a 86 3e 1e 39 0a be
       -0.08570798 -0.05576335 0.26240665 -0.13498351
000310 18 f4 09 bd 80 c4 c8 3d 28 12 5f 3e 9a ae 7a 3d
       -0.03368005 0.098031044 0.2178427 0.06120167
000320 4a 7f 75 bd 8d 29 ff bb 40 17 ff 3d e4 8a 8e 3c
       -0.059935845 -0.0077869357 0.124556065 0.017400213
000330 44 4c 3d 3e a2 96 e6 3d 0d ae 14 bd 0a 80 18 3e
       0.18486124 0.112592 -0.0362988 0.14892593
000340 71 cf f4 bb a2 0d b6 bd 99 44 d2 3d bc 33 0b be
       -0.007471018 -0.08889319 0.1026699 -0.13593954
000350 d2 fc 06 3e 42 5c 82 3d 82 ea d6 bd 67 b6 69 be
       0.13182381 0.06365253 -0.104939476 -0.22823487
000360 56 0c 16 3e be c3 65 3e 11 5c 84 bc e1 86 07 3d
       0.14653143 0.22437951 -0.016157182 0.033087615
000370 cb 32 13 be af da d8 3c 76 96 42 3e b4 3b a1 3c
       -0.14374845 0.026471464 0.19002709 0.019681789
000380 b6 65 b8 bd 76 62 83 be 47 ce 31 3e e7 e8 43 bd
       -0.09003775 -0.25661057 0.17363845 -0.047829535
000390 01 a9 a4 bd 18 8b fe bd 03 35 93 3e 24 e4 35 3e
       -0.080400474 -0.12428874 0.28751382 0.1776281
0003a0 9d 01 05 be 93 97 a8 bd 88 bf 37 bb 85 d4 dc 3d
       -0.12988897 -0.082320355 -0.0028037746 0.107827224
0003b0 fd 4a 3a be f9 87 37 3e e3 e0 36 bc 30 43 c9 3d
       -0.18192668 0.17922963 -0.011162016 0.09827268
0003c0 42 2e 28 bd ea ef a2 be a9 87 43 3d e3 d2 b0 bd
       -0.04105974 -0.31823665 0.047736797 -0.086339734
0003d0 c0 e8 a0 3c 23 55 d4 3d 1a d0 f6 bb a5 38 85 be
       0.019642234 0.10367801 -0.007532132 -0.2601978
0003e0 fa 52 6e bc 1d 72 12 be bd f1 19 be ea 2b f0 bd
       -0.01454615 -0.14301343 -0.15033622 -0.11727126
0003f0 71 54 a8 3e 70 94 ac 3e 7e 81 d9 bd 6e 63 75 3d
       0.32876924 0.33707 -0.10620402 0.059909277

fc2.weight f4 [128, 256]
000000 86 84 5c be 93 36 c7 bd f9 a5 84 3d c2 20 2d bd
       -0.21534929 -0.09727206 0.06476969 -0.04226757
000010 99 80 94 3d 92 90 2f be 14 ab 76 be 09 ca de 3d
       0.072510906 -0.17144993 -0.24088699 0.10878379
000020 60 9d 3e bb bb 32 cf 3d 2c 46 28 3d 66 a3 82 bd
       -0.0029085502 0.10117098 0.041082546 -0.06378822
000030 34 b3 43 be 57 59 0e 3e 16 3c 9e 3c ef 49 bc 3d
       -0.1911133 0.13901268 0.01931576 0.09193789
000040 2f b3 d6 3d fd d6 23 3c 5d 1d bf 3c d4 b3 2c bc
       0.10483395 0.009999988 0.023329431 -0.010540921
000050 fa 32 90 be c1 00 0b 3d 8f dc 4f bc c7 35 fc 3b
       -0.28163892 0.033936266 -0.012686863 0.0076968404
000060 e7 29 72 3d 16 a4 37 be 3f c8 75 3c 87 8d c4 bc
       0.059121992 -0.17933688 0.015001356 -0.023993267
000070 f8 fd 21 3d 18 7f d0 bc b2 d7 11 3e a7 de b0 3d
       0.039548844 -0.025451228 0.14242437 0.086362176
000080 4f ed 09 3e 1b 06 e4 3d d2 5e c6 3d 2a c7 e4 3c
       0.13469432 0.11133977 0.09686054 0.027927
000090 21 8d 9f 3d 1b 8d 3b 3c 40 d7 35 3e 1f c5 63 3d
       0.0779059 0.011447216 0.17757893 0.05560791
0000a0 75 a3 d4 bd 24 7e 32 3d 3e 52 3c 3d b4 73 9f 3d
       -0.103827395 0.04357733 0.04597687 0.077857405
0000b0 da 6e 21 3d 9f 20 a9 3d 84 36 fe 3d d6 db 80 bd
       0.039412357 0.08258175 0.12412742 -0.062919304
0000c0 6e 3d e6 3d fe ef e7 bc 0e 21 43 3c 7e e3 d7 bd
       0.112421855 -0.02831268 0.011909736 -0.105414376
0000d0 2a 86 95 bd 6a 88 99 3d f8 7b f1 3c 4c 54 02 3d
       -0.073009804 0.07496722 0.029478058 0.031818673
0000e0 3d 61 53 3d 4c 18 6f bb e2 45 ca be 05 be 9a bd
       0.051606406 -0.0036482988 -0.3950644 -0.075557746
0000f0 90 3e af bd 06 91 15 3e 4b 40 83 3d d6 1f 60 bd
       -0.08556855 0.14606103 0.06408747 -0.05471786
000100 cb 3b 29 be e9 c2 b4 bc 1c 93 23 bd 6b a1 d4 bd
       -0.16526715 -0.022065597 -0.039935216 -0.103823505
000110 fa 6c 1d be d0 43 a7 3d 26 6d 93 bd 43 85 24 3d
       -0.15373603 0.08167231 -0.07198553 0.04016615
000120 e5 25 21 bd f2 5d b8 3d 01 47 25 bd 66 7a f7 bc
       -0.03934278 0.09002294 -0.040350918 -0.030209731
000130 19 b1 ec 3d b8 fb 05 bd 70 82 85 bd 20 ce ac b9
       0.11557216 -0.03271076 -0.065190196 -0.00032959972
000140 b4 2c 7d bd 1f 0c 61 bd f6 a8 aa bd ee 4d 51 3d
       -0.06181021 -0.0549432 -0.08333008 0.05109971
000150 e2 df 0c bd 87 60 de bd bc 73 66 bd e5 14 25 3d
       -0.0343932 -0.10858255 -0.056262717 0.04030313
000160 2f c1 f4 bd 16 f1 4c bd 0c 75 a2 bd 92 05 8e bc
       -0.11950909 -0.050034605 -0.07932481 -0.01733664
000170 b4 e9 06 be fa b0 21 3e c5 37 3c be 68 5a 69 3d
       -0.13175088 0.15790167 -0.1838065 0.056970984
000180 1a e6 e6 3d 8a a6 84 3e d2 55 be 3d 1f 0f 91 bd
       0.11274357 0.2590831 0.09293713 -0.07082962
000190 a8 01 6c bc 76 98 10 3e 0d 1f 75 bd 20 7e d9 3d
       -0.014404692 0.14120659 -0.059844065 0.106197596
0001a0 48 fd 20 3f f8 a0 78 bd f2 0d 09 be ad 39 44 3e
       0.62886477 -0.060700387 -0.13384226 0.19162627
0001b0 40 33 9c bd aa ca ca 3d e9 ce 08 bd 1f fe c8 bd
       -0.07626963 0.09901936 -0.03340045 -0.09814095
0001c0 99 54 a9 3d 93 c3 64 bd 1c d4 42 3c a5 20 d0 3d
       0.08268089 -0.055850577 0.011891391 0.101624765
0001d0 40 c1 61 3d d1 b6 03 3e f7 5d a9 3d ae 8b 96 bd
       0.05511594 0.12862708 0.082698755 -0.073508605
0001e0 43 26 27 3e 94 01 01 be eb 60 41 3c 99 eb 62 3d
       0.1632319 -0.12598258 0.011802892 0.055400465
0001f0 65 03 5c bd e2 69 2d 3e 96 5e f1 3d 60 2f 33 bd
       -0.053714175 0.16934922 0.11785619 -0.043746352
000200 68 24 2d 3c f2 71 37 3d 28 75 93 3a c2 65 ac 3d
       0.010567762 0.0447864 0.0011250125 0.08417846
000210 8b 2b 0e be bb 0a 13 3e b2 20 78 3e bc ff 46 bd
       -0.13883798 0.14359562 0.24231222 -0.04858373
000220 4f 9d 25 3d 19 a2 d0 3d 2f 43 ee bc ea cc a4 bc
       0.040433224 0.10187168 -0.02908477 -0.020117242
000230 32 3f d1 bd 6c 26 cc bc 1a 2d 44 3e 8a d4 4b 3c
       -0.10217132 -0.024920665 0.1915783 0.01244081
000240 69 f9 e1 3d 72 63 70 3d f4 15 d0 3c 2f b0 a7 3d
       0.11033899 0.05868859 0.025401093 0.08187901
000250 72 70 a2 3c 76 f5 89 3d bb e3 13 3e 3b b8 8f bc
       0.019829009 0.06736271 0.14442341 -0.017543903
000260 a1 9e c1 bc fd d5 72 3d 34 45 83 3d bb 2a f3 bc
       -0.02363521 0.059286106 0.06409684 -0.029683461
000270 7f 03 cf 3d d2 7a 3c be 6a 19 00 3c dc bd 9d 3d
       0.10108089 -0.18406227 0.007818559 0.077022284
000280 06 0b 01 3e 7b 56 bd bc 08 18 61 3d 00 d9 6c be
       0.12601861 -0.023112526 0.05495456 -0.23129654
000290 40 9e 1f 3e 90 a8 13 3d 6b 18 a8 3d 66 48 41 bd
       0.15587711 0.036049426 0.08207782 -0.047188185
0002a0 4a ff dc 3d b6 f8 61 3d 45 f3 9a bd ff 4b 00 be
       0.1079088 0.05516883 -0.07565931 -0.1252899
0002b0 a2 42 01 bc b2 fb d4 3d f6 ed 5d 3c ad 15 5d bd
       -0.007889422 0.103995696 0.013545504 -0.05397575
0002c0 f8 a3 be 3d 88 24 8e 3c 91 21 9c 3d 1e 94 c4 3d
       0.09308618 0.017351404 0.0762359 0.095985636
0002d0 46 fd 20 bb 03 6b ab bc 2b 11 57 bd 2c 86 0d 3d
       -0.0024565025 -0.02092505 -0.052506607 0.034551784
0002e0 44 0f 06 3d 01 cf 5b 3d 98 ae ce 3d 9f 31 3e 3d
       0.032729402 0.05366421 0.10091895 0.04643404
0002f0 f2 6e 7a 3d be e9 58 3d 4a 70 0f 3d 3b bc bd bb
       0.061140962 0.05295729 0.035019197 -0.005790261
000300 35 8d 09 be 65 92 e5 3b 48 46 be ba ee a4 96 3d
       -0.13432772 0.007005977 -0.0014516795 0.073556766
000310 1d e8 ce bc 74 32 7a bb 01 52 43 3c 38 9e 7f bd
       -0.025257165 -0.0038177045 0.011921407 -0.06240675
000320 67 d1 ab 3d f2 ad 22 3d 33 0d d8 3d 25 6b 64 3e
       0.0838955 0.03971667 0.105493926 0.22306497
000330 86 20 f2 3d c6 7c c7 bc 25 b5 e2 bd b2 14 1f 3e
       0.118226096 -0.024351489 -0.11069707 0.15535238
000340 fe e0 a3 bd fd ae cb 3d f6 ff b0 3b e6 2f f9 3c
       -0.08001898 0.09945486 0.0054016067 0.030418348
000350 08 5e bf 3d ac 7a bc bd e4 52 1c 3e df 9a f0 bd
       0.09344107 -0.09203085 0.15265995 -0.11748289
000360 1e 2f 06 3e a7 01 3e 3e 41 6a 0f bd eb 26 0a be
       0.13103911 0.18555318 -0.03501344 -0.13491409
000370 c1 01 8a bc 99 cb 8a bc 5a 58 b5 3b 5d 5b 29 3e
       -0.01684654 -0.016942786 0.005534214 0.16538759
000380 86 ad 01 be db 67 f5 bd 6e de ca 3d 48 85 20 3e
       -0.1266385 -0.119826995 0.09905706 0.15675843
000390 ad a2 82 bc c4 be 34 bd f3 66 96 3d 8a b4 4a bc
       -0.01594671 -0.04412724 0.07343855 -0.012372145
0003a0 83 ef 0a be c0 28 dc bd 29 0c 90 bd 5f 58 47 3d
       -0.13567929 -0.1074996 -0.07033569 0.04866826
0003b0 27 77 3f bd cb 8d 87 3e c2 e0 dc 3c e2 21 90 be
       -0.046744492 0.26475367 0.026962642 -0.2815085
0003c0 42 9b 52 3e fe 01 36 be 2b 4b 89 3d 44 b8 2e bd
       0.20567039 -0.17774197 0.0670379 -0.0426562
0003d0 4f e4 c1 3c c7 eb 35 3e 84 cd 26 3e b8 fb 68 be
       0.023668436 0.17765723 0.16289335 -0.22752273
0003e0 fe 48 f6 3d 6d 75 2c bd ca d7 c3 3c c2 a1 a9 bd
       0.12025641 -0.042104173 0.023906607 -0.08282806
0003f0 40 de b7 3d 7a 6a 6d 3c a9 b0 f2 3c d4 9a ab bd
       0.08977938 0.014490718 0.029625254 -0.083791405

fc2.bias f4 [128]
000000 cf 04 3a 3e 0d 7f 0a 3d 9a f6 40 bd d4 b6 f7 3d
       0.18165897 0.03381257 -0.047110178 0.120954186
000010 07 53 9c bd 42 e5 fb 3d f9 fc 01 3e 93 31 13 be
       -0.07633024 0.12299587 0.12694158 -0.1437438
000020 24 c0 50 bd 1a 94 96 3d ed df 9f 3c ed a7 07 3e
       -0.05096449 0.07352467 0.019515956 0.13247652
000030 0b fd ec bd 6c fa 18 3c be b3 a4 bc 4b 02 e0 bb
       -0.115717016 0.009337049 -0.020105239 -0.006836211
000040 2b a6 89 3d 85 c5 da bd e8 c9 e6 bc 69 86 0a bd
       0.06721147 -0.10682205 -0.028172448 -0.03381959
000050 08 fd a1 3d 1d 38 12 3e f9 82 6d bb f3 18 66 3c
       0.0790959 0.14279218 -0.0036241396 0.014044034
000060 5c 43 1f 3e b2 1c be bd ea bb de bd 6c 8e b0 3b
       0.1555304 -0.09282817 -0.108756855 0.0053880718
000070 c7 86 25 3d 18 5f 4a bd 45 15 03 be 17 76 85 bd
       0.040411737 -0.049407095 -0.12801082 -0.065166645
000080 5d 85 9b 3d d8 17 84 bd 5f 15 75 3d 76 bc cd bd
       0.075937964 -0.0644986 0.059834834 -0.10045712
000090 9a 63 1b 3e bc ee 54 bd 85 f1 cb bd 21 84 8c bd
       0.15174714 -0.051985487 -0.099581756 -0.06861139
0000a0 93 7e a9 3a c1 d9 1a 3e b7 c8 81 bc 90 4c 26 3e
       0.0012931399 0.15122129 -0.015842779 0.16240144
0000b0 e5 c0 60 3d ff fd 78 bc 4e 27 8c bd 2c 7a 40 3e
       0.05487146 -0.015197276 -0.06843434 0.18796605
0000c0 c7 fd 04 be eb e3 5f bc e7 bf df bd ca ab b2 bd
       -0.12987433 -0.01366518 -0.10925274 -0.087241724
0000d0 66 7a c7 bc 49 30 ef bb ac 72 36 bc 73 ba c0 3c
       -0.024350356 -0.007299457 -0.011135738 0.023526406
0000e0 32 f4 f1 3d b7 41 6d bc 3f d3 07 bd 6c e4 6a 3d
       0.11814155 -0.014481 -0.033160444 0.057346746
0000f0 2f 87 f1 bd b3 7d b7 bd 70 7e df bd 15 42 be bc
       -0.11793362 -0.08959522 -0.10912788 -0.02322487
000100 e7 9b 9f bd 34 58 62 3d c1 7f bf bd 26 38 03 bd
       -0.07793408 0.0552599 -0.09350539 -0.03203597
000110 6f a8 14 bb 39 2c 28 3d 77 0a db 3c d2 59 c9 bd
       -0.0022683402 0.0410578 0.026738388 -0.09831585
000120 06 d2 34 3d b1 7b d6 bd a8 ed 29 bd 85 42 a4 3c
       0.044145606 -0.10472811 -0.041486412 0.02005125
000130 34 cb 56 bd 12 84 20 3e 89 dd 94 bd cf 84 dd bd
       -0.052439883 0.15675381 -0.07268817 -0.10816347
000140 e2 f0 af 3d 84 70 c8 bc 8a 58 e6 3d c5 dd a3 bd
       0.085908666 -0.024467714 0.11247356 -0.080012836
000150 03 77 3d bc 77 c1 a8 bc 81 3e 7a bd 47 85 90 bd
       -0.011564019 -0.020600064 -0.061094765 -0.07056671
000160 59 22 2a 3d b0 1c 14 be 36 2b 1b 3e 58 57 c0 3c
       0.041536663 -0.14464068 0.15153202 0.023479149
000170 91 08 b3 3b ed 88 32 3d 2d 71 ca 3c 3a 43 6c bc
       0.0054636677 0.043587614 0.02471217 -0.014420325
000180 1f 3c 88 3d 51 27 fa bc 91 2b d1 3c 5c a5 e6 bc
       0.06652092 -0.030536326 0.02553347 -0.028155021
000190 24 f4 40 3d 11 0e c0 bd 6d db 17 bd 3e 8f 10 3e
       0.04710783 -0.09377683 -0.037074495 0.14117143
0001a0 a9 80 2d bd ed a1 1c bd e4 4d 29 be 5e 7b 7c bd
       -0.042359028 -0.038240362 -0.16533619 -0.06164109
0001b0 11 38 8a bb 1e fb 93 3c c9 6c f0 bc 74 3e 3f bd
       -0.0042181094 0.018064078 -0.029348748 -0.04669042
0001c0 9e a6 02 bd 98 99 49 3e 66 3d 10 3e d9 6c f4 ba
       -0.03189718 0.19687498 0.14085922 -0.0018648162
0001d0 82 6b d5 bd f1 a9 72 bd 4f 4b 00 3d 4c 44 87 3d
       -0.10420896 -0.0592441 0.03132182 0.066048235
0001e0 26 f1 e5 3b 25 eb 41 3e 0f 33 03 3e 5a aa bf 3d
       0.0070172725 0.18937357 0.12812446 0.09358664
0001f0 a9 7a 06 be fb dc da bb 61 0b 10 3e da 1e bf bc
       -0.13132729 -0.006679175 0.1406684 -0.02333014

fc3.weight f4 [2, 128]
000000 b3 3c d3 3d 6d da 87 3e fb c6 44 be 34 09 33 3d
       0.10314312 0.26533833 -0.1921653 0.04370995
000010 33 d5 86 be 28 d6 42 3d 6c bc 3d 3d d2 20 20 bb
       -0.26334533 0.047567517 0.04632227 -0.0024433625
000020 48 a7 d3 bd 65 c2 06 3e 89 7d b9 be 2d 99 5c 3d
       -0.10334641 0.13160093 -0.36228588 0.053857017
000030 76 89 f1 be 26 52 f4 3d 11 fa 98 be c3 60 2f be
       -0.47175187 0.11929731 -0.29878286 -0.17126755
000040 cd d6 a3 3e b3 58 ff be 5d b0 df be 1c d6 00 3e
       0.31999817 -0.4987236 -0.43689242 0.12581676
000050 ff 9a 2f 3e c0 1f 8d 3e 1b fe 63 be a1 a1 e5 be
       0.1714897 0.27563286 -0.22264902 -0.44849876
000060 49 de 54 3c 2f f9 05 be f8 29 8d be 1f 8b f9 be
       0.01299245 -0.13083337 -0.27571082 -0.48738953
000070 a8 b3 b6 3d 45 ed bb be 74 70 2a be 62 00 90 be
       0.089209855 -0.3670446 -0.1664446 -0.28125292
000080 28 26 9d 3e 1d 87 6e be 5c db 1f 3e bf d1 05 be
       0.30693173 -0.23293729 0.15611023 -0.13068293
000090 64 fb 07 3e 61 fc 15 be 5e fd 29 be fe 8a bf 3d
       0.13279492 -0.14647056 -0.16600558 0.093526825
0000a0 a7 81 83 be c2 c2 9e 3e e4 75 ed bd a8 c4 3c 3d
       -0.25684854 0.31007963 -0.115947515 0.046085984
0000b0 aa 98 8a be 1c 51 81 be f5 90 84 be ef 09 8b 3d
       -0.27069598 -0.25257194 -0.25891843 0.06789004
0000c0 24 e5 42 be 09 a9 84 3e ec 50 bb be 4a b3 b7 be
       -0.19032723 0.25910214 -0.36585176 -0.35878974
0000d0 21 b2 e7 bd 03 38 6e 3d bd 0b f3 bd 88 fa f6 bd
       -0.11313272 0.058158886 -0.11867473 -0.12059504
0000e0 63 15 20 3d b8 35 d4 be fc cc a0 be fa b4 c7 be
       0.039082896 -0.41447234 -0.3140639 -0.39005262
0000f0 2d bc 90 bc b8 b7 17 3d f0 ab c3 3c de fd e5 3c
       -0.017667854 0.037040442 0.023885697 0.028075155
000100 5b 15 eb bd 3f 3d 39 be d1 39 a9 be 6f b3 6d be
       -0.114786826 -0.1808977 -0.33051923 -0.2321298
000110 07 1d 14 3e 62 81 02 be 5b bb 6c 3d c9 8a 90 be
       0.14464198 -0.12744668 0.057795864 -0.28230885
000120 99 9e 70 be 9a de 64 bd d6 60 55 bc 33 6d db be
       -0.23498 -0.055876352 -0.013023576 -0.4285675
000130 00 16 9a be 3a f4 bb 3c 58 a1 bc be 68 9d 1b be
       -0.3009491 0.022943605 -0.36841846 -0.15196764
000140 23 6d 27 3e f3 0b 77 be 63 d2 da 3d a6 33 38 bd
       0.16350226 -0.24125652 0.10684659 -0.04497113
000150 cf bd 29 be 66 69 2c 3e ba ec a8 be e1 1f ec be
       -0.16576312 0.16837081 -0.32993108 -0.46118072
000160 19 be b7 be 12 d8 0f bd 36 22 30 3d d4 2a 95 be
       -0.3588722 -0.03511817 0.043001376 -0.29134238
000170 4e 35 05 bb 0f 86 94 3e 0f 6d a1 be 78 5a a9 be
       -0.0020325962 0.2900853 -0.31528518 -0.33076835
000180 e7 0f 00 be 08 e7 84 3c 9c e2 a8 be 75 e0 05 be
       -0.12506066 0.016223446 -0.3298539 -0.13073905
000190 72 32 8a be 05 bb 65 3c 4d 43 85 be f7 1a ca 3d
       -0.26991612 0.01402164 -0.2602791 0.098684244
0001a0 8f 4d f6 bc 4a a7 bd be f2 bf a6 be 12 14 8b be
       -0.03006628 -0.37041694 -0.32568318 -0.2716375
0001b0 8e ef cd be 94 11 cd be a2 3d e0 be 88 0b a0 be
       -0.40221828 -0.40052474 -0.43797022 -0.31258798
0001c0 fc 30 c1 3d 8f 3d 59 3e 0c 13 62 3d e3 89 a2 3d
       0.09433171 0.21214889 0.055193946 0.07936456
0001d0 66 4a 01 bd 89 54 1f bf 40 7a dc be 6a 04 79 3d
       -0.031565093 -0.62238365 -0.4306202 0.060795225
0001e0 5f 01 c8 be 84 7f 48 3e db 84 94 3d bf 30 00 3e
       -0.39063546 0.19579893 0.07251903 0.12518595
0001f0 a7 07 78 be 41 66 ca 3d f2 93 b7 3c 1c 4a 40 3e
       -0.24221669 0.09882785 0.022409413 0.1877827
000200 55 93 75 bd 89 f6 bc 3d 44 16 77 3e e5 d3 3a bd
       -0.05995496 0.0922671 0.24129587 -0.045612235
000210 28 21 01 3f e3 48 be bd 6a c1 94 bd 8a 14 6e bd
       0.5044122 -0.09291246 -0.07263453 -0.058125056
000220 2a a2 b2 3e 05 5a 43 3e bc a2 13 3f d6 ca 45 bd
       0.34889346 0.19077308 0.5767019 -0.048289143
000230 90 c8 c6 bd c3 4e a9 bd bd 3b 42 3e e3 e3 9c 3e
       -0.09706223 -0.08266976 0.18968101 0.30642614
000240 83 bd 33 be 2f 57 1d 3f 2d 15 89 3e 05 61 33 3e
       -0.17552762 0.61461157 0.26773968 0.17517479
000250 ce b6 21 be eb 8a 4a be 90 9e 7f 3e 50 33 93 3e
       -0.1579239 -0.19779555 0.2496283 0.28750086
000260 02 a5 92 bd e5 e6 6a 3e f7 b7 49 3e 5a 99 a2 3e
       -0.07160379 0.22939642 0.19699083 0.31757623
000270 e5 86 1f 3e 9a 27 49 3e 81 23 9e 3e a9 99 90 3d
       0.15578802 0.19644013 0.30886462 0.07060558
000280 be 29 d0 be 6d 71 9f 3e 61 be 04 bd 99 6b c4 3d
       -0.40656847 0.31141225 -0.032408122 0.09590835
000290 c7 79 dd bd d3 73 6a 3e a1 2e 39 3d 70 f9 e1 3e
       -0.10814243 0.22895746 0.045210484 0.44135618
0002a0 1b 77 b4 3e 7b 0c 14 bc a2 7c e6 3e c4 4f c4 bd
       0.3524712 -0.009036179 0.45016962 -0.095855266
0002b0 90 0b 86 3e 83 cf b7 3e b6 b5 71 3e 81 0b 60 bd
       0.26180696 0.35900506 0.23604473 -0.05469847
0002c0 a0 ba e0 3d a5 d6 3e be c4 67 d8 3e ef 7b 59 bd
       0.10973096 -0.18636568 0.42266667 -0.053096708
0002d0 bb 82 eb 3e 00 3f c2 3e 22 37 c6 3e c9 d0 fd 3e
       0.45998177 0.3793869 0.38713938 0.49573353
0002e0 c7 55 aa bd f4 cb 05 3f 78 ad 6e 3e d5 20 ec 3e
       -0.08317142 0.5226433 0.2330836 0.461188
0002f0 a1 2c 5d bd 2f ca bf 3e 34 51 88 bd 37 a1 90 3e
       -0.05399764 0.3745894 -0.06656113 0.28247997
000300 ad 61 03 3e 7f 58 06 3f 84 a8 e5 bc ed 9f b1 3e
       0.12830229 0.52478784 -0.028034456 0.34692326
000310 7d 39 ca be a0 62 cd 3e 02 44 1d 3e 8a c7 a4 3e
       -0.39496985 0.40114307 0.15357974 0.32183486
000320 32 0b ee 3e 13 28 ea 3e 89 1c bb bd 9c f6 e3 3e
       0.46492916 0.457337 -0.09136302 0.44524086
000330 e3 54 02 3c 05 16 30 be 0a a4 d0 3e 09 70 6b bd
       0.007954809 -0.171959 0.40750152 -0.057479892
000340 17 96 2b 3b 8d d6 89 3e e7 e9 c2 bd cc df d0 3e
       0.002618199 0.26921502 -0.095172696 0.40795743
000350 bc 4d 92 3e b1 59 da 3e 67 cb f6 3d 34 ab 17 3f
       0.28574932 0.42646554 0.12050515 0.5924561
000360 aa d1 5b 3e 4b f9 0d 3e 8f 59 e7 bd 7b 72 b4 3e
       0.21466699 0.13864629 -0.11296379 0.35243592
000370 22 5e de 3a 20 0a 60 3e bb 86 b9 3e d4 98 8c 3e
       0.001696531 0.21878862 0.36235604 0.2746035
000380 69 2e da 3e 15 42 a3 bd 1c ac d5 3e 43 7f 05 3f
       0.42613533 -0.079715885 0.41732872 0.5214731
000390 8c 07 b8 3e c3 c2 86 bd 58 b8 ac 3e 4e 62 1c bc
       0.35943258 -0.065801166 0.33734393 -0.009544922
0003a0 28 2c 8b 3e f0 3a f4 3e f5 64 ad 3e a5 3c 98 3e
       0.27182126 0.47701216 0.33866087 0.29733768
0003b0 6f 0e f6 3e 05 c2 13 3f 00 b0 15 3f 45 74 a1 3e
       0.48057887 0.57717925 0.5847168 0.3153402
0003c0 4a 29 f5 3d 0b af 0b be fc db 10 be 4a 39 b4 3e
       0.11970766 -0.13640992 -0.14146417 0.35199958
0003d0 e5 4f 03 3e f9 07 ee 3e 6d cc c8 3e 7b 8c 88 bd
       0.12823446 0.46490458 0.39218464 -0.066674195
0003e0 75 20 f4 3e 5d d3 34 be ca 63 d0 bd 70 37 1d be
       0.47681013 -0.17658754 -0.10175283 -0.15353179
0003f0 41 06 c1 3e 1c ed 62 3e 31 70 9d bd 0d 5e 35 be
       0.37700084 0.22160763 -0.076874144 -0.17711659

fc3.bias f4 [2]
000000 e5 2e d7 3d 28 dc a3 bd
       0.10506991 -0.08000976
